sim2real/policies/no_vel/policy.pt (torch, 35378 bytes, 6 tensors)

weight f4 [64, 23]
000000 ab 0f ea bd b7 50 64 3f b4 ef 97 3e 2c 1a 7c 3f
       -0.1142877 0.8918566 0.29675066 0.98477435
000010 e4 75 d3 3c a8 ac 86 bd 85 64 02 3e ee 26 d9 3c
       0.02581305 -0.065759 0.12733658 0.026507821
000020 ea 22 51 bd eb 96 8d bf 78 bc 0f 3f 1a 03 25 3d
       -0.051058687 -1.1061682 0.56146955 0.04028616
000030 06 8d 1b 3f fd b0 d5 bd 59 a3 d8 3d a1 07 36 be
       0.6076206 -0.104341485 0.10578031 -0.17776348
000040 07 41 e6 3d 6d eb cf bc 5e 8f 1c be e8 13 d0 3c
       0.11242872 -0.025380814 -0.15289065 0.025400117
000050 87 53 0f be df bf 47 3c de 48 2a be 2b 67 92 3e
       -0.13996707 0.012191742 -0.16629359 0.28594336
000060 1e 9e d9 be ea 0b 71 3e f0 76 14 be 3b b1 4c bd
       -0.42503446 0.23539701 -0.14498496 -0.049973708
000070 f1 82 6d 3e 46 fd 06 be 52 e9 b9 3d a0 c2 65 be
       0.23194481 -0.13182554 0.090777054 -0.22437525
000080 de e0 98 3f 45 f9 bb be ac 24 8a bd a9 f0 8e 3d
       1.1943624 -0.36713615 -0.06745276 0.06979496
000090 45 30 59 bc 7a 7e 2c 3e 9d 83 9b bd 25 6d ab bc
       -0.013256137 0.16845122 -0.075934626 -0.020926068
0000a0 47 94 f7 3d 38 c9 e0 3d 2e 65 53 bd e4 49 5b 3d
       0.120888285 0.109758794 -0.051610164 0.053537264
0000b0 77 01 80 3e be bd 34 3b c4 96 20 3c 0e f6 da 3d
       0.25001118 0.0027578915 0.00980157 0.106914625
0000c0 9d b1 7b 3d 13 64 11 be 39 76 99 3e 5e 4a 5c be
       0.061448682 -0.14198332 0.2997301 -0.21512744
0000d0 68 d4 5c be 8f a4 1a 3e 18 39 0b 3e 4a d8 99 3e
       -0.21565402 0.15101837 0.13595998 0.30047828
0000e0 34 01 ac be a2 81 27 bb 2f f4 ff 3e fd 7c 8b be
       -0.33594668 -0.0025559445 0.49990985 -0.27243796
0000f0 5c de 75 3c 93 3b 8d be 88 2d 3a bd d7 33 93 3c
       0.015006628 -0.27584514 -0.04545358 0.017969055
000100 12 ae 92 3e f5 1a 9e bd 20 ac 0b 3e ee 7f 89 bd
       0.2864843 -0.077199854 0.13639879 -0.06713854
000110 16 18 6b be dc 64 a3 3d f0 6e a9 3e 74 bb 50 3e
       -0.22958407 0.07978222 0.3309245 0.20384008
000120 ae 8b a6 3d 15 24 5c be 5a b1 99 be 20 87 74 be
       0.081321105 -0.21498139 -0.3001812 -0.23879671
000130 8a 5b 86 be 06 78 84 bd 17 1a a2 3e 13 6e c1 3e
       -0.26241714 -0.06468205 0.3166053 0.37779292
000140 f4 2b de bd a8 5f dd be 8b 78 76 3e 79 7d b1 bd
       -0.10848227 -0.43237042 0.24069421 -0.0866651
000150 2a b6 06 3e 3c 3e c1 bd 63 9e 99 3d b0 2d 92 bd
       0.13155428 -0.094356984 0.07500913 -0.071376204
000160 c8 88 9b 3c 44 31 91 3d 6a f8 91 3d 5a 98 49 bd
       0.01898612 0.07089475 0.07127459 -0.04921756
000170 a0 af 54 3d 28 d9 24 3e 7b 7a 79 be 36 27 26 bf
       0.0519253 0.16098464 -0.24363129 -0.6490358
000180 91 cf bb 3e 4b fe a9 be 5e 16 85 3e 56 7f 07 be
       0.36681798 -0.33201823 0.25993627 -0.13232169
000190 b0 e2 11 bd bc 94 ca be 6f b2 36 3d b5 b4 19 be
       -0.035616577 -0.395666 0.04460376 -0.1501034
0001a0 f4 fc fe 3e 98 59 a4 be 13 2a 32 be 54 ae 7e be
       0.49802363 -0.32099605 -0.17398863 -0.24871188
0001b0 88 00 80 bd ed af 10 be 95 80 7d 3d 10 66 1e 3c
       -0.06250101 -0.1412961 0.061890204 0.009667888
0001c0 5d 49 1a 3e 5a 3b 9f bd 3a 94 1b 3d d2 90 41 bf
       0.15067048 -0.07774992 0.037983157 -0.75611603
0001d0 a0 18 03 be 06 6a 32 bf 05 07 95 be 62 1d a8 be
       -0.12802362 -0.6969303 -0.29106918 -0.32834917
0001e0 2b 9d 1f 3d c0 42 a1 bd 12 dc 87 bc e2 5b 30 be
       0.038968246 -0.0787406 -0.01658443 -0.1722255
0001f0 4d 23 be bf 91 da 9d be a3 82 94 bd 96 48 c7 be
       -1.4854523 -0.30830815 -0.072514795 -0.38922566
000200 df a2 77 3e dd 1f 31 bd 36 02 13 3e 74 f3 c2 bc
       0.24183224 -0.043243278 0.14356312 -0.023797728
000210 72 b5 ad bd d5 75 2f 3c e4 4f 28 3d 21 e3 11 bd
       -0.084818736 0.010709246 0.041091815 -0.035616998
000220 ad f0 ae bd 28 f5 6f 3b f5 34 1f 3f 31 ec f6 bd
       -0.08541999 0.003661463 0.6219018 -0.12056769
000230 1c 31 43 3f 5b a9 99 be 95 b5 9b 3e ff 14 1a be
       0.7624681 -0.3001202 0.30411974 -0.15047072
000240 1d fa f0 3d df 8f e8 bc 76 39 92 bd f6 86 ab 3f
       0.11766455 -0.028388916 -0.07139866 1.3400562
000250 d5 7d 3c 3e 88 d4 26 be bf f7 8d bd ba 0c bf be
       0.18407376 -0.16292012 -0.069320194 -0.37314397
000260 06 eb bd bc 32 c1 6d be d4 42 8f 3e e6 23 eb bd
       -0.023183357 -0.2321823 0.27980673 -0.114814565
000270 c3 7e 0f 3e c5 aa fe bd 28 6a 38 3e f9 27 12 be
       0.140132 -0.124349155 0.18009245 -0.14273061
000280 28 0f be 3d 9c 0d a7 3d 6c 27 33 3f 20 47 9e be
       0.092802346 0.08156893 0.6998203 -0.3091364
000290 bf e0 f2 3d 6c f9 83 bd e0 7c 0c be a4 ac b3 3e
       0.11859273 -0.06444058 -0.13719511 0.35092652
0002a0 ee 5b 69 3d 0f 73 9c be fb fe d7 be b6 5c d4 3e
       0.056972437 -0.30556533 -0.42186722 0.41476983
0002b0 e9 14 eb 3d 25 2e 09 bf d8 b0 ae 3d 75 96 9b bd
       0.11478598 -0.53586036 0.08529824 -0.07597057
0002c0 f1 82 25 be a9 60 51 3e 01 a4 8f 3d 34 f3 2c be
       -0.16163231 0.20447029 0.07013703 -0.1688965
0002d0 df 39 a3 bd be 9d ff 3c 4d a1 f9 3c 2a 96 f0 bd
       -0.079700224 0.031203147 0.030472422 -0.117473915
0002e0 23 ab 82 3e e0 77 f8 bc e8 e5 3c 3f c1 a2 71 be
       0.25521192 -0.030330598 0.7378831 -0.23597242
0002f0 2a 7a ac be e4 39 a8 b9 9e 1f 97 3e 01 db 18 3b
       -0.33686954 -0.0003208659 0.2951631 0.0023323896
000300 06 9c 53 3e 13 69 30 be 6b b0 98 bd 61 ae 40 bd
       0.20664987 -0.17227583 -0.07455524 -0.0470413
000310 ea db 96 be 1c 65 e5 3d e6 fa 49 3d 90 cc 4b 3d
       -0.29464656 0.11200926 0.04931154 0.049755633
000320 b3 4b 3e 3d ae e4 45 bd 53 a4 34 bd 26 df b7 3b
       0.04645891 -0.04831379 -0.044102024 0.005611318
000330 5e c0 71 bd 62 34 3a 3b 09 25 2d bd 8b 99 ec bd
       -0.059021346 0.002841257 -0.042271648 -0.115527235
000340 3b 36 0c bf ba 90 c5 3e 85 cc b5 3e d0 34 76 3e
       -0.5477025 0.3858698 0.355076 0.24043584
000350 f9 05 c0 3c b3 b7 39 3e ec 14 1e be f7 ab 36 3e
       0.023440348 0.18136482 -0.15437669 0.17839037
000360 f0 15 92 3b 7f 3f 6c be 8b ee b5 3d fc 56 43 be
       0.0044581816 -0.23071097 0.08883389 -0.1907615
000370 dd c0 ee be f7 2e 1b 3e 9c 49 1e be c7 85 22 be
       -0.46631518 0.15154634 -0.15457767 -0.15871345
000380 21 69 06 be 71 8b 46 3d ba 8a a1 3e a7 f8 c8 3d
       -0.13126041 0.048472825 0.31551152 0.09813052
000390 67 61 cb bd c2 67 27 be 81 6b d2 3d 94 78 f8 3d
       -0.099306874 -0.16348174 0.10274411 0.121323735
0003a0 17 f3 e7 be 6f 84 be 3e 21 7b ca be c1 40 69 3e
       -0.4530265 0.37210414 -0.39547065 0.22778608
0003b0 f2 8d 9e 3d 82 29 02 be fc 73 63 be 86 c2 f3 be
       0.07741918 -0.12711146 -0.22212213 -0.47609347
0003c0 e4 e2 13 3f e8 46 d3 bd 12 e3 d0 be ab c6 c2 bb
       0.5776808 -0.10316259 -0.4079824 -0.005944093
0003d0 43 2b 25 bd f0 e9 54 be ac b8 ba bd 2e 7b 10 be
       -0.04032446 -0.20792365 -0.091172546 -0.1410949
0003e0 94 6a 2c 3d f4 89 97 3e 3b c0 80 be cd 26 6e be
       0.04209383 0.29597437 -0.2514666 -0.23256989
0003f0 41 c2 d4 3b 08 e3 18 be d5 71 c5 be 4a 3a b9 be
       0.0064928834 -0.14930356 -0.3856341 -0.36177284

bias f4 [64]
000000 6d 59 2e be cd db e9 3d 3e 3c a6 be ff 20 d6 bb
       -0.170263 0.11418877 -0.32467836 -0.006534695
000010 48 bd 11 bd 19 eb da b7 f8 48 5d be 43 66 29 be
       -0.035580903 -2.6097101e-05 -0.21609867 -0.16542916
000020 a9 d9 cf bd d3 6d 4c 3d a8 d9 c1 bd 44 dc 04 be
       -0.10148937 0.049909424 -0.09465343 -0.1297465
000030 fa c1 83 3d 67 4c 97 be 94 8b 26 3e 34 eb 2b bc
       0.064334825 -0.29550478 0.16264182 -0.0104930885
000040 98 35 11 bd f3 b9 65 3e 3b 0b 39 be 43 06 b2 be
       -0.0354515 0.22434215 -0.1807069 -0.34770402
000050 d7 e1 9a bd 8f 45 16 be 51 b3 60 bd 21 97 1a be
       -0.07562607 -0.14674972 -0.05485851 -0.15096714
000060 82 48 ce be 36 60 bf 3d 9b f9 60 3e ab 60 bb 3e
       -0.40289694 0.09344523 0.21970217 0.3659719
000070 19 9a 2b 3e 23 c1 35 be 94 ba b5 bd 98 49 65 be
       0.16758002 -0.17749457 -0.088734776 -0.22391355
000080 d4 67 09 be ce 10 da bd b5 96 68 3c dd c4 ab bd
       -0.13418514 -0.106477365 0.014196088 -0.08387158
000090 a2 20 17 3e 2f 0f 46 3c 73 95 af bd 35 6a 02 3e
       0.14758542 0.012088581 -0.08573427 0.12735827
0000a0 3d a1 88 3c cd 65 24 3e 1d 68 eb 3c 8b 9b 30 3e
       0.016678447 0.16054459 0.028736169 0.17246835
0000b0 aa 02 f3 3d 87 dd 8c 3b f4 35 4b 3e aa df d1 bd
       0.118657425 0.004298869 0.198448 -0.10247739
0000c0 f4 61 51 3c 1c 79 53 bc 84 d5 31 3e 7e c5 2b 3d
       0.0127797015 -0.012907293 0.17366606 0.04193639
0000d0 c4 1d 69 bd 30 29 21 be 43 e8 25 be 6e 49 20 bd
       -0.056913152 -0.15738368 -0.16201882 -0.039132528
0000e0 58 33 2b be 3f dc 2b 3b 52 4e ca 3d 9b 8f dc 3d
       -0.16718805 0.0026223806 0.0987822 0.10769578
0000f0 74 cc f5 bc 1a 1c 8f 3d 96 18 9b bd 11 e7 85 bc
       -0.030004717 0.06987782 -0.07573049 -0.016345533

weight f4 [64, 64]
000000 92 2e 25 be 0d 0f af 3b da ba 99 bd 86 b7 b7 bd
       -0.16131046 0.0053423704 -0.07506342 -0.08970551
000010 23 19 08 be 82 93 53 3e 86 c1 61 3e 8e 15 65 3e
       -0.13290839 0.20661739 0.2204648 0.22371504
000020 12 3d 0d 3d 49 42 d0 bd ee 1f 14 3e 67 49 a4 bc
       0.03448207 -0.10168893 0.14465305 -0.020054532
000030 6d 87 fc bd 48 30 a4 bd dc 90 d0 bd d1 39 82 bd
       -0.12330518 -0.080170214 -0.1018388 -0.06358684
000040 f6 d2 81 bc 0b c7 84 bd 23 e6 24 3e ed fc 1d 3e
       -0.015847664 -0.06483277 0.16103415 0.15428515
000050 9c 98 25 be d6 00 07 bd 46 d0 a1 bd 17 d1 c1 bd
       -0.16171497 -0.03295978 -0.07901053 -0.09463709
000060 88 da 20 3e e0 43 6a 3c 78 7f 9b 3d d9 b4 a1 bd
       0.15708363 0.014298409 0.07592672 -0.07895822
000070 dc 41 5a be 9d 78 16 3e 19 fa 94 bd d3 a9 3b 3e
       -0.21314186 0.14694448 -0.07274265 0.18326502
000080 9c bf 8e 3d 1d 84 33 bc 45 db e4 bc bc aa 56 bd
       0.0697014 -0.010956791 -0.027936587 -0.05240892
000090 9b 67 1b be f3 ca 0a be 34 b7 90 3d 28 c3 9b bd
       -0.15176241 -0.13553981 0.07066193 -0.076055825
0000a0 52 3d 2d be 35 c4 93 3d 49 73 35 3c 91 4e c9 3d
       -0.16917923 0.07215158 0.011074849 0.098294385
0000b0 b1 43 2b bc f4 8c 46 be 2b 83 53 be ae 7e 54 3d
       -0.010453151 -0.19389707 -0.20655505 0.051878624
0000c0 20 92 89 bb 44 72 d4 3d dd 5a de bc 45 42 d9 3c
       -0.0041983277 0.10373357 -0.027142936 0.026520858
0000d0 5d e4 71 bc 18 30 cb 3c a3 d0 fd bc 32 fd 83 3e
       -0.014763919 0.024803206 -0.030983275 0.2577911
0000e0 00 6a 0a 3e a1 b5 fa bc 41 68 f6 3c ef f1 80 be
       0.13516998 -0.030604186 0.030079009 -0.2518458
0000f0 4d 0a bd 3c e6 10 1f 3d c5 1a 15 bd a0 e0 8f 3c
       0.0230762 0.038834475 -0.036402483 0.017563164
000100 d0 69 46 bd ab 33 88 bd d7 af 91 be 94 11 9d 3d
       -0.048440754 -0.0665048 -0.28454468 0.076693684
000110 8d 68 58 bc 24 8c 9c 3e 86 0e 00 bf 82 d4 d3 3c
       -0.013208521 0.3057567 -0.5002216 0.025858168
000120 50 83 4d 3b ff cd f3 3d de 48 a6 3e f3 c8 81 be
       0.0031358786 0.11904525 0.32477468 -0.25348625
000130 28 59 1c 3e bf d5 b6 be 08 88 df 3d 09 4f 50 3e
       0.15268385 -0.3570995 0.10914618 0.2034265
000140 d6 e1 a1 bc f2 af 79 3d 73 0d a4 3e 83 39 ab be
       -0.019761007 0.06095881 0.3204151 -0.33442315
000150 e8 9b 05 3d 1d d3 32 3e e7 e9 53 3e 25 46 85 3b
       0.032619387 0.17463346 0.20694695 0.0040672
000160 59 54 ea 3d 9f f0 b5 3c c1 67 3a 3d fd de 21 3e
       0.11441869 0.022209464 0.045509104 0.1580772
000170 80 26 39 3b 69 96 75 be 1e f4 3a be 1b 4c a8 3c
       0.0028251708 -0.23983158 -0.18257186 0.020544102
000180 5c 99 72 3d 67 66 b0 3e 60 4f b8 be 39 cf 6b be
       0.059228286 0.34453127 -0.35998058 -0.23028268
000190 49 6a 72 be 6f 64 d3 bc f1 4f a3 3d 9e 23 9c 3c
       -0.23673357 -0.025804726 0.07974232 0.019059952
0001a0 ed 45 be 3d d5 c0 84 3e 03 c9 3b be e0 38 a8 3d
       0.09290681 0.2592837 -0.18338399 0.08213973
0001b0 e6 14 46 be 86 2b 80 bb b9 68 e4 3d 21 1b 86 bd
       -0.1934391 -0.0039114384 0.11152787 -0.06548143
0001c0 9b bd 11 3e 30 2b 7d bd 7a 8e 98 3e ca e2 1b be
       0.14232485 -0.061808765 0.297962 -0.15223232
0001d0 11 75 01 be 7d 68 6f be 80 66 30 3e f8 b1 27 be
       -0.12642314 -0.23379703 0.172266 -0.16376483
0001e0 9a 7c fc bd c8 33 34 be 60 ca 82 3d 59 cf 15 be
       -0.12328453 -0.17597878 0.06386256 -0.14629878
0001f0 b5 87 05 be 68 84 82 bd 47 dc 56 3e cf f5 6c bd
       -0.1304005 -0.06372911 0.20982467 -0.05785161
000200 1a 71 37 be 69 52 de bc 82 09 a2 bd b3 86 72 3d
       -0.17914239 -0.027138906 -0.0791197 0.05921049
000210 9e d5 9c bd d5 f3 0f bd 34 a4 1d be 96 91 cc 3d
       -0.07657932 -0.035144646 -0.1539467 0.09988706
000220 42 7d 08 be af a3 b8 3d fc 77 0d 3d 27 31 ec 3d
       -0.13329032 0.09015595 0.034538254 0.115328126
000230 9e 56 9a 3c f4 e8 0a be 2b 81 28 3e 29 ac a8 3b
       0.01884013 -0.13565427 0.16455524 0.005147476
000240 a4 9a 71 bd 0d 07 49 bd d5 ef 3d bc 1e 73 0c 3e
       -0.058985367 -0.04907899 -0.011592825 0.13715789
000250 8b ae 12 be 74 8f c1 3d c0 f2 38 be 23 3f ce bd
       -0.14324395 0.0945119 -0.18061352 -0.10070636
000260 22 e0 dd bd 70 8d 16 bb c1 de c8 bd 7d 5b d1 bc
       -0.108337656 -0.0022972487 -0.09808112 -0.02555632
000270 bf 0f 81 3b e4 2b 26 3e 6b 34 fe bd a5 95 62 bd
       0.0039386447 0.1622768 -0.12412342 -0.055318493
000280 b4 8a 05 3d 77 26 75 bd f9 99 83 bd 31 61 f1 bd
       0.03260298 -0.059851136 -0.06425852 -0.11786116
000290 c7 8a 97 bd 97 9d 14 3d 45 d8 6e 3d f4 5d 81 bd
       -0.073995166 0.036283102 0.05831172 -0.06316748
0002a0 25 29 02 3d 97 2b 91 3d db 6f da 3d 17 f2 71 bc
       0.03177752 0.07088392 0.10665866 -0.014767191
0002b0 7a 5f ed 3c cd d0 8b 3d cb bd 61 3d 95 19 be 3d
       0.02897619 0.06826935 0.05511264 0.09282223
0002c0 87 ed 24 bd 15 8b 96 bd ac e2 00 3e 21 de c3 bd
       -0.040265586 -0.073507465 0.12586468 -0.09563852
0002d0 b2 5a 98 3d cd 3e fa 3c 04 20 8b 3c 63 99 8a bb
       0.07439174 0.030547524 0.01698304 -0.004229711
0002e0 0f 76 18 3e ae 2f 61 3e 8c f8 cd bd cb 61 5d be
       0.14888786 0.21990845 -0.10057172 -0.21619336
0002f0 29 c8 24 bd 0b 5b 6e 3d 3a 23 bf bd ba a6 d3 bd
       -0.04022995 0.058192294 -0.09332891 -0.10334535
000300 06 18 e3 3c 8e 6e 28 bd 3d ac b5 bd ad aa 00 3e
       0.027721416 -0.04112106 -0.088707425 0.12565108
000310 e2 26 77 3e ba fe 37 be b2 e9 22 3e a5 d1 af 3c
       0.24135926 -0.17968264 0.1590946 0.021462271
000320 16 49 0d 3e f5 06 83 bc 6d 03 60 bd 22 5e 9a 3d
       0.13797411 -0.015994528 -0.054690767 0.07537486
000330 8d 96 36 3c de 38 97 3d de cc 53 be 3f 9b 1e 3c
       0.011144293 0.073838934 -0.2068362 0.009680568
000340 e3 c0 7b 3e 1b 13 29 3e f6 0b d1 3d 2e 43 02 3e
       0.24585299 0.16511194 0.102073595 0.1272094
000350 1b 0f 1a 3e aa c8 f2 3d ff 60 8f 3e e5 e6 8b 3e
       0.15044825 0.1185468 0.2800369 0.27324596
000360 28 54 d1 bc c1 b8 d7 bd b1 16 5f 3c 72 d3 07 be
       -0.025552824 -0.10533286 0.01361625 -0.13264254
000370 a5 3a 4a 3e bc 2b 5d be 43 7b 3a 3e e2 4e 58 3e
       0.19748934 -0.21598715 0.18211083 0.21123841
000380 ab f8 a8 bd 75 b8 03 3e 82 02 85 be aa 1d 20 be
       -0.08250555 0.12863334 -0.25978476 -0.15636316
000390 eb dc 97 3d 4c d0 15 be 74 64 00 3e 53 c2 53 3d
       0.07415184 -0.1463024 0.1253832 0.051698994
0003a0 5e 26 70 3e 95 b7 db 3d 3d 91 31 3d da 16 b0 bd
       0.23452136 0.10728375 0.0433514 -0.085981086
0003b0 1a 8e 70 be 48 99 84 3c 97 68 c1 3d 94 04 f2 3d
       -0.23491707 0.016186371 0.09443777 0.118172795
0003c0 7d 1f b8 3d 03 bb 80 bd de 92 f3 bd 90 37 4b be
       0.08990381 -0.0628567 -0.11893247 -0.19845414
0003d0 8a e0 e8 3d f0 3d ac be 2b 5f dd bd a2 a2 a8 3d
       0.113709524 -0.33641005 -0.108091675 0.08234145
0003e0 a2 f0 ea 3d 99 a6 32 bd ca 77 c2 3d 22 0c c1 3d
       0.11471678 -0.04361591 0.09495504 0.09426142
0003f0 f8 c4 99 be ed 81 1d 3c 8e eb dc 3d 4c 89 93 bc
       -0.30033088 0.009613496 0.10787116 -0.018009804

bias f4 [64]
000000 70 93 0d bd d3 75 c3 bd c7 07 f3 bd ba 1f e2 3d
       -0.034564435 -0.095439576 -0.11866718 0.110412076
000010 7c df 2c be 89 28 cc 3b 5d b0 05 be ff 61 cd bc
       -0.16882128 0.006230418 -0.13055559 -0.025071142
000020 1f f8 47 be 83 33 c3 be 46 7c e7 bc 90 3b 9a be
       -0.19528244 -0.38125238 -0.0282575 -0.30123568
000030 05 1b 43 be 3a 75 7c bc a2 49 02 3d 76 c9 15 3d
       -0.19053276 -0.015408808 0.031808503 0.03656908
000040 6e f3 aa bd 56 98 42 bd 04 0b 96 bd 26 af 2b bd
       -0.08347212 -0.04750856 -0.0732632 -0.04191508
000050 60 99 cc bd b5 5c 87 3d 81 8c 46 bd 42 d3 a6 3d
       -0.099901915 0.06609479 -0.04847384 0.08145763
000060 62 52 7e bc 19 ba dc 3d 85 53 f2 bd 60 d9 d6 be
       -0.015522571 0.10777683 -0.11832336 -0.4196272
000070 32 30 a1 bd 17 5d b9 be cb 0d 29 be 59 0c 9a be
       -0.07870521 -0.36203834 -0.16509168 -0.30087546
000080 3c 54 4e bd 2d 12 f4 3c 24 3b a8 3c f0 22 18 bd
       -0.0503733 0.029793823 0.020536013 -0.037142694
000090 da fe 05 3e 4a f5 76 bd 06 40 9d ba b6 49 14 3c
       0.130855 -0.06029252 -0.001199723 0.009050777
0000a0 40 97 97 bd e4 36 33 3e 21 8d 94 39 0f e6 84 bd
       -0.074018955 0.17501408 0.0002833391 -0.06489193
0000b0 21 ef 3c 3e fd aa a9 bc d3 65 a7 be 4f cd 0b be
       0.18450595 -0.020711416 -0.32694873 -0.13652538
0000c0 f0 98 9e 3c 94 a5 ee bd f1 65 07 be 4a b1 2f bc
       0.019360036 -0.11652675 -0.13222481 -0.010723421
0000d0 35 4d af be fd b7 f7 bd fb 16 47 bd 63 bb 0a 3d
       -0.34238592 -0.1209564 -0.0486059 0.033870112
0000e0 f2 02 90 3d ef 5c af bc ec d6 9c bc 3a b7 b5 bd
       0.07031812 -0.021406619 -0.019145451 -0.08872838
0000f0 ee cc fa bd fa fd ad be 43 87 3c bd ac 7b 1c 3d
       -0.122461185 -0.3398283 -0.046027433 0.03820388

weight f4 [8, 64]
000000 4c fc df bd cd cf 73 3d f2 a8 0c bd 01 e0 79 3b
       -0.10936794 0.059524346 -0.034340806 0.0038127901
000010 97 5e d9 bd 9f e1 ea 3b d8 0f f9 bd bd 1b 72 3c
       -0.10613745 0.0071680094 -0.12161225 0.014777121
000020 f3 6d c9 bd 75 34 9b bc fd a7 44 be ff f6 1d bd
       -0.09835424 -0.018945912 -0.19204707 -0.038565632
000030 eb 4a 6d be 84 c9 52 be b8 93 8d bd b4 70 b0 3d
       -0.2317311 -0.20584685 -0.06912941 0.086152464
000040 de 12 92 3a d7 af 11 be 91 89 35 3c 0f 45 b8 3d
       0.0011144539 -0.14227234 0.011080162 0.08997547
000050 a2 96 11 be dd 8a c5 bb b7 75 1c 3d c2 96 23 3e
       -0.14217618 -0.0060285167 0.0381982 0.15975478
000060 e4 76 77 3e 69 19 42 3e 6f 67 f2 bd b7 aa a6 3c
       0.24166447 0.18955006 -0.11836135 0.020345075
000070 da 84 98 bc d3 35 9e 3d 4d ad f9 3b 38 2a 0c be
       -0.018618036 0.0772511 0.007619536 -0.1368798
000080 c9 24 f8 3d 5a 21 c8 bc 8a 3d b2 3c 7f 21 a0 3b
       0.12116391 -0.024429966 0.02175786 0.0048868055
000090 40 8e 80 3b 1c 77 a3 bc e6 90 bb bc c6 11 3e 3d
       0.0039232075 -0.019954257 -0.022896241 0.04640367
0000a0 3a 44 a6 bc 13 11 b9 3d d7 33 8e bd ac 99 2c be
       -0.020296205 0.0903646 -0.069434814 -0.16855496
0000b0 d5 23 e5 3d 9a 72 88 bd 28 ec 16 bc df db 43 3d
       0.11188475 -0.066624835 -0.0092115775 0.047817107
0000c0 8e 74 7f bc 0c b8 2f 3d fc 7f 2b bd a6 06 6a 3c
       -0.015591754 0.04290013 -0.041870102 0.014283812
0000d0 2a aa 70 3c f5 23 94 3d 2a 21 0a 3e e9 81 b8 bd
       0.014689008 0.07233421 0.13489214 -0.090091534
0000e0 71 82 57 bd 71 79 10 3b 82 a7 b5 bb 78 fb 81 bd
       -0.052614633 0.002204504 -0.00554365 -0.06346792
0000f0 0f 24 66 3c fb 9c f0 bd c5 ef 82 bb 2a 65 a7 3b
       0.014046683 -0.11748692 -0.003995868 0.0051084952
000100 5f 7e d7 bb 38 e5 96 be c0 57 05 3c a9 b3 b6 bd
       -0.006576344 -0.29471755 0.008138597 -0.08920986
000110 49 26 f3 bd 5d 02 2b 3c 32 8a 14 be 80 2d ee bc
       -0.11872537 0.010437575 -0.14505842 -0.02907443
000120 d9 67 8a bd fc 50 14 be c6 c4 63 3d 28 e0 66 bd
       -0.067580886 -0.14484018 0.05560758 -0.056366116
000130 fa 12 9b bd 37 a2 33 3d ec 41 85 3d 98 f9 8a 3c
       -0.07571979 0.043855872 0.06506714 0.016964719
000140 6a d0 d1 bc 6a f6 87 3d 80 57 6b bc e0 07 66 3d
       -0.025612075 0.06638797 -0.014364123 0.056159854
000150 90 fa 57 be 32 09 e7 bb 08 d3 24 3d 74 80 b6 3d
       -0.21091676 -0.0070506567 0.040240318 0.08911219
000160 fd ca 12 3c 15 d4 cb bb a9 72 5f 3c 1c 7a 25 be
       0.008959529 -0.0062203505 0.013638177 -0.16159862
000170 c7 c2 1a 3c a2 f0 36 bf e2 e4 13 bd 40 9a c2 bd
       0.009445853 -0.71460927 -0.03610695 -0.09502077
000180 fe fb 07 be 85 19 a3 bb fd 5b ad bd 91 9d 2c bc
       -0.13279721 -0.0049774074 -0.08464811 -0.010535614
000190 04 6a 2e 3c 71 aa d1 3b 53 29 1a 3d 7e 14 d0 bc
       0.010645393 0.006398492 0.037637066 -0.025400396
0001a0 d8 2c ab bb e0 14 d1 3d 81 4d b5 3d 1b 5c 8f 3d
       -0.0052238517 0.1020906 0.08852673 0.069999896
0001b0 16 aa 4e 3d 66 5b 36 be 65 dd cb 3c 09 6f a2 3d
       0.050455175 -0.17808303 0.024885843 0.079313345
0001c0 68 e0 0c 3a f1 e8 25 39 c9 79 6a bc 2d c8 66 3b
       0.00053740153 0.00015822404 -0.014311262 0.003521453
0001d0 ea 90 9b be 45 92 07 be c8 47 e5 3c 27 3a 2f bd
       -0.30383998 -0.13239391 0.02798833 -0.042780068
0001e0 48 67 86 3d a1 45 3d bc ca 3d 95 bb 76 8c 0e 3d
       0.06562668 -0.011552245 -0.004554485 0.034801923
0001f0 02 30 83 bd ff 88 04 3d c2 15 d7 3a 83 3b 05 bc
       -0.06405641 0.032357212 0.0016409683 -0.0081318645
000200 fa ee b4 bb 0d 7b 6a 3d 0f cc cc 3d bc c2 70 bd
       -0.0055216523 0.057246257 0.099998586 -0.058779463
000210 a4 6b 8d bd c9 ed 40 bd bd 5c bd 3d 1e e0 92 3c
       -0.069052964 -0.04710177 0.09246204 0.017929133
000220 01 fe 56 3c ab f4 fa bc ab 5f ea ba 1d 83 d1 bd
       0.013122083 -0.030634245 -0.0017881294 -0.10230086
000230 e7 f3 bd bd 50 52 99 bd 3e 84 51 3c 77 df 73 3d
       -0.09275036 -0.07486403 0.012787877 0.059539285
000240 e4 19 92 bd 71 07 d6 3d 90 bb 4a bd 93 54 dd bd
       -0.071338445 0.10450638 -0.04949528 -0.10807147
000250 12 de f1 bd 1a c0 93 bc 5f 7b 98 3d 2e c9 2d be
       -0.11809935 -0.018035937 0.07445406 -0.16971275
000260 9c 59 73 3a 4a 40 13 3d f4 cb 0d 3e 7e bd 5a 3e
       0.0009283067 0.035949983 0.13847333 0.21361348
000270 63 e2 85 bd be b6 00 3d 16 e3 01 be f2 88 88 bd
       -0.065373205 0.031424277 -0.12684283 -0.06666745
000280 af 0a a9 bd 96 8a 7d 3c 72 e1 a5 3d 44 17 56 3d
       -0.08253991 0.015474936 0.08099641 0.05226828
000290 ab a1 1b 3a d2 26 6a 3d 89 d3 c7 bd ca fa 25 bd
       0.0005936871 0.05716593 -0.09757144 -0.040522374
0002a0 aa 73 ca 3d 34 70 e3 bd d0 0d a1 bd 92 6a de 3d
       0.098853424 -0.111053854 -0.07863963 0.108601704
0002b0 db 10 0f bd 67 ce aa bd a8 92 fb 3d b0 0e 9f 3e
       -0.034928184 -0.083401494 0.12283832 0.31065893
0002c0 c8 6a 76 3c ef 43 77 3d b7 5a 2a 3e 61 3d 83 3c
       0.015040107 0.06036752 0.16636167 0.016020479
0002d0 c0 cc 84 3b 7d f2 e8 3d 6f ad 39 3e f1 2c fa 3d
       0.0040527284 0.11374376 0.18132566 0.12215603
0002e0 4f 21 3f bd ad 29 7f bd 93 16 98 bc 1c 03 cf 3c
       -0.046662625 -0.062295604 -0.018565452 0.025270037
0002f0 86 7b 09 bd de 15 bf 3d d0 59 75 bd 01 ec c3 3c
       -0.033565067 0.09330343 -0.059900105 0.023916246
000300 34 b6 9c bc d8 74 1a bc 3d 4e 57 3a a2 a4 5a 3d
       -0.01912985 -0.009427272 0.00082132575 0.053379662
000310 da 17 80 3c dd 61 8e bd 01 e0 47 bd e5 54 b4 bc
       0.015636373 -0.0695226 -0.04879761 -0.022013137
000320 b4 ee ab 3d ad ee d6 3d ef d7 40 3c 5f f6 19 bd
       0.083951384 0.104947425 0.011770233 -0.037588473
000330 96 12 b2 3d b4 9f d3 bd 86 66 5e 3d 2d 82 6d 3b
       0.08694951 -0.10333195 0.054296993 0.003624092
000340 fe 6c 8b 3d 1e 6a bf bd 62 b8 15 3c 24 43 10 3e
       0.06807898 -0.09346412 0.009138199 0.14088112
000350 9c ea 25 be 83 4d f5 3c 75 b3 9d 3d 34 71 78 bd
       -0.16202778 0.029944187 0.07700244 -0.060654834
000360 c9 56 65 bd e2 20 fa 3c 90 a0 00 3d c5 af 23 bd
       -0.055990968 0.030533258 0.031403124 -0.03996255
000370 fe de 8f 3d 7f 02 a7 3d 5d 7c 6f bd 5a 22 34 3d
       0.07024954 0.08154773 -0.05846821 0.043978073
000380 0c f8 cc bd e3 99 7b 3d c0 e9 a1 bd 47 50 12 3d
       -0.10008249 0.061426055 -0.079059124 0.03572109
000390 d3 60 88 3c a3 b3 dc bc 06 96 43 3d 97 e2 11 3d
       0.016647732 -0.026941126 0.047750495 0.035616484
0003a0 41 f8 91 3c 14 6c a7 3b f2 a8 13 bd 9d 81 d0 3d
       0.017818572 0.0051093195 -0.03604979 0.10180972
0003b0 c3 02 9a 3c e3 04 84 3d e6 52 c4 3d f8 e1 1a 3e
       0.018800145 0.064462446 0.09586124 0.15125263
0003c0 fa d1 a5 ba b0 5a f9 bc 24 e0 00 bd 8c 9d 70 3d
       -0.0012651079 -0.030438751 -0.031463757 0.058744
0003d0 18 5e b0 bd df c5 fd 3c 9e f8 16 3e 06 a7 90 3d
       -0.08611697 0.030978141 0.14743277 0.07063107
0003e0 be 60 8d bc 9d e2 4a bd 21 90 29 bd 54 e6 70 3c
       -0.017258044 -0.04953252 -0.041397218 0.014703352
0003f0 d1 49 e4 3b 16 1a 3a 3d cd e2 84 3d a9 3b 8f bc
       0.0069668074 0.045435034 0.06488571 -0.017484503

bias f4 [8]
000000 51 7e 19 3c 0a 55 00 3e 2c d4 32 be e0 0c fb bc
       0.009368495 0.1253244 -0.1746375 -0.030645788
000010 4c 4c 14 be d4 c6 b2 3e be 7c 28 be 59 97 5a be
       -0.1448223 0.3491732 -0.16453835 -0.21346797
