sim2real/policies/reach2/policy.pt (torch, 37426 bytes, 6 tensors)

weight f4 [64, 31]
0	0x3fa66037	1.2998112
1	0x3f317ed7	0.6933417
2	0x3ee362a8	0.44411206
3	0x3e6a884c	0.22903556
4	0x3eb44b90	0.352139
5	0x3eef611b	0.46753773
6	0xbe6ce77f	-0.23135184
7	0x3e760727	0.24026166
8	0x3dafe7ae	0.08589111
9	0xbdf68bde	-0.12038396
10	0x3e877c1c	0.26461875
11	0x3d496885	0.049171943
12	0x3d16417e	0.036683552
13	0x3d47da67	0.04879227
14	0xbd696fc1	-0.056991342
15	0x3e22d426	0.1590124
16	0x3f2764e2	0.6538831
17	0x3e48342b	0.1955115
18	0xbede83a2	-0.43459803
19	0xbddb33ad	-0.10703216
20	0xbecae972	-0.3963123
21	0xbe3208c5	-0.17386158
22	0x3e76616e	0.24060604
23	0xba8632ff	-0.0010238587
24	0xbde49ec5	-0.111630954
25	0xbe920318	-0.28517985
26	0xbe03496d	-0.12820978
27	0xbb69d83c	-0.0035681864
28	0xbd947ed5	-0.07250754
29	0xbe7f04c2	-0.24904159
30	0x3f1c9e20	0.6117878
31	0xbeb94af4	-0.36189997
32	0x3d85fdc5	0.06542543
33	0xbf12db44	-0.5736582
34	0xbebfb05f	-0.37439248
35	0x3f51cde1	0.8195477
36	0xbe8ab841	-0.270937
37	0x3e49ce02	0.19707492
38	0x3debea54	0.11519304
39	0xbec412bd	-0.38295546
40	0xbd94f7bf	-0.07273816
41	0xbd894f6d	-0.067046024
42	0x3d214fe0	0.039382815
43	0x3d27510b	0.040848773
44	0x3eb0bfb8	0.3452127
45	0xbe626058	-0.22107065
46	0x3d978a57	0.07399433
47	0x3e576c28	0.21037352
48	0xbfc72705	-1.5558783
49	0xbf52c3e0	-0.8233013
50	0xbed17b67	-0.4091446
51	0xbea349e6	-0.31892318
52	0xbebcfac6	-0.36910075
53	0x3ecb363e	0.3968982
54	0x3e8a5416	0.27017277
55	0x3c964e45	0.018347869
56	0x3e036e77	0.12835108
57	0x3e9f947a	0.31167966
58	0x3e354d91	0.1770537
59	0xbcd84916	-0.026402038
60	0x3c6f6762	0.014612051
61	0xbde5c70b	-0.11219605
62	0xbe0e7e86	-0.13915452
63	0x3e7b33da	0.24531499
64	0xbdddcdae	-0.10830246
65	0x3f276832	0.65393364
66	0x3ebbfb9c	0.367154
67	0xbe911381	-0.28335193
68	0xbc1578c4	-0.009123031
69	0xbe0b7ec8	-0.13622582
70	0x3e2e74db	0.17036764
71	0x3da87e1f	0.08227181
72	0x3ebe2cda	0.37143594
73	0xbe89aa3f	-0.268877
74	0x3c97c470	0.018526286
75	0xbd98d999	-0.074633785
76	0xbdbdfea0	-0.092770815
77	0x3dac91ad	0.08426223
78	0x3ee8aed5	0.45445886
79	0x400c31f5	2.1905491
80	0xbf1116fe	-0.5667571
81	0x3e733e30	0.23754191
82	0x3e9a9250	0.30189753
83	0x3e9322e3	0.28737554
84	0xbdc7d935	-0.09758226
85	0x3ddd63d9	0.1081006
86	0xbca54b5a	-0.020177532
87	0xbe772b75	-0.24137671
88	0xbe9694c6	-0.2941038
89	0x3e1b89f3	0.15189342
90	0xbe100b40	-0.14066792
91	0xbd33edfb	-0.043928128
92	0x3e9429eb	0.2893823
93	0xbedfa891	-0.43683293
94	0x3f6dfb71	0.92961794
95	0xbd2bdcda	-0.041958667
96	0x3f16f249	0.5896345
97	0x3e87a171	0.26490358
98	0xbe7b1f0c	-0.24523562
99	0x3dafb4f3	0.08579435
100	0xbed63fd6	-0.41845578
101	0xbe2f1106	-0.17096338
102	0x3dc4a375	0.096014895
103	0xbe7414b6	-0.23836026
104	0xbebb1bf9	-0.3654478
105	0xbe99db53	-0.30050144
106	0xbe43be2e	-0.19115517
107	0xbe433fe6	-0.19067344
108	0xbe7b1d58	-0.24522913
109	0xbf163f25	-0.586901
110	0x3cf602ec	0.03003069
111	0x3e36e383	0.17860226
112	0xbd8a1a23	-0.067432664
113	0x3d37ddaa	0.04488913
114	0xbe768890	-0.24075532
115	0xbe8b5ba8	-0.27218366
116	0xbd641f60	-0.055693984
117	0xbe9ada41	-0.3024464
118	0xbdb59c6f	-0.08867728
119	0xbdfeedf5	-0.124477305
120	0xbda8a7b4	-0.08235112
121	0xbe094b07	-0.13407527
122	0xbdce12aa	-0.10062154
123	0xbeaab552	-0.3334146
124	0xbefb2b0b	-0.49056277
125	0xbed70c31	-0.4200149
126	0xbe7fc6dd	-0.24978204
127	0xbf1969a6	-0.5992683
128	0xbd043826	-0.03228011
129	0xbe6b97dd	-0.2300715
130	0x3d9c2798	0.076247394
131	0x3c3a1f75	0.011360039
132	0xbe9a76aa	-0.30168658
133	0xbd20c480	-0.039249897
134	0xbd99fa31	-0.07518423
135	0xbe7a8019	-0.24462928
136	0x3e51ee55	0.20501073
137	0xbe861d65	-0.261943
138	0xbd2d4d11	-0.042309824
139	0x3e0cdc47	0.13755904
140	0xbeb835f0	-0.3597865
141	0x3f81bd7f	1.0135955
142	0x3f475d94	0.77877164
143	0xbed7fdf4	-0.42185938
144	0x3ea71241	0.32631114
145	0xbe814882	-0.25250632
146	0xbe877816	-0.26458806
147	0x3d7f30d7	0.062302437
148	0xbdfec3cb	-0.12439688
149	0x3dc4ed88	0.09615618
150	0x3caa1c71	0.020765515
151	0x3c92bb3b	0.017911544
152	0xbe1d0b68	-0.15336382
153	0xbe857cd7	-0.26071808
154	0x3e17cbcf	0.1482384
155	0x3ec51c8c	0.38498342
156	0x3f5e5351	0.8684588
157	0x3e56d043	0.20977883
158	0xbdd215b8	-0.10258049
159	0x3e855358	0.2604015
160	0xbea24b49	-0.31698063
161	0x3dd37388	0.1032477
162	0xbdb4b8a4	-0.0882428
163	0xbe1b49ae	-0.15164825
164	0xbe110fc7	-0.14166175
165	0x3d943870	0.07237327
166	0x3d1285e1	0.035772208
167	0x3e9adf1b	0.3024834
168	0x3ceb0330	0.028688043
169	0xbda45bda	-0.08025332
170	0x3dedce09	0.11611564
171	0xbdae2a10	-0.085041165
172	0x3f1701d2	0.5898715
173	0xbed8b8bb	-0.42328438
174	0xbf39aede	-0.7253245
175	0xbe8e444b	-0.27786478
176	0xbf41cbba	-0.7570149
177	0x3e8f9279	0.28041437
178	0x3e3620f3	0.17786007
179	0xbea7d75d	-0.32781497
180	0xbe414fb3	-0.18878059
181	0x3d09c8db	0.033638816
182	0xbe05cbac	-0.13065976
183	0xbe28cbf7	-0.16484056
184	0x3e937f12	0.28807884
185	0x3f3e2d31	0.74287707
186	0x3fc2419d	1.5176274
187	0x3e2c74e6	0.16841468
188	0x3f12c020	0.5732441
189	0xbf0dffac	-0.5546825
190	0x3dd6af1d	0.10482619
191	0xbe06dfc7	-0.13171302
192	0x3ef42a68	0.47688603
193	0x3e7535b6	0.2394627
194	0xbd27224f	-0.040804204
195	0xbe1df45c	-0.15425247
196	0x3e164217	0.14673649
197	0xbd238bea	-0.039928354
198	0x3d2b238c	0.041781947
199	0xbda24254	-0.07922807
200	0xbe17490e	-0.14773962
201	0x3da73c00	0.08165741
202	0x3edbe2fd	0.42946616
203	0x3fdd0ae3	1.7268947
204	0xbf56bf2e	-0.8388547
205	0xbe65ca48	-0.22440445
206	0xbefe79af	-0.49702212
207	0xbe8dd394	-0.27700484
208	0x3ea83cce	0.3285889
209	0x3e3d82cc	0.18506926
210	0x3ccd02ab	0.025025686
211	0x3dc68a8c	0.096943945
212	0xbdb1b18c	-0.086764425
213	0xbe0af3cb	-0.13569562
214	0xbe0fdfd7	-0.14050232
215	0x3e7701a3	0.24121718
216	0xbdeb8543	-0.11500027
217	0xbf2841b3	-0.6572525
218	0xbe2ff5d6	-0.17183623
219	0xbea846e0	-0.32866573
220	0xbf3e914f	-0.74440473
221	0xbdc1e2bb	-0.094670735
222	0x3ebec2e2	0.3725806
223	0x3eae50e5	0.34046093
224	0xbea97302	-0.33095556
225	0x3ecf3037	0.40466473
226	0x3e3591f0	0.17731452
227	0x3e07d5e8	0.13265193
228	0xbe3790d6	-0.17926344
229	0x3d7d465b	0.061834674
230	0xbcd6ce40	-0.026221395
231	0x3e0b1929	0.13583817
232	0xbd4fb590	-0.05071026
233	0x3eeeb60b	0.46623263
234	0xbfd9d55d	-1.7018238
235	0xbf1d5e73	-0.61472243
236	0x3dccb15b	0.09994765
237	0x3e16ef41	0.14739706
238	0xbd55ad29	-0.05216709
239	0xbee76a5e	-0.4519834
240	0x3df9fd1c	0.1220648
241	0x3dbb2a6f	0.09138953
242	0x3de5a6a6	0.11213426
243	0xbd68f2bf	-0.056872126
244	0x3dd6a6bd	0.104810216
245	0xbb9f5876	-0.0048628403
246	0xbc754916	-0.014971038
247	0x3ead0ddc	0.33799636
248	0x3f7bb859	0.9832817
249	0x3dadd8d6	0.08488624
250	0x3e232782	0.1593304
251	0xbf32383d	-0.6961706
252	0xbc973704	-0.01845885
253	0xbed0189f	-0.40643784
254	0x3e4f4ae2	0.2024341
255	0xbee0fe3e	-0.4394397

bias f4 [64]
0	0x3b02d118	0.0019961055
1	0x3e1367c0	0.14395046
2	0xbea3d3f5	-0.31997648
3	0xbee0d0fe	-0.43909448
4	0xbd3857d4	-0.045005634
5	0xbe62689c	-0.22110218
6	0x3d8f8c24	0.070091516
7	0x3e9b2e92	0.30308968
8	0xbe6c3206	-0.23065957
9	0xbd92d408	-0.07169348
10	0xbd9863ce	-0.07440911
11	0xbdd123af	-0.10211884
12	0x3e2a2c89	0.16618551
13	0xbc974c49	-0.018468993
14	0xbe1902b7	-0.14942442
15	0xbe9a4c86	-0.30136508
16	0x3e206182	0.15662196
17	0xbe8f2632	-0.27958828
18	0x3d3216bf	0.043478724
19	0xbe70208c	-0.23449916
20	0x3e9b8690	0.303761
21	0xbe330439	-0.1748208
22	0xbeab7d67	-0.33494112
23	0xbe1a9916	-0.1509746
24	0x3d1e042e	0.038578205
25	0xbd56f231	-0.052477065
26	0x3e610fe0	0.21978712
27	0xbea28ea2	-0.31749445
28	0xbe2a5880	-0.16635323
29	0xbdca4b59	-0.09877653
30	0xbdc2dd29	-0.09514839
31	0xbdcee3e2	-0.10102059
32	0xbe50f280	-0.20405006
33	0xbe41eb5d	-0.1893744
34	0xbe9c1717	-0.30486366
35	0xbe8f9fa8	-0.28051496
36	0xbcbb9a29	-0.022900658
37	0x3e368243	0.17823128
38	0x3d138a2f	0.036020454
39	0xbe576afe	-0.21036908
40	0x3d28f0b4	0.041245177
41	0x3cf74992	0.030186448
42	0xbed46a68	-0.41487432
43	0xbe8ffc86	-0.28122348
44	0xbe84f79d	-0.25970164
45	0x3db77ac9	0.08958966
46	0x3ea77153	0.32703647
47	0xbe7927ed	-0.24331637
48	0xbe460b60	-0.19340277
49	0xbe6e0f99	-0.23248138
50	0xbe8690bd	-0.26282302
51	0xbcee1458	-0.029062435
52	0xbd2071e6	-0.039171122
53	0xbeaa9fc5	-0.3332502
54	0xbe1a4598	-0.1506561
55	0x3df2c758	0.11854428
56	0xbeb16cdd	-0.3465337
57	0xbf09ee2a	-0.53879035
58	0xbe3fd225	-0.18732508
59	0xbc82ef72	-0.015983317
60	0xbe52a2ea	-0.2056996
61	0xbd03de69	-0.03219453
62	0xbece7b88	-0.40328622
63	0x3eb8e309	0.36110714

weight f4 [64, 64]
0	0x3d2b2169	0.04177991
1	0x3e0de7d7	0.13857971
2	0x3e719cbe	0.23594949
3	0x3dad8519	0.08472652
4	0xbe6003c7	-0.21876441
5	0xbe4a19be	-0.19736382
6	0xbdac418e	-0.08410941
7	0xbeb3e583	-0.3513604
8	0x3dab864e	0.08375226
9	0x3e0fc9e6	0.14041862
10	0xbeac0b74	-0.33602488
11	0xbe6cfab8	-0.23142517
12	0xbdd4cdac	-0.10390791
13	0x3e3be964	0.1835075
14	0x3e00005f	0.12500142
15	0x3f0166fa	0.50547755
16	0xbe1943d4	-0.1496728
17	0xbeb2fb89	-0.3495753
18	0xbc840961	-0.016117753
19	0xbe2fd7c2	-0.17172149
20	0xbdc9dc00	-0.09856415
21	0x3e1516b5	0.14559443
22	0x3d1a376d	0.037650514
23	0x3e4fa757	0.20278679
24	0xbdb79ff3	-0.08966055
25	0x3d98cdb3	0.07461109
26	0x3c1dfbd9	0.009642565
27	0xbe11f228	-0.14252532
28	0x3e20b9fb	0.15695946
29	0x3e3942bb	0.18091862
30	0x3a7a0cc7	0.0009538647
31	0xbe1468cc	-0.14493102
32	0xbe0c9c16	-0.13731417
33	0x3de88d2c	0.113550514
34	0x3e72e912	0.23721722
35	0x3d310e47	0.043226507
36	0x3da6cf35	0.0814499
37	0xbb4a77a5	-0.0030894068
38	0xbc8f8b27	-0.017522408
39	0x3dd4d22f	0.10391652
40	0x3e8b124f	0.27162406
41	0xbe086d35	-0.13322909
42	0x3dd86c7e	0.10567568
43	0x3dac752b	0.084207855
44	0x3eb4ab8b	0.35287127
45	0x3e850810	0.25982714
46	0xbd0f85d9	-0.035039756
47	0x3dcdc848	0.10047966
48	0x3e2a42f6	0.16627106
49	0x3da98491	0.08277238
50	0xbdf2d535	-0.11857072
51	0xbd5364ae	-0.051609688
52	0x3ec7bf0f	0.39012954
53	0xbda266ff	-0.07929801
54	0x3d57b24b	0.052660268
55	0xbe1461de	-0.14490458
56	0x3efbe2f2	0.49196583
57	0x3ecb889d	0.39752665
58	0x3e658287	0.22413073
59	0xbd180fe6	-0.037124537
60	0x3e18e68a	0.14931694
61	0x3c6fdc31	0.0146399
62	0x3def8e6a	0.11697085
63	0x3ccb9577	0.024851544
64	0x3d41e0df	0.047333594
65	0x3e7a9228	0.24469817
66	0x3e3e3ac9	0.18577112
67	0x3de27fb5	0.110595144
68	0xbe5a1a2f	-0.21299051
69	0x3ebc75f3	0.36808738
70	0x3e0b03bf	0.13575648
71	0xbdc0d091	-0.09414781
72	0x3d169fb8	0.036773413
73	0x3ca2ec2f	0.019888012
74	0x3de0b86a	0.10972674
75	0x3e33b42f	0.17549203
76	0x3e997e7a	0.29979306
77	0x3e40b677	0.18819605
78	0xbddda73e	-0.108229145
79	0xbef7dcb7	-0.4841058
80	0xbc5d90ce	-0.013523294
81	0x3ead6839	0.33868578
82	0xbd3ce42b	-0.046116035
83	0xbed874ad	-0.42276517
84	0xbecbf517	-0.39835426
85	0x396f83d6	0.00022841929
86	0xbe34440e	-0.17604086
87	0x3d865f7f	0.06561183
88	0x3e024cc6	0.12724599
89	0xbd530458	-0.051517814
90	0xbe84197f	-0.25800702
91	0xbdc0e4b0	-0.09418619
92	0x3dd4c6f9	0.103895135
93	0x3e57a4f9	0.21059026
94	0xbc7a0ff5	-0.0152625935
95	0x3dea94c8	0.11454159
96	0xbbe31b2a	-0.0069307284
97	0xbe6b814c	-0.22998542
98	0x3d623ece	0.055235676
99	0xbe9e8ae8	-0.30965352
100	0xbd1d933c	-0.03847049
101	0x3dd18939	0.10231251
102	0x3e95acb9	0.2923334
103	0xbc8da20b	-0.017289182
104	0x3e742680	0.23842812
105	0xbe320abf	-0.17386912
106	0x3e3f28ea	0.18667951
107	0xbc957289	-0.018243091
108	0x3e2a86dd	0.16653009
109	0x3e4a6860	0.19766378
110	0x3ca84a6a	0.020543296
111	0x3d68a57c	0.056798443
112	0xbcada151	-0.021195086
113	0x3cfe5c75	0.031049946
114	0x3eafa767	0.34307405
115	0x3d3b1034	0.04566975
116	0x3ded9143	0.11599972
117	0xbe8501f6	-0.2597806
118	0x3d8788f8	0.066179216
119	0xbe613193	-0.21991567
120	0x3eb95def	0.36204478
121	0x3ebaa0a1	0.36450675
122	0xbdc79387	-0.097449355
123	0xbdd8c86a	-0.10585101
124	0x3d8283ee	0.0637282
125	0x3e84dd34	0.25950015
126	0x3dabd997	0.08391111
127	0xbe2438b3	-0.16037254
128	0x3e1cfbe7	0.15330468
129	0x3c34056c	0.010987621
130	0xbdb4d240	-0.088291645
131	0x3dfebc78	0.12438291
132	0xbcd2f563	-0.025751775
133	0x3e0d5cf2	0.13804987
134	0x3db34126	0.087526605
135	0xbe49a905	-0.19693382
136	0xbe29e123	-0.16589789
137	0x3e200f81	0.15630914
138	0xbf00b5a0	-0.5027714
139	0x3e8cdf71	0.27514222
140	0xbe901c19	-0.28146437
141	0xbf0472e3	-0.51737803
142	0xbe337734	-0.17525941
143	0x3e9129fa	0.28352338
144	0x3db02764	0.08601263
145	0xbe3c1029	-0.1836554
146	0xbc1f1163	-0.009708735
147	0xbf36d1c4	-0.71413827
148	0x3e65947d	0.22419925
149	0xbc191ff4	-0.009345997
150	0x3d9df8db	0.07713481
151	0x3cdede42	0.02720559
152	0x3e89c71c	0.2690972
153	0xbe276705	-0.16347893
154	0x3dffe52c	0.12494883
155	0x3c3d6095	0.0115586715
156	0xbe768fb0	-0.2407825
157	0x3e49cd86	0.19707307
158	0xbc6c6b1a	-0.014429832
159	0xbd2774e0	-0.040882945
160	0x3e8c796b	0.27436385
161	0xbe53c8c6	-0.20682058
162	0xbab723ca	-0.0013972458
163	0xbe579908	-0.2105447
164	0x3d2fdf62	0.042937644
165	0x3e0cb308	0.1374017
166	0xbea83833	-0.32855377
167	0x3cf86336	0.030320745
168	0x3da1b6f2	0.07896222
169	0xbeb84960	-0.3599348
170	0x3e2af718	0.16695821
171	0xbe04b26f	-0.12958692
172	0x3ed052c0	0.40688133
173	0xbd9c7a18	-0.07640475
174	0x3e3f5729	0.18685593
175	0x3e926f0b	0.28600344
176	0x3e3509ca	0.17679515
177	0x3e874403	0.26419076
178	0x3e5098f6	0.2037085
179	0x3e4f7693	0.20260076
180	0x3e8a38ab	0.2699636
181	0xbe007b9c	-0.12547153
182	0xbcc120ba	-0.023575176
183	0xbe967c2c	-0.2939161
184	0xbc83bae2	-0.016080324
185	0xbe333e83	-0.17504315
186	0xbe334544	-0.17506891
187	0x3e3551bc	0.1770696
188	0x3ee570ec	0.44812715
189	0x3e6391fb	0.22223656
190	0x3def1b68	0.11675149
191	0x3d644ac9	0.055735383
192	0xbcafb044	-0.021446355
193	0xbe632420	-0.2218175
194	0x3ebaaa18	0.36457896
195	0x3e044771	0.12917878
196	0x3d3b76c5	0.045767564
197	0x3d62972a	0.055319943
198	0x3df02ead	0.11727653
199	0x3dfd7032	0.12374915
200	0x3e56bf32	0.20971373
201	0xbe35fda2	-0.17772534
202	0xbdd840db	-0.10559245
203	0xbd9e03ed	-0.077155925
204	0x3e51c8b0	0.20486712
205	0xbe93488d	-0.2876629
206	0xbd637f5b	-0.055541378
207	0xbe3f2bea	-0.18669096
208	0x3c53e72a	0.012933532
209	0x3e971690	0.295094
210	0x3d05127a	0.032488324
211	0x3e185808	0.14877331
212	0xbdff143b	-0.124550305
213	0x3de193bf	0.110145085
214	0x3da3dfb8	0.08001655
215	0x3d7a3620	0.061086774
216	0x3d445eff	0.047942158
217	0x3de78936	0.11305468
218	0xbd0eb2ec	-0.034838602
219	0xbe4bc396	-0.19898829
220	0x3df7544f	0.120766275
221	0x3d804b92	0.06264414
222	0xbc2b584a	-0.0104580615
223	0x3cf81dd9	0.03028767
224	0x3d036ae6	0.03208437
225	0x3e8b653c	0.27225673
226	0x3d940373	0.072272204
227	0xbd0b819f	-0.034059163
228	0xbf182930	-0.5943785
229	0xbc9baa5d	-0.019002134
230	0x3e682b84	0.2267285
231	0xbeefc590	-0.46830416
232	0xbe11d9a0	-0.14243174
233	0xbd829bd0	-0.06377375
234	0xbe98d0a2	-0.29846674
235	0xbbd01069	-0.0063496125
236	0xbdaa5b41	-0.083181866
237	0xbe7386e7	-0.2378193
238	0x3d08dec6	0.03341558
239	0xbdcf8a14	-0.10133758
240	0xbd4e4bf5	-0.050365407
241	0xbb6d90a3	-0.003624954
242	0x3e407155	0.18793233
243	0xbe87ccba	-0.2652338
244	0xbe0fab8a	-0.1403028
245	0xbcd35474	-0.025797106
246	0x3d802a53	0.06258073
247	0x3e43181c	0.19052166
248	0xbc8298f0	-0.015942067
249	0xbdb3997b	-0.087695085
250	0xbd5798c5	-0.052635927
251	0xbe497110	-0.19672036
252	0xbe991ac1	-0.29903224
253	0xbdeb1692	-0.11478914
254	0xbdb3b566	-0.087748334
255	0xbd1ed35d	-0.03877579

bias f4 [64]
0	0xbe8d8efd	-0.27648154
1	0xbe51f70a	-0.20504394
2	0xbe3db09b	-0.18524401
3	0xbca6cf73	-0.020362591
4	0xbedae6bd	-0.42754164
5	0xbe546c37	-0.20744406
6	0xbdaaf88f	-0.0834819
7	0xbe4ea365	-0.20179518
8	0xbe685b55	-0.2269109
9	0xbd5a7a7a	-0.05333946
10	0xbe09a314	-0.13441116
11	0x3da7d66e	0.08195196
12	0x3dfc806a	0.123291805
13	0xbe040881	-0.12893869
14	0xbeb2ce72	-0.3492313
15	0xbd3ed702	-0.046591766
16	0xbe022199	-0.12708129
17	0xbeb33a64	-0.35005486
18	0xbe97b616	-0.29631108
19	0xbe9b9b6e	-0.3039202
20	0xbe23cf50	-0.15997052
21	0xbe571df9	-0.21007527
22	0xbe3a35dd	-0.1818461
23	0xbdd665ed	-0.104686595
24	0xbd95c992	-0.07313837
25	0xbdeca347	-0.1155458
26	0xbe4568ff	-0.19278334
27	0xbdba238a	-0.0908881
28	0xbeb611ef	-0.35560557
29	0xbdf01288	-0.117222846
30	0xbd0b06f9	-0.033942197
31	0xbd91d8ae	-0.071214065
32	0xbef21461	-0.47281173
33	0xbea91758	-0.33025622
34	0xbd1467c6	-0.03623178
35	0xbe7f561a	-0.24935189
36	0xbe70b06b	-0.23504798
37	0xbe7659aa	-0.24057642
38	0xbea5ccaf	-0.32382724
39	0xbe784df2	-0.24248484
40	0xbe853121	-0.26014045
41	0xbe51e02c	-0.20495671
42	0xbdf39a5e	-0.118946776
43	0xbe9740b8	-0.29541564
44	0x3ca3dd05	0.020002851
45	0xbdef527e	-0.11685656
46	0xbea610f2	-0.32434803
47	0x3dc71db3	0.097224616
48	0xbe97e091	-0.29663518
49	0xbe55ce35	-0.20879443
50	0xbcf3b3a9	-0.029748755
51	0xbe844f5c	-0.25841796
52	0xbe93141a	-0.28726274
53	0xbea0af81	-0.313839
54	0xbe0e4ef4	-0.13897306
55	0xbd15d8a0	-0.036583543
56	0xbeeb76c3	-0.45989046
57	0xbd69a04b	-0.057037633
58	0xbbd1cdc0	-0.006402701
59	0xbe201b4d	-0.15635414
60	0xbea85b00	-0.32881927
61	0xbdd65496	-0.10465352
62	0xbea0d4b8	-0.31412292
63	0xbd754849	-0.05988339

weight f4 [8, 64]
0	0x3d7c2c35	0.061565597
1	0x3db0d492	0.086342946
2	0xbe3ba7ba	-0.18325701
3	0xbd0891f8	-0.03334233
4	0xbdbd56fa	-0.09245105
5	0xbd53c87e	-0.051704876
6	0xbd92ee35	-0.07174341
7	0xbdbfef76	-0.093718454
8	0x3d0c0e77	0.034193482
9	0xbdbe2324	-0.09284046
10	0xbd6e07e8	-0.05811301
11	0xbd0d344d	-0.034473706
12	0x3d327e0b	0.043577235
13	0x3da49d57	0.08037823
14	0x3e19107c	0.14947695
15	0x3dac7fe5	0.084228314
16	0xbbf8c60f	-0.00759197
17	0xbb98cbb3	-0.0046629547
18	0x3e68fbdd	0.22752328
19	0xbcb82b2e	-0.022481527
20	0xbe17ea76	-0.14835533
21	0x3dbebb4d	0.093130685
22	0x3d18fcd6	0.0373505
23	0xbd30bbde	-0.043147914
24	0xbe1bc0bc	-0.15210241
25	0x3d49e5b5	0.04929133
26	0x3bae44c7	0.0053182575
27	0xbd0db39f	-0.03459513
28	0xbc9d5041	-0.019203307
29	0xbd3362d0	-0.043795407
30	0xbd983264	-0.07431486
31	0xbe71bb09	-0.23606504
32	0xbd8c0160	-0.068362
33	0x3d89f7af	0.06736695
34	0xbcfbcdfb	-0.030737868
35	0xbd7f5b98	-0.06234321
36	0x3d2e00d9	0.042481277
37	0x3db78bee	0.08962236
38	0x3b707233	0.0036689162
39	0xbd266434	-0.040622905
40	0x3e7d110b	0.24713533
41	0xbde443fe	-0.11145781
42	0xbdc923ed	-0.098213054
43	0x3c647f35	0.013946344
44	0xbd8656ad	-0.06559501
45	0x3c23e59d	0.010003475
46	0x3c8c9e4c	0.017165326
47	0x3c903985	0.017605552
48	0x3c9cad3b	0.019125571
49	0x3c3b715c	0.011440601
50	0x3d823f68	0.0635975
51	0x3da421d0	0.08014262
52	0x3b4c8ea2	0.0031212945
53	0x3df37a7c	0.118885964
54	0xbd85bd2f	-0.065302245
55	0xbda34028	-0.07971221
56	0x3d81a506	0.06330304
57	0xbda8df01	-0.082456596
58	0xbd23de2b	-0.040006798
59	0x3c296a91	0.010340349
60	0x3d22093d	0.03955959
61	0x3d815c36	0.06316416
62	0x3da5080d	0.08058176
63	0xbde37858	-0.11106938
64	0xbd6cc99f	-0.05780947
65	0xbda525df	-0.08063864
66	0x3c71eae3	0.014765474
67	0x3db06d37	0.08614581
68	0xbdacc3ed	-0.084358074
69	0xbe1218a2	-0.14267209
70	0x3b0a57d5	0.002110948
71	0xbe00a5e3	-0.12563281
72	0xbdb7c2ce	-0.08972703
73	0xbdc3c71f	-0.09559464
74	0x3e06a717	0.13149677
75	0x3a84c98e	0.0010130869
76	0xbbb86ce5	-0.0056282156
77	0xbc3627f4	-0.011117924
78	0x3c33c17c	0.010971423
79	0x3d421074	0.047378972
80	0xbd8f5578	-0.06998724
81	0xbd612030	-0.054962337
82	0x3d61b128	0.05510059
83	0x3b783f7b	0.0037879634
84	0xbdb4e8bd	-0.08833454
85	0xbce09d62	-0.027418796
86	0x3da6fea9	0.08154041
87	0x3d5d666c	0.054052755
88	0x3d688783	0.05676986
89	0x3cacc2f7	0.02108906
90	0xbcfc8735	-0.03082619
91	0xba5cd031	-0.0008423357
92	0xbdd4c37f	-0.103888504
93	0x3d204dd2	0.039136715
94	0x3d135155	0.035966236
95	0x3c9c1fcd	0.019058133
96	0x3d434568	0.047673613
97	0xbdc37282	-0.09543325
98	0x3cfe58b8	0.031048164
99	0x3d115767	0.035483744
100	0xbe101853	-0.14071779
101	0xbe16e384	-0.14735228
102	0xbe267a00	-0.16257477
103	0xbce559ff	-0.027997015
104	0xbb66a68a	-0.003519448
105	0x3c3e79c1	0.011625708
106	0xbd95f798	-0.073226154
107	0xbd154b44	-0.036448732
108	0xbbbfd26d	-0.005853942
109	0xbdd1b6e8	-0.10239965
110	0x3d94ab3a	0.072592214
111	0x3c5e949b	0.013585235
112	0xbe0d4199	-0.13794555
113	0xbd48e707	-0.04904845
114	0x3cc8eadf	0.024526058
115	0x3c89604d	0.016769553
116	0xbdd4f9ee	-0.10399233
117	0xbe0823b7	-0.13294874
118	0x3ba07813	0.0048971265
119	0xbd50143b	-0.050800543
120	0xbdd27b18	-0.102773845
121	0x3c7c4cf0	0.015399203
122	0x3e15feb8	0.14647949
123	0xbd36f44c	-0.044666573
124	0xbd0dda13	-0.0346318
125	0x3da0e2c8	0.07855755
126	0x3df925fb	0.12165447
127	0x3dec1b2b	0.115286194
128	0xbe0576aa	-0.13033548
129	0xbdbd4823	-0.092422746
130	0x3d485aa1	0.048914555
131	0xbd54f119	-0.05198774
132	0xbc278e07	-0.010226733
133	0xbd739242	-0.059465654
134	0x3da582c9	0.08081586
135	0xbd3f6ee1	-0.0467366
136	0xbdca870d	-0.0988904
137	0x3ac36c1a	0.0014909536
138	0xbe4dec37	-0.2010964
139	0x3d5b8723	0.053595673
140	0x3d0ce9d6	0.03440269
141	0xbc1059f8	-0.008810513
142	0x3d24ae06	0.040205024
143	0xbda58343	-0.08081677
144	0xbc0202ea	-0.007935265
145	0x3d90fb60	0.07079196
146	0xbd685a73	-0.056726884
147	0xbca7ba61	-0.020474615
148	0x3d00f249	0.03148106
149	0xbe21823d	-0.15772338
150	0xbd0815de	-0.03322398
151	0xbd2b9ec6	-0.041899465
152	0x3d04c5cf	0.032415207
153	0x3d0a44c8	0.033757
154	0xbcc7d258	-0.024392292
155	0x3e030fb0	0.12798953
156	0xbd89a2cd	-0.06720505
157	0xbca3994b	-0.019970557
158	0x3e32f716	0.17477068
159	0xbdcebe76	-0.10094921
160	0xbca340a0	-0.019928277
161	0xbc509190	-0.012730017
162	0xbd5e92df	-0.054339286
163	0x3d09927b	0.03358696
164	0x3e22e123	0.15906195
165	0xbd802dc7	-0.06258731
166	0x3dae11d9	0.08499498
167	0xbcacf719	-0.02111392
168	0xbddabc7f	-0.10680484
169	0xbe2472fe	-0.16059491
170	0xbe0520c1	-0.13000776
171	0x3e660439	0.22462548
172	0x3dc59d36	0.09649126
173	0xbd2b9f6e	-0.04190009
174	0x3e2a0ff6	0.16607651
175	0x3ddbf494	0.10740009
176	0x3e637eee	0.22216389
177	0xbe3c9fdc	-0.18420357
178	0x3ce0bfcc	0.027435206
179	0xbd3e766c	-0.046499655
180	0x3c81be8a	0.015837926
181	0xbd4f95c5	-0.05067994
182	0xbd8ae7a4	-0.06782463
183	0xbc7e5e03	-0.015525344
184	0xbd1746d1	-0.03693277
185	0x3d77ecca	0.060528554
186	0x3c98d623	0.018656796
187	0xbdf82bf7	-0.12117761
188	0xbe0b9866	-0.13632354
189	0xbcaf8ebb	-0.021430364
190	0x3dcc2bfc	0.09969327
191	0x3a8eacaa	0.0010885198
192	0x3dadcb8a	0.084860876
193	0xbe0aeac7	-0.13566123
194	0xbd8ec08f	-0.069703214
195	0x3d1c282a	0.03812424
196	0x3e8e233f	0.27761266
197	0xbd1f1ef9	-0.038847897
198	0x3e02cb00	0.12772751
199	0xbdc2fdcd	-0.09521065
200	0xbdc81120	-0.09768891
201	0x3d6f5725	0.058432717
202	0x3c2ffdc4	0.010741655
203	0x3e21bf89	0.15795721
204	0x3e033ffd	0.12817378
205	0xbdba2cbe	-0.09090565
206	0xbd18c3a8	-0.037295967
207	0xbd3dff92	-0.04638631
208	0xbe027e9a	-0.12743607
209	0xbc8e49d5	-0.01736919
210	0x3e489094	0.19586402
211	0xbd11656e	-0.03549712
212	0x3d7c0df7	0.061536755
213	0xbc8fd3cd	-0.01755705
214	0x3ca5f2f6	0.020257454
215	0xbcd77786	-0.02630211
216	0x3d2cb325	0.042163033
217	0xbe0b68b8	-0.13614166
218	0x3dae15b4	0.08500233
219	0x3d36e199	0.04464874
220	0x3d4122a3	0.047152173
221	0xbe0dd22b	-0.13849704
222	0x3e7897e3	0.2427669
223	0x3d878140	0.06616449
224	0xbe1d1419	-0.15339698
225	0xbe66f99f	-0.2255616
226	0x3df721b8	0.12066978
227	0x3ddb9097	0.10720938
228	0x3caa8d11	0.020819219
229	0xbd3f68af	-0.046730693
230	0x3d2fc3ad	0.04291122
231	0xbb462c97	-0.003023898
232	0xbad12521	-0.00159565
233	0xbab8d4f9	-0.0014101557
234	0xbd92db6d	-0.071707584
235	0xbc4bf873	-0.012449372
236	0x3d326029	0.043548737
237	0x3e8f70e9	0.2801583
238	0xbd1f4c94	-0.03889139
239	0x3ca037bb	0.019557824
240	0xbda016dc	-0.0781686
241	0xbd1cccb7	-0.03828117
242	0x3e3c4c6c	0.18388528
243	0x3d5069bc	0.050882086
244	0xbd790c2d	-0.060802627
245	0xbcca9322	-0.024728362
246	0xbcf652b3	-0.030068731
247	0x3d3cc8f7	0.046090093
248	0x3a3aec73	0.00071305706
249	0x39a5324a	0.0003150872
250	0x3cb7f046	0.022453438
251	0x3cb30dd5	0.021857182
252	0x3d981813	0.07426467
253	0xbd2adfbf	-0.041717287
254	0xbda96f5c	-0.08273193
255	0xbe2bd52c	-0.16780537

bias f4 [8]
0	0x3c2095e9	0.009801366
1	0xbc9f7f20	-0.019469798
2	0xbd28505d	-0.041092265
3	0x3c8d4c13	0.01724819
4	0x3d47b574	0.04875703
5	0xbe0b94fa	-0.13631049
6	0x3b8e107e	0.004335462
7	0xbe7b6eeb	-0.2455403
