sim2real/pretrained_models/reach/reach_gen3_2f85.pth (torch, 107173 bytes, 30 tensors)

value_mean_std.running_mean f8 [1]
-0.35041070290864834
00000000: 194e 4a03 216d d6bf

value_mean_std.running_var f8 [1]
0.051450443215620964
00000000: ae9b f365 b657 aa3f

value_mean_std.count f8 []
185794561.0
00000000: 0000 0002 0026 a641

running_mean_std.running_mean f8 [45]
-0.1653928549299961 0.3759410211622735 0.19252056330630113 -0.0253484214463135 0.07216084314748843 0.9512963016718835 0.25834819896570227 0.6103753408595233
0.6061199659940445 4.65122373683985e-05 0.005079462553388918 -0.6118892927417938 0.5956571855299799 -0.6114521567875417 -0.5964551356035879 -0.009767790808525054
0.03492861292580306 0.0062537466474345185 0.00022649088937926496 0.026159697306524392 0.06783711172930468 0.02677694915269839 0.028419938807497387 0.12891208337599436
-0.00023125129249530196 -0.0012123761255366974 -0.04412751607851398 0.10699103955279356 -0.029762429829485685 -0.08846006680120444 0.5000157303147206 -2.200837525676469e-05
0.3249212012197461 -2.7847691657927706e-08 0.0005566431567488043 0.6370809318383218 2.433164729611173e-11 -0.36887497224985577 0.8001779686209937 0.4071504255243216
-1.6314917146403036 0.3311456411726447 3.182391581425078 0.6003183693035432 -1.9059294165029996
00000000: c84c 75d3 972b c5bf cb79 c7ed 6a0f d83f
00000010: bea1 9a89 83a4 c83f f1f3 77c4 eff4 99bf
00000020: 9bc8 5e0d 2279 b23f 5391 0ff1 0471 ee3f
00000030: be71 62e2 c688 d03f 21d9 e8dd 3188 e33f
00000040: a9b4 ecb2 5565 e33f 683e 904e c462 083f
00000050: b8dc c4d8 33ce 743f 8627 a3da 9894 e3bf
00000060: 4051 6fa8 9f0f e33f b613 0f1d 0491 e3bf
00000070: 625b 9e14 2916 e3bf 3241 9db0 2201 84bf
00000080: de03 6cc4 29e2 a13f 964f 4055 879d 793f
00000090: a368 eaec c5af 2d3f 0e7f 9e91 9bc9 9a3f
000000a0: 341c 55e0 c55d b13f cc08 97a3 6a6b 9b3f
000000b0: 621a eece 1d1a 9d3f 145e 14ef 3080 c03f
000000c0: 33d9 127a 814f 2ebf d3ff d0f3 12dd 53bf
000000d0: a465 d2bc e197 a6bf 7123 d8c7 c363 bb3f
000000e0: 118c 11db 0a7a 9ebf 18c4 e9a5 51a5 b6bf
000000f0: 34fe 25fd 2000 e03f 4065 0d08 d413 f7be
00000100: 9a03 414b 82cb d43f 9b57 1817 b7e6 5dbe
00000110: 0302 af13 763d 423f 55d3 e48c f762 e43f
00000120: f329 90f6 bfc0 ba3d 0211 88c5 a59b d7bf
00000130: c79e c6d3 0e9b e93f 077c 8ba8 c00e da3f
00000140: 7b33 610e 971a fabf 5b2a c37c 7d31 d53f
00000150: 9c4a aab7 8975 0940 ba18 6bde ce35 e33f
00000160: 00d6 05d8 af7e febf

running_mean_std.running_var f8 [45]
0.14905167443140457 0.07522226991477322 0.39222790882122016 0.21202636535023725 2.241731890761659 0.38928421015300985 0.6814426003167048 0.09315014284975523
0.0949301059501008 4.5229161292902005e-05 0.00105526596238346 0.09544137045251685 0.10309596890841922 0.09551826813733696 0.10278579775238932 0.7710505162074439
0.7639276066153229 1.0129702864071057 0.00978925488947714 0.9481703384741924 0.5947395286985294 0.8565552720166163 1.2952618477347417 1.4252176802816807
0.03983880900514082 0.11261398690139619 2.3210244913755846 2.0838433438486437 2.341176454933235 2.099692073945506 0.007496422108958362 0.013330994951673758
0.010202480199439291 1.0764577886557084e-08 0.4996495275826222 0.09450225824745116 1.0764578660666332e-08 2.306215096661176 1.8030858865718171 3.7132971165003976
14.96505847089396 12.6562302700913 10.8025965057099 5.469838349327597 10.37450023081659
00000000: f167 8c11 2014 c33f 79ff 3645 c441 b33f
00000010: 90cc 3d16 431a d93f 89d5 8810 ae23 cb3f
00000020: c6c5 2921 11ef 0140 2435 dd51 08ea d83f
00000030: 2bc4 4eb6 60ce e53f 224d 2811 b0d8 b73f
00000040: bb24 76e4 564d b83f 2c7f 0c26 8eb6 073f
00000050: ac5b 0233 1b4a 513f 466b c77c d86e b83f
00000060: d1a3 cf56 7f64 ba3f 1e07 d29d e273 b83f
00000070: fbfb d687 2b50 ba3f b298 d521 72ac e83f
00000080: 6694 dd4e 1872 e83f 2a03 bf54 2035 f03f
00000090: 07f2 d18c 630c 843f c415 5952 6957 ee3f
000000a0: a3c1 2c31 1b08 e33f 56e3 109a e668 eb3f
000000b0: 9b6f bc7c 64b9 f43f 54da e70d b1cd f63f
000000c0: 92cc 939b c065 a43f 9d4c d02e 45d4 bc3f
000000d0: a762 dd49 7591 0240 a489 1e0f b6ab 0040
000000e0: e4d3 a0b8 baba 0240 8221 aa5b 2bcc 0040
000000f0: d444 b87c 91b4 7e3f f381 b9da 474d 8b3f
00000100: d480 5bb6 09e5 843f 786a aba7 e31d 473e
00000110: 3778 1b03 42fa df3f b729 92cc 4c31 b83f
00000120: 4050 8fc3 e31d 473e 1e9c 8de6 2073 0240
00000130: 2c48 2b96 70d9 fc3f 3c9a 5d1e d5b4 0d40
00000140: 456f d624 1cee 2d40 f05f f969 fd4f 2940
00000150: d8d0 dfed ed9a 2540 1a13 e34d 1de1 1540
00000160: 4667 877e bebf 2440

running_mean_std.count f8 []
92897281.0
00000000: 0000 0004 0026 9641

a2c_network.sigma f4 [8]
-1.2686048 -1.2742679 -0.94191444 -0.50939953 -0.7832922 -0.7156718 -0.7214911 -0.601978
00000000: a461 a2bf 361b a3bf 4e21 71bf 0268 02bf
00000010: d685 48bf 4436 37bf a4b3 38bf 3b1b 1abf

a2c_network.actor_mlp.0.weight f4 [64, 45]
-0.08497026 0.25186992 -0.31839252 -0.2179266 0.29820675 -0.49327335 0.1110269 0.015644906
0.26474237 -0.04918181 -0.034806732 -0.1306597 0.095933944 0.03409619 -0.112645894 0.05526297
0.06351766 -0.16187307 -0.089097425 0.20099673 -0.07917608 0.066282004 -0.03968362 0.011756056
-0.17497973 0.087767 0.33788273 0.12707864 0.008734781 -0.04580846 -0.25005868 -0.028708344
0.06215582 0.34316346 0.053225935 -0.48764342 -0.17564043 0.032072287 -0.026684485 -0.22364081
0.5528802 0.3391427 -0.1528248 0.30763596 0.013846357 -0.08534114 -0.39178076 0.5698368
-0.01322365 -0.998968 0.122392766 0.26788688 -0.11282245 -0.00015304938 -0.018492399 -0.06985376
0.030215837 -0.0024667825 -0.28395203 0.0037828174 -0.0097635 -0.01613116 -0.009993486 -0.07374111
-0.08456898 0.0087154405 0.015749374 -0.07269808 -0.0006796947 0.07014687 -0.014095357 0.04401248
-0.016258176 -0.039879017 -0.09050572 0.046132162 -0.34272635 -0.19576514 0.14187603 -0.5623347
-0.3948248 -0.43099862 -0.26400664 0.2212436 -0.009744477 0.007570175 0.29230028 0.044712022
0.04095823 0.03596898 0.0704144 -0.25750527 -0.23595417 0.76881045 -0.22978975 -0.13767794
0.07960661 0.08229621 -0.001976819 0.025695171 0.33561313 0.14496396 0.32657537 0.25089172
-0.19025157 0.0048794323 0.08559985 -0.076787904 -0.072615236 0.00957843 -0.009687298 -0.11069549
0.061858702 -0.10258739 0.11743734 0.31313914 -0.10102328 0.15217641 0.045801748 -0.090959616
-0.038028408 -0.20022187 -0.40370417 -0.07339922 -0.59719527 0.17701115 -0.30586553 0.07616546
-0.047808263 -0.14170639 -0.0054787723 0.26415834 0.058553506 -0.04583914 -0.24550518 0.21991913
-0.1310725 -0.15692636 0.17471118 0.26755574 0.41745275 0.3637265 -0.040866308 0.035709888
-0.061704762 0.18005909 -0.0643073 -0.03215437 0.059728246 0.068600595 -0.006717679 -0.021197133
-0.04024915 -0.087356985 0.054024648 0.019709397 0.11663837 -0.15857942 0.069734916 0.41583368
-0.100050025 -0.1426024 -0.025473434 0.10416985 -0.041949358 -0.14272405 0.24240732 -0.6759748
-0.44662422 0.111391366 0.86672014 0.1083293 -0.06748501 -0.0073353588 0.052723262 0.24046065
0.09134311 0.008109363 -0.27404422 -0.40463945 0.19693576 -0.20226307 0.19712715 -0.16140522
-0.50998336 -0.50376993 0.51841456 -0.08180828 -0.14933784 -0.06346176 -0.0016020583 0.08606068
-0.2333066 0.08964697 -0.064706974 0.10842046 0.017087238 0.14763568 0.10343936 -0.0878908
-0.10278832 -0.037475735 -0.046040654 -0.007917694 -0.19724055 -0.24980195 -0.17523947 -0.042947076
-0.12999381 -0.031080237 -0.12551756 0.39051014 0.14166375 0.010524916 1.0886049 0.24891429
0.515737 -0.052348323 -0.18324009 0.49620515 0.10080334 0.04718346 0.04202968 0.07614063
0.1177243 -0.23155841 0.11324621 0.3786355 0.41872236 -0.15903236 0.59544176 -0.42786735
0.04962691 0.06029571 -0.035657663 0.019778904 -0.049563587 -0.15031832 0.019015534 -0.13973765
-0.030763052 -0.0382813 -0.018931992 -0.03601056 0.094156004 0.03101429 -0.04665226 0.0009176768
-0.062466037 -0.16055553 -0.07130153 -0.005554656 0.055647194 -0.078683525 0.11193017 0.11784173
00000000: e304 aebd 18f5 803e 5804 a3be 2728 5fbe
00000010: 8eae 983e 538e fcbe 1262 e33d bf29 803c
00000020: 508c 873e de72 49bd 8191 0ebd a8cb 05be
00000030: 0479 c43d 72a8 0b3d e4b2 e6bd 6d5b 623d
00000040: 8c15 823d 0ec2 25be b678 b6bd 16d2 4d3e
00000050: 1227 a2bd dcbe 873d 4b8b 22bd 799c 403c
00000060: e32d 33be 2fbf b33d f7fe ac3e e720 023e
00000070: 541c 0f3c a7a1 3bbd b107 80be c32d ebbc
00000080: 1a97 7e3d 1fb3 af3e 7003 5a3d 66ac f9be
00000090: 16db 33be 3b5e 033d 6c99 dabc 1902 65be
000000a0: 8f89 0d3f 1da4 ad3e 1b7e 1cbe 7682 9d3e
000000b0: d5db 623c 56c7 aebd 7d97 c8be d3e0 113f
000000c0: 02a8 58bc 5ebc 7fbf 0fa9 fa3d 7828 893e
000000d0: 750f e7bd e17b 20b9 5f7d 97bc 7d0f 8fbd
000000e0: 3487 f73c bea9 21bb 2962 91be 25e9 773b
000000f0: 16f7 1fbc 7f25 84bc b8bb 23bc 9405 97bd
00000100: 8032 adbd 35cb 0e3c d504 813c bbe2 94bd
00000110: 8a2d 32ba 2aa9 8f3d 36f0 66bc 6e46 343d
00000120: de2f 85bc 2e58 23bd 105b b9bd 14f5 3c3d
00000130: d479 afbe a876 48be f347 113e 2bf5 0fbf
00000140: 7a26 cabe daab dcbe e12b 87be af8d 623e
00000150: 4da7 1fbc 3b0f f83b 62a8 953e f423 373d
00000160: d1c3 273d 3654 133d 6d35 903d bbd7 83be
00000170: f89d 71be c3d0 443f 014e 6bbe 72fb 0cbe
00000180: ca08 a33d ea8a a83d 858d 01bb ae7e d23c
00000190: 7cd5 ab3e 6f71 143e e334 a73e e174 803e
000001a0: 4fd1 42be a5e3 9f3b f94e af3d fa42 9dbd
000001b0: 4cb7 94bd d9ee 1c3c 79b7 1ebc 51b4 e2bd
000001c0: 8d5f 7d3d 5619 d2bd fd82 f03d c653 a03e
000001d0: 4be5 cebd 22d4 1b3e 9d9a 3b3d 0949 babd
000001e0: adc3 1bbd f606 4dbe 50b2 cebe 5552 96bd
000001f0: cae1 18bf 6942 353e 689a 9cbe a3fc 9b3d
00000200: 99d2 43bd 7b1b 11be 4687 b3bb c33f 873e
00000210: cdd5 6f3d d2c1 3bbd b665 7bbe 7b32 613e
00000220: df37 06be 4eb1 20be 7de7 323e 11fd 883e
00000230: 5ebc d53e 5c3a ba3e 6e63 27bd 8844 123d
00000240: 22be 7cbd 6961 383e 8cb3 83bd 4db4 03bd
00000250: 9ba5 743d 787e 8c3d fa1f dcbb 9ca5 adbc
00000260: 4bdc 24bd 38e8 b2bd f348 5d3d 9a75 a13c
00000270: 19e0 ee3d a562 22be 2ed1 8e3d 27e8 d43e
00000280: 07e7 ccbd 5d06 12be aaad d0bc 0157 d53d
00000290: 17d3 2bbd 4126 12be a039 783e af0c 2dbf
000002a0: eeab e4be 2821 e43d 5fe1 5d3f c1db dd3d
000002b0: 9535 8abd 735d f0bb 59f4 573d 513b 763e
000002c0: 1912 bb3d 22dd 043c 864f 8cbe e72c cfbe
000002d0: 87a9 493e 0d1e 4fbe b3db 493e 6947 25be
000002e0: 458e 02bf 11f7 00bf d1b6 043f 198b a7bd
000002f0: 05ec 18be 3df8 81bd 28fc d1ba 9540 b03d
00000300: ede7 6ebe d598 b73d 1785 84bd 8c0b de3d
00000310: 89fa 8b3c cf2d 173e 04d8 d33d 1700 b4bd
00000320: af82 d2bd 2880 19bd 2095 3cbd 37b9 01bc
00000330: 6df9 49be 15cc 7fbe fa71 33be 46e9 2fbd
00000340: 191d 05be fb9b febc ad87 00be f2f0 c73e
00000350: 4d10 113e b370 2c3c 6857 8b3f 63e3 7e3e
00000360: 5707 043f 326b 56bd 4aa3 3bbe 9a0e fe3e
00000370: fb71 ce3d 7243 413d 5027 2c3d 9eef 9b3d
00000380: 7019 f13d a61d 6dbe a1ed e73d 83dc c13e
00000390: c762 d63e 61d9 22be df6e 183f 6e11 dbbe
000003a0: 9645 4b3d a2f8 763d c50d 12bd 5e07 a23c
000003b0: 3003 4bbd 0ced 19be 77c6 9b3c 6317 0fbe
000003c0: cc02 fcbc dacc 1cbd 4417 9bbc cf7f 13bd
000003d0: ddd4 c03d ae11 fe3c 7116 3fbd 3f90 703a
000003e0: 63dc 7fbd ab68 24be 8906 92bd d503 b6bb
000003f0: 50ee 633d d424 a1bd a53b e53d 0157 f13d

a2c_network.actor_mlp.0.bias f4 [64]
-0.49272558 -0.3598559 -0.6440129 -0.49954638 -0.026251854 0.099289976 -0.874549 0.014472376
0.10894038 -0.7633545 -0.29302543 -0.5470783 0.09788957 -0.43537962 -0.14807987 0.13873243
-0.53248626 -0.1601904 -0.37625012 -0.18278757 0.056820832 -0.44526786 -0.18062384 0.14716317
-0.6056402 -0.16112667 -0.18632516 -0.3354342 0.016255904 -0.038609788 0.6268773 0.33028737
0.4416922 -0.1327767 -0.66789186 -0.16459824 -0.8410056 -0.46252534 0.32548374 -0.24301845
0.42948547 0.24035229 -0.38365558 0.16897509 0.34338945 0.03667336 -0.3088366 -0.29396477
0.24322607 -0.017050656 -0.2702624 -0.31784058 0.16030838 -0.5344614 -0.43012223 -0.45633283
0.00013815302 -0.059547633 0.259798 0.1721679 0.14562674 0.17112511 -0.23673867 0.068985544
00000000: 8746 fcbe 083f b8be 08de 24bf 8bc4 ffbe
00000010: 210e d7bc 8b58 cb3d 71e2 5fbf 8b1d 6d3c
00000020: 221c df3d 336b 43bf 6e07 96be 530d 0cbf
00000030: 547a c83d 14ea debe 40a2 17be e00f 0e3e
00000040: 0551 08bf f408 24be dba3 c0be aa2c 3bbe
00000050: f6bc 683d 26fa e3be 75f5 38be f1b1 163e
00000060: 3c0b 1bbf 64fe 24be 06cc 3ebe 08be abbe
00000070: 1a2b 853c 4c25 1ebd 087b 203f 6d1b a93e
00000080: 7b25 e23e 9ef6 07be f6fa 2abf 718c 28be
00000090: 254c 57bf 1fd0 ecbe cea5 a63e d4d9 78be
000000a0: 85e5 db3e e91e 763e 816e c4be ce07 2d3e
000000b0: bed0 af3e ce36 163d d51f 9ebe 8d82 96be
000000c0: 4110 793e d1ad 8bbc d55f 8abe 00bc a2be
000000d0: e127 243e 76d2 08bf fb38 dcbe 75a4 e9be
000000e0: 2bdd 1039 38e8 73bd 3e04 853e c84c 303e
000000f0: 2d1f 153e 6c3b 2f3e 9f6b 72be 4b48 8d3d

a2c_network.actor_mlp.2.weight f4 [64, 64]
-0.10547613 0.023930417 -0.09920115 0.027502406 0.021146344 0.18178535 0.12928122 0.03452989
-0.21994962 -0.11710883 -0.24835604 0.10163456 -0.2078898 0.16768181 -0.20013565 -0.15451
0.031202596 0.011963644 0.044102468 0.033164375 -0.27201235 -0.07938158 0.1297505 -0.16136661
-0.04100926 -0.37023512 -0.07209876 -0.21474499 0.132666 0.015595884 -0.2916358 -0.20784254
-0.20994692 0.08388019 -0.09777525 -0.55414516 -0.3946863 -0.4644962 -0.11568123 0.078877635
0.13081586 0.051251292 0.030796826 -0.15002935 -0.0016198079 -0.11663532 -0.10517154 -0.27195954
-0.1623241 -0.19232148 -0.33359885 -0.07704053 0.13394305 -0.054808266 0.024368381 0.17038137
0.047963016 0.036718793 -0.16747892 -0.24280003 -0.2824991 0.028553078 -0.078015886 -0.20407759
-0.22457871 -0.370919 0.070763074 -0.12359063 -0.28690755 -0.07853311 -0.04794415 -0.016331512
0.12291922 -0.0087965885 0.028437078 -0.34075055 -0.0016389791 0.19085473 -0.22428145 0.09315265
0.029108593 0.03592501 0.3128344 -0.045634475 -0.038676154 -0.3921645 0.0010242678 -0.38862583
0.046030622 0.054576304 -0.02392781 0.30728617 0.3038141 0.19239488 -0.08114993 -0.56031096
0.24029803 -0.028364522 0.1747091 0.24943951 0.28625017 -0.026158478 0.042934325 0.08324222
-0.1880107 0.09503022 0.15446536 -0.053965226 0.23224044 0.082103394 0.1836237 -0.007357682
0.13394217 0.23088694 -0.6943649 0.24047051 -0.11898212 0.10750934 -0.10046902 0.20275216
-0.2569441 -0.09956915 -0.06786905 -0.15955368 -0.0009088982 -0.54589206 -0.18210992 -0.607014
0.13365999 0.40132612 -0.09831369 -0.21325366 -0.080973044 -0.1397963 0.050329383 0.053253453
-0.18801741 0.102122664 -0.2611794 -0.054115243 0.08457897 -0.46603277 0.06271938 0.023801466
0.11519801 -0.09986592 -0.060400635 0.14765586 0.2955306 0.15449227 0.31668484 0.08270764
-0.15014473 0.13897271 -0.4442771 0.088926695 0.19244276 0.18023866 -0.9946891 -0.23730645
0.04253991 0.18047999 0.36334947 0.041748147 0.26598632 -0.02884172 -0.0005641057 0.123900615
0.063831225 -0.17506957 0.021222584 0.1531725 0.07682258 -0.19653872 0.08370103 -0.1425993
0.1345546 0.23244391 0.0059084725 -0.049063265 0.046943408 0.08550854 -0.029603086 0.06089134
-0.11490091 -0.39519265 -0.2572913 -0.00990924 -0.11774287 -0.07739038 0.016508877 -0.18502794
-0.11317708 0.21313576 0.05839737 0.054978482 -0.057117052 -0.039605517 -0.14679998 -0.12773477
-0.09688181 -0.15155153 0.041284762 0.10794085 -0.15436484 0.020969754 -0.25213608 -0.18349758
-0.066449896 0.043670904 -0.07726098 -0.05519862 -0.16466768 0.058423527 -0.1681912 -0.13211808
0.024502987 0.12931095 0.21184564 0.096281655 -0.29849142 0.2258298 0.05094055 -0.12785658
0.06485226 0.1342514 -0.046015255 -0.19297114 0.1259901 0.09353626 -0.053596444 0.004838854
-0.35485372 -0.09536924 0.04891511 0.16040608 -0.31280172 -0.083159916 0.066287525 -0.26350543
0.11276469 -0.034859687 0.3176079 -0.24113344 0.07134442 -0.22567965 -0.11283392 0.10036722
-0.004832725 -0.16393593 -0.060197398 -0.087821096 -0.21084306 -0.027430316 -0.146473 0.046908006
00000000: df03 d8bd b909 c43c f929 cbbd ba4c e13c
00000010: 193b ad3c f025 3a3e 4c62 043e 376f 0d3d
00000020: 793a 61be c1d6 efbd 0c51 7ebe c825 d03d
00000030: 10e1 54be c8b4 2b3e 5cf0 4cbe df37 1ebe
00000040: 969c ff3c 2903 443c caa4 343d 5ed7 073d
00000050: 3445 8bbe cf92 a2bd 51dd 043e 4a3d 25be
00000060: 53f9 27bd 758f bdbe 84a8 93bd 1ce6 5bbe
00000070: 99d9 073e e185 7f3c 4a51 95be add4 54be
00000080: 53fc 56be 61c9 ab3d 643e c8bd 75dc 0dbf
00000090: 5314 cabe 72d2 edbe 48ea ecbd 998a a13d
000000a0: 98f4 053e e0ec 513d a049 fc3c 4ba1 19be
000000b0: bc4f d4ba 80de eebd 2d64 d7bd 483e 8bbe
000000c0: 4a38 26be ecef 44be 78cd aabe 6dc7 9dbd
000000d0: 5e28 093e a27e 60bd 33a0 c73c 7478 2e3e
000000e0: de74 443d 7266 163d 987f 2bbe 92a0 78be
000000f0: b9a3 90be 25e8 e93c cbc6 9fbd b7f9 50be
00000100: f6f7 65be 18e9 bdbe 3bec 903d 161d fdbd
00000110: 8ce5 92be f8d5 a0bd 1661 44bd aac9 85bc
00000120: 12bd fb3d 911f 10bc e0f4 e83c db76 aebe
00000130: 03d3 d6ba 6c6f 433e 09aa 65be d1c6 be3d
00000140: 2575 ee3c 1a26 133d d52b a03e 37eb 3abd
00000150: e36a 1ebd c9c9 c8be b940 863a f7f9 c6be
00000160: 9b8a 3c3d 678b 5f3d 4104 c4bc 9d54 9d3e
00000170: 868d 9b3e 2a03 453e ef31 a6bd 8a70 0fbf
00000180: b010 763e b75c e8bc f1e6 323e 126d 7f3e
00000190: 628f 923e 4e4a d6bc e7db 2f3d e67a aa3d
000001a0: e085 40be 349f c23d 2b2c 1e3e a40a 5dbd
000001b0: 70d0 6d3e d325 a83d da07 3c3e b618 f1bb
000001c0: 2328 093e a06d 6c3e e6c1 31bf e73d 763e
000001d0: e6ac f3bd db2d dc3d b4c2 cdbd 439e 4f3e
000001e0: 2d8e 83be e9ea cbbd eefe 8abd 0a62 23be
000001f0: 2043 6eba 95bf 0bbf 067b 3abe 4565 1bbf
00000200: 2ade 083e 9e7a cd3e b058 c9bd 2b5f 5abe
00000210: 32d5 a5bd c326 0fbe 2f26 4e3d 4b20 5a3d
00000220: a387 40be b025 d13d 4eb9 85be f2a7 5dbd
00000230: bd37 ad3d d99b eebe 0573 803d 4bfb c23c
00000240: efec eb3d 8186 ccbd a866 77bd 1933 173e
00000250: c94f 973e 3933 1e3e 8424 a23e a062 a93d
00000260: 8abf 19be dd4e 0e3e 4a78 e3be 331f b63d
00000270: b70f 453e 7c90 383e f2a3 7ebf 7600 73be
00000280: 543e 2e3d bfcf 383e f108 ba3e 1b00 2b3d
00000290: 5c2f 883e 7945 ecbc 7ee0 13ba 9bbf fd3d
000002a0: f2b9 823d 7045 33be fcda ad3c 40d9 1c3e
000002b0: 2855 9d3d 7241 49be 726b ab3d 8d05 12be
000002c0: aec8 093e c705 6e3e dc9b c13b 90f6 48bd
000002d0: bb47 403d 1a1f af3d 2c82 f2bc 3369 793d
000002e0: 2b51 ebbd b156 cabe afbb 83be 5d5a 22bc
000002f0: 2c23 f1bd d97e 9ebd a03d 873c f777 3dbe
00000300: 63c9 e7bd 4340 5a3e 1532 6f3d 1e31 613d
00000310: 92f3 69bd 6539 22bd bc52 16be e7cc 02be
00000320: f869 c6bd 5330 1bbe 361a 293d 1810 dd3d
00000330: d111 1ebe c3c8 ab3c fb17 81be cae6 3bbe
00000340: e216 88bd 43e0 323d 013b 9ebd f317 62bd
00000350: a59e 28be 824d 6f3d 503a 2cbe f649 07be
00000360: 7dba c83c 176a 043e 10ee 583e 512f c53d
00000370: ded3 98be ed3f 673e 0aa7 503d d6ec 02be
00000380: 43d1 843d 3379 093e 7e7a 3cbd 3a9a 45be
00000390: 8c03 013e f08f bf3d f287 5bbd 408f 9e3b
000003a0: 63af b5be f350 c3bd 365b 483d 7e41 243e
000003b0: 8c27 a0be bf4f aabd c1c1 873d 2fea 86be
000003c0: 2cf1 e63d 08c9 0ebd 819d a23e afeb 76be
000003d0: 061d 923d 9118 67be 7815 e7bd 548d cd3d
000003e0: d65b 9ebb d2de 27be 8c91 76bd 8cdb b3bd
000003f0: 3ee7 57be 8bb5 e0bc 05fd 15be 9c22 403d

a2c_network.actor_mlp.2.bias f4 [64]
-0.5122573 -0.06403301 0.036272787 -0.54354936 -0.28959915 0.3106394 -0.47066724 -0.13149919
-0.12851799 0.20045426 0.08559915 -0.7427797 -0.28913063 0.042080253 0.049248677 -0.72267514
-0.43564436 -0.1569736 -0.05182165 0.20150849 -0.56240714 0.08487226 -0.41538298 0.2648552
0.07396293 -0.045362815 -0.0041272654 -0.11284227 -0.0043690153 -0.013204102 -0.42727882 -0.46644908
0.15840752 -0.42428738 -0.58599603 0.1278512 0.60456216 0.630853 0.07702397 -0.20064919
-0.6740197 0.04163311 -0.14823419 -0.42085344 0.25143054 0.15989462 -0.15869917 0.2354592
-0.24983123 0.18529437 -0.75719196 0.32167736 -0.58321065 0.074849844 -0.56425875 0.42335978
-0.020241374 0.17320177 -0.7307721 -0.35978806 0.0746725 -0.27280107 0.17234491 0.084346764
00000000: 4b23 03bf bd23 83bd c692 143d 0d26 0bbf
00000010: 5746 94be 210c 9f3e 4cfb f0be b9a7 06be
00000020: 389a 03be e243 4d3e 9b4e af3d cf26 3ebf
00000030: ee08 94be 585c 2c3d fbb8 493d 3d01 39bf
00000040: c70c dfbe b0bd 20be f042 54bd 3e58 4e3e
00000050: eaf9 0fbf 82d1 ad3d 14ad d4be 1a9b 873e
00000060: e079 973d 5cce 39bd 033e 87bb d919 e7bd
00000070: f529 8fbb 0556 58bc 4ac4 dabe 6ad2 eebe
00000080: 9535 223e 323c d9be d603 16bf 6deb 023e
00000090: 96c4 1a3f 957f 213f bebe 9d3d fb76 4dbe
000000a0: 8e8c 2cbf 7b87 2a3d b4ca 17be 1a7a d7be
000000b0: 81bb 803e 6abb 233e 0982 22be 371c 713e
000000c0: c2d3 7fbe cfbd 3d3e 55d7 41bf e5b2 a43e
000000d0: 4b4d 15bf e04a 993d 4373 10bf 9dc2 d83e
000000e0: 3dd1 a5bc ce5b 313e e113 3bbf 2436 b8be
000000f0: e5ed 983d 95ac 8bbe 2f7b 303e ffbd ac3d

a2c_network.value.weight f4 [1, 64]
-0.01688104 -0.05558299 0.036996108 -0.057703584 -0.004329773 -0.0138792405 0.0020221288 0.07451628
0.09042988 -0.07596918 0.00785996 -0.11013026 0.13104135 -0.00463513 -0.031656004 -0.022872366
-0.02813077 -0.040231515 0.034808785 0.018592725 -0.0035079576 -0.07808805 0.00048290906 -0.016287964
-0.011079196 -0.013949379 0.021928795 -0.20526575 -0.054077197 0.00847418 -0.0022508749 -0.021509062
-0.01035883 0.026127333 -0.062429782 -0.0045084683 0.105011284 0.01856201 -0.0039467188 -0.095198855
-0.1426623 -0.349592 0.018929683 -0.016051574 0.09087869 0.024210183 -0.001000624 -0.015122831
-0.003089407 -0.026933677 -0.06711791 0.0076166657 0.0028933338 -0.021034604 0.018729594 -0.0018706889
-0.014494169 -0.0040221214 -0.0069027804 0.08392167 0.15267645 0.22922716 0.021579789 0.054440115
00000000: 1b4a 8abc fdaa 63bd 3b89 173d 985a 6cbd
00000010: c5e0 8dbb c165 63bc b185 043b fe9b 983d
00000020: 4d33 b93d bb95 9bbd 10c7 003c f98b e1bd
00000030: b42f 063e 4ae2 97bb baa9 01bd d45e bbbc
00000040: 8072 e6bc cdc9 24bd a893 0e3d c54f 983c
00000050: c3e5 65bb a1ec 9fbd f52e fd39 566e 85bc
00000060: 8485 35bc f08b 64bc 04a4 b33c 2f31 52be
00000070: 0d80 5dbd 49d7 0a3c 6a83 13bb c633 b0bc
00000080: 15b8 29bc fd08 d63c 5fb6 7fbd c6bb 93bb
00000090: 2810 d73d 5b0f 983c 7a53 81bb 9ef7 c2bd
000000a0: 1116 12be b9fd b2be 6c12 9b3c 977e 83bc
000000b0: 9b1e ba3d 6f54 c63c 5f27 83ba c0c5 77bc
000000c0: a677 4abb 04a4 dcbc 1d75 89bd 3995 f93b
000000d0: 169e 3d3b c350 acbc ce6e 993c e731 f5ba
000000e0: f378 6dbc 00cc 83bb b830 e2bb 20df ab3d
000000f0: 3757 1c3e 86ba 6a3e 19c8 b03c 99fc 5e3d

a2c_network.mu.weight f4 [8, 64]
0.014019489 0.12399858 -0.10881336 0.07373738 -0.15773706 0.04474745 0.041974347 -0.10904264
-0.13155337 -0.12620445 0.16496323 0.22757523 -0.04068318 0.0019634003 -0.11844067 0.011543834
-0.0031592483 -0.013912781 0.04989393 0.109256014 -0.28026214 -0.17825851 -0.061166957 -0.054567624
0.097598925 -0.08187778 -0.22041719 -0.05802456 -0.035478838 -0.110392824 0.052357357 -0.109521665
0.13905528 -0.05118914 0.21924199 0.41447735 0.023612894 -0.071039535 0.022862745 -0.021194914
-0.16083272 -0.010566556 -0.22653285 0.07041151 -0.05464903 -0.22803043 -0.0048670117 0.15864202
0.052296985 -0.038434338 -0.117008574 0.019345555 -0.02264399 -0.06996589 0.0040512043 -0.21114199
0.15942249 0.011839601 -0.046845198 0.067731395 -0.12482467 0.09870662 0.17276078 -0.07272969
-0.16671497 -0.0698788 0.09613478 -0.012764944 -0.21258496 0.14628945 -0.08600988 0.073105335
0.028150748 -0.18199408 0.21779777 0.09426803 0.017309718 -0.034259953 0.15210891 -0.057330206
-0.03093245 -0.15595372 -0.007283319 -0.056260843 0.09614258 -0.10379285 0.10036129 0.007200363
0.20654976 -0.09034773 0.13000487 0.14990099 -0.04606791 0.065905035 0.13921322 -0.13207237
-0.15730923 0.17093897 0.06715577 -0.0105916625 0.09234617 -0.047106836 -0.03393989 -0.014357109
0.1477501 -0.04925675 0.08682553 -0.11594859 0.112989895 0.11415979 -0.042835537 0.10511472
-0.022464246 -0.10535143 -0.09612401 -0.025652768 0.01664742 0.22234866 0.06485272 0.033333868
0.109914966 0.08167779 0.022453027 -0.043741018 0.028141566 -0.086757876 -0.0044660466 -0.389496
0.120830715 0.20207109 -0.2274422 0.06995105 -0.08129004 -0.1399692 0.21512006 0.0049194666
-0.052631203 0.004062855 0.022581503 -0.34337246 -0.0142945545 -0.026840327 -0.3170741 -0.18994865
-0.0694435 -0.099983126 -0.06660793 0.018352922 -0.29737157 0.1415053 0.0716577 0.17769589
0.143129 -0.039842613 -0.10131755 0.0699694 -0.0059973286 0.14926428 0.14318913 0.15475462
-0.08058106 0.25945207 -0.030518213 0.25522766 -0.14939623 0.13508391 -0.035030346 0.021518799
-0.0027284354 -0.16142732 0.03100637 -0.33245155 -0.22220717 0.09677671 -0.14187212 0.05433721
0.053917974 -0.19755052 -0.30470988 -0.12257465 0.13354126 0.04931249 0.10995152 -0.13584177
0.023569409 0.16908354 -0.05103992 -0.1124376 0.059363216 -0.24952056 -0.09923209 0.11848374
0.042978104 -0.06394818 0.10171863 -0.065879405 0.18154907 0.059576157 -0.26710397 0.2004002
-0.089481905 -0.26084447 -0.40493026 0.057884082 -0.18836461 0.090583645 0.28633308 -0.6601671
-0.02702027 -0.30671385 -0.08482682 0.44309703 0.12904176 0.24766313 0.12043157 0.374047
-0.064387396 -0.14822844 0.011998764 0.1441772 -0.057291333 -9.214478e-06 -0.2518029 0.04251667
0.04954602 0.3306484 0.09517743 0.07966122 -0.4232051 -0.72320074 -0.19017301 0.07191366
-0.10187211 0.016453482 0.1905138 -0.043017857 0.06784278 -0.124564104 0.24059975 -0.09706918
-0.022362996 0.15318587 0.08308052 0.05933862 0.06255687 -0.11276668 0.43627682 -0.29492524
0.11494784 0.017221453 -0.030830225 0.30779928 -0.081700794 -0.10426839 -0.22660829 0.054677863
00000000: 00b2 653c f8f2 fd3d 8ad9 debd a003 973d
00000010: d385 21be 1a49 373d 4bed 2b3d bf51 dfbd
00000020: edb5 06be bd3b 01be 1fec 283e 7b09 693e
00000030: 68a3 26bd 64ac 003b 0691 f2bd 5922 3d3c
00000040: 640b 4fbb 6ff2 63bc 945d 4c3d 9ec1 df3d
00000050: 857e 8fbe 6689 36be 348a 7abd 4d82 5fbd
00000060: f2e1 c73d 8aaf a7bd 0bb5 61be 29ab 6dbd
00000070: 4252 11bd a215 e2bd ab74 563d e54c e0bd
00000080: 8264 0e3e b4ab 51bd f980 603e 6036 d43e
00000090: d46f c13c 2d7d 91bd a74a bb3c f5a0 adbc
000000a0: 55b1 24be 591f 2dbc 3af8 67be e933 903d
000000b0: a9d7 5fbd cf80 69be 747b 9fbb 0e73 223e
000000c0: 5d35 563d 536d 1dbd 31a2 efbd 927a 9e3c
000000d0: e47f b9bc 474a 8fbd f7bf 843b 9b35 58be
000000e0: a63f 233e e3fa 413c c0e0 3fbd c2b6 8a3d
000000f0: 14a4 ffbd b226 ca3d 34e8 303e 4ef3 94bd
00000100: 54b7 2abe 9e1c 8fbd 50e2 c43d 0e24 51bc
00000110: dfaf 59be e7cc 153e f325 b0bd 40b8 953d
00000120: 669c e63c a85c 3abe 6106 5f3e 990f c13d
00000130: 1ccd 8d3c 2a54 0cbd 70c2 1b3e 14d3 6abd
00000140: 0d66 fdbc 55b2 1fbe e8a8 eebb c571 66bd
00000150: 67e6 c43d 5991 d4bd 388a cd3d 06f1 eb3b
00000160: c881 533e 3b08 b9bd ff1f 053e a57f 193e
00000170: b4b1 3cbd 38f9 863d e98d 0e3e fb3d 07be
00000180: ac15 21be a00a 2f3e f788 893d a788 2dbc
00000190: fd1f bd3d 19f3 40bd 8e04 0bbd 143a 6bbc
000001a0: cd4b 173e 72c1 49bd 95d1 b13d 7476 edbd
000001b0: 3f67 e73d 9ccc e93d 5174 2fbd 6346 d73d
000001c0: f006 b8bc 7ec2 d7bd aadc c4bd c125 d2bc
000001d0: 2c60 883c 5eaf 633e 81d1 843d 1889 083d
000001e0: 191b e13d af46 a73d 69ef b73c c829 33bd
000001f0: 2489 e63c 1dae b1bd ea57 92bb 056c c7be
00000200: 1876 f73d b9eb 4e3e 9ce6 68be 7f42 8f3d
00000210: 647b a6bd 1654 0fbe 6f48 5c3e 7a33 a13b
00000220: d193 57bd b321 853b d8fc b83c 84ce afbe
00000230: b533 6abc 3fe0 dbbc 8957 a2be e681 42be
00000240: 6538 8ebd f4c3 ccbd bd69 88bd de58 963c
00000250: 1641 98be c4e6 103e 46c1 923d e9f5 353e
00000260: 6990 123e 0232 23bd 937f cfbd 1e4c 8f3d
00000270: 3d85 c4bb bcd8 183e 2ca0 123e ff77 1e3e
00000280: af07 a5bd e7d6 843e 5501 fabc 33ad 823e
00000290: 53fb 18be 7053 0a3e fb7b 0fbd 3148 b03c
000002a0: 8dcf 32bb 344d 25be 1201 fe3c 1737 aabe
000002b0: 478a 63be de32 c63d ed46 11be b290 5e3d
000002c0: 18d9 5c3d af4a 4abe ef02 9cbe 6b08 fbbd
000002d0: 0abf 083e e5fb 493d 432e e13d 1b1a 0bbe
000002e0: a214 c13c 3c24 2d3e 3c0f 51bd af45 e6bd
000002f0: d826 733d 5182 7fbe 323a cbbd 9aa7 f23d
00000300: cf09 303d 43f7 82bd db51 d03d c8eb 86bd
00000310: 00e8 393e 2106 743d dac1 88be b635 4d3e
00000320: 4a42 b7bd 688d 85be 0553 cfbe dc17 6d3d
00000330: a7e2 40be eb83 b93d 409a 923e b600 29bf
00000340: 9d59 ddbc 9909 9dbe afb9 adbd 9ddd e23e
00000350: 8623 043e 679b 7d3e d4a4 f63d 1783 bf3e
00000360: 8add 83bd 32c9 17be 7796 443c 30a3 133e
00000370: 51aa 6abd e297 1ab7 4fec 80be f625 2e3d
00000380: c4f0 4a3d bf4a a93e 62ec c23d 6c25 a33d
00000390: 57ae d8be af23 39bf b7bc 42be 7847 933d
000003a0: 53a2 d0bd 74c9 863c 0d16 433e 7e33 30bd
000003b0: 28f1 8a3d 771b ffbd c85f 763e 35cc c6bd
000003c0: 9a32 b7bc c2dc 1c3e 1f26 aa3d 0e0d 733d
000003d0: d11d 803d 38f2 e6bd ad5f df3e 7100 97be
000003e0: c669 eb3d 0114 8d3c ab8f fcbc de97 9d3e
000003f0: bf52 a7bd aa8a d5bd 010c 68be e5f5 5f3d

a2c_network.mu.bias f4 [8]
-0.12916107 0.26135448 0.17520444 -0.06434553 0.33632976 0.65713 0.34708485 -0.33072606
00000000: cd42 04be 41d0 853e cb68 333e 97c7 83bd
00000010: 6a33 ac3e ac39 283f 1bb5 b13e ed54 a9be

exp_avg f4 [8]
-0.0028023473 0.0008331885 0.0037275401 0.0002757916 -0.00043198172 0.0023718318 0.0027430279 0.000907847
00000000: 96a7 37bb 556a 5a3a bf49 743b 1f98 9039
00000010: 9b7b e2b9 bc70 1b3b 5fc4 333b 95fc 6d3a

exp_avg_sq f4 [8]
6.534059e-05 6.0908755e-05 5.8642116e-05 5.5493045e-05 5.6843994e-05 5.6056277e-05 5.86091e-05 5.7500245e-05
00000000: 7607 8938 4778 7f38 7ef6 7538 34c1 6838
00000010: c66b 6e38 f81d 6b38 0bd3 7538 6b2c 7138

exp_avg f4 [64, 45]
-0.00066130445 -0.000865734 0.0008036121 0.0005196595 -3.5896588e-05 0.00073418795 -0.00049674377 -0.00015898519
-0.000169536 -0.00031380635 0.0002839789 0.00015705804 -0.00015272274 0.00010385374 0.00016842877 -0.00014220737
-0.00028142598 -0.00032743803 0.00012200322 0.00056320796 0.00024639914 0.0004013476 -0.00010238075 -0.00033625806
9.122642e-06 2.8714114e-06 0.00046668143 -0.00022752066 0.00055343244 0.00013716456 -0.000818389 -0.000469043
-0.0007744319 6.785587e-12 -9.2179565e-05 -1.5969824e-06 -9.001824e-10 -0.00042125396 -0.00046510686 0.00038316465
0.00048607824 7.148545e-05 0.00011597067 -0.0003320085 0.00073613925 -0.00039665357 2.1135871e-05 0.000694346
0.0011496065 -0.00030697355 0.0002174967 -0.00035664972 -0.0020005861 -0.0018314654 0.0008282273 -0.00069124904
0.0018189133 -0.0018500193 0.0018581863 0.0018100955 -0.000118640855 0.0013366635 0.00021350099 -0.00035005307
0.00010103061 0.0008049565 0.00089185906 -0.00020723704 0.00024593013 7.00195e-05 8.067376e-05 -7.314404e-05
0.00032375415 2.398047e-05 -0.00027672198 -0.0010875672 -0.00016386065 -0.00017230013 -7.756859e-09 0.00079571444
0.0018263378 7.770612e-09 -0.00020478647 0.0004972035 0.0008260886 0.0007942488 -0.000701547 0.0008114802
-0.0001247716 0.0024414677 -0.0019734753 -0.000215646 0.0024492962 -0.0006391071 -0.0015159592 0.0016955382
-0.0006272034 -0.0009291993 -0.000928429 0.0014597572 0.0004956972 0.00089688064 -0.00077343825 0.00097237545
0.0007759198 0.0007392993 0.00074036326 0.00025522622 -0.00046357355 -0.00070825405 4.140587e-05 -0.00010039816
-1.4956631e-05 0.00064991554 9.639693e-05 0.00012840486 -0.00048536036 0.0004711865 -0.00058549107 -0.00028400528
0.00013462114 0.00018051708 -2.8373364e-05 -5.82542e-09 0.0001830867 0.0013715833 1.7879481e-09 -0.0008363986
0.00021624286 0.0017435078 0.0019059975 -0.001499541 0.0007083656 -0.000504191 0.0020425296 -0.0007856713
0.00019943381 0.001675124 -0.00028532837 -0.0009047176 0.00087371405 -5.263956e-05 -0.0007123672 -0.0006159994
-3.6033867e-05 -0.00024103653 0.0006712559 -0.0005547881 0.00067326473 0.00056680763 -0.0008019467 0.00088927895
0.00040541778 0.00021815748 -3.1107465e-05 0.0005978223 0.0005413068 -0.0002691156 0.0002777497 3.1883228e-05
8.8658904e-05 0.0006758606 0.00016588639 0.0006380288 -0.00013292942 0.0003417113 0.00017496846 -0.00094234466
-5.356615e-09 0.0002717002 0.0012612041 2.6533147e-09 -0.0007014005 0.0003450398 0.0012837151 -0.00021271799
-0.0008698718 0.0008938629 -8.213438e-05 0.0010127559 -3.5610447e-05 -3.665399e-05 0.0006089977 -0.0005511994
-0.0005566636 0.00057179574 -0.0011322757 0.00016594857 0.00016761832 3.0524454e-05 -0.00028717972 -0.00023837417
8.5524494e-05 -0.0002262213 -8.351547e-05 -6.5578235e-05 -0.00023449518 0.0003316203 0.00032560868 -0.00075182295
-0.00084893603 0.00022909816 0.00071282097 -0.00032027115 -4.7576386e-06 2.9188004e-05 -0.00044578264 0.00011613738
-0.00054001797 -5.1741852e-05 -0.00022471047 -0.00016532488 -0.0013305243 -1.4115985e-09 3.090973e-05 0.0003323588
3.0184297e-10 4.3909454e-06 -9.967728e-05 0.00042172114 -0.0005370047 -0.00066340127 0.00079213857 -0.00075958995
0.00016565504 0.0007025671 -0.0003451979 -0.00038001683 0.0008868939 7.754223e-05 -0.0006421051 1.3153203e-05
0.0008219905 0.00074792776 4.7334863e-05 0.00015219477 -0.00083006796 0.0006624179 -0.0008253778 -0.00069658004
-0.00016982965 0.000644087 0.00023095524 -0.00017853413 0.0003831488 0.00029310846 -0.000852949 -0.0001899927
-0.00015175862 -9.180582e-05 3.6242796e-05 7.518374e-05 -0.00038652765 0.0002128084 0.00016830204 -0.00022921228
00000000: 645b 2dba 6df2 62ba 7fa9 523a c239 083a
00000010: ab8f 16b8 8576 403a e937 02ba 43b5 26b9
00000020: 79c5 31b9 6086 a4b9 01e3 9439 f2af 2439
00000030: 3324 20b9 0dcc d938 419c 3039 801d 15b9
00000040: 5b8c 93b9 fdab abb9 fbdb ff38 3fa4 133a
00000050: 222f 8139 f76b d239 3fb5 d6b8 cb4b b0b9
00000060: 730d 1937 79b2 4036 ecac f439 9d92 6eb9
00000070: 3914 113a d5d3 0f39 2889 56ba e3e9 f5b9
00000080: 3f03 4bba 22bf ee2c 8750 c1b8 e657 d6b5
00000090: b470 77b0 c0db dcb9 96d9 f3b9 7de3 c839
000000a0: 51d8 fe39 75ea 9538 4835 f338 6d11 aeb9
000000b0: 78f9 403a f1f5 cfb9 f04c b137 c504 363a
000000c0: 65ae 963a 4bf1 a0b9 d30f 6439 b7fc bab9
000000d0: 441c 03bb c80d f0ba 651d 593a f034 35ba
000000e0: 9a68 ee3a 597c f2ba 638e f33a ba40 ed3a
000000f0: d3ce f8b8 fc32 af3a 3cdf 5f39 5487 b7b9
00000100: 65e0 d338 b703 533a a6cb 693a c54d 59b9
00000110: 2ff0 8039 6fd7 9238 652f a938 e864 99b8
00000120: 8cbd a939 ab29 c937 ff14 91b9 b38c 8eba
00000130: 02d2 2bb9 77ab 34b9 0743 05b2 7e97 503a
00000140: ba61 ef3a 837f 0532 f3bb 56b9 c356 023a
00000150: de8d 583a 2235 503a 06e8 37ba 84b9 543a
00000160: 1fd5 02b9 0801 203b 6c55 01bb 081f 62b9
00000170: 5f84 203b c089 27ba 26b3 c6ba d23c de3a
00000180: e86a 24ba 8295 73ba d161 73ba 5355 bf3a
00000190: adf1 013a a41c 6b3a 90c0 4aba 03e7 7e3a
000001a0: 1967 4b3a 89cd 413a f014 423a e2cf 8539
000001b0: ca0b f3b9 20aa 39ba 37ab 2d38 da8c d2b8
000001c0: 3eee 7ab7 185f 2a3a b528 ca38 6ba4 0639
000001d0: f777 feb9 9509 f739 a47b 19ba 8be6 94b9
000001e0: 1629 0d39 2f49 3d39 5603 eeb7 f028 c8b1
000001f0: f6fa 3f39 b3c6 b33a d5bb f530 c341 5bba
00000200: 40bf 6239 6a86 e43a aad2 f93a 3f8c c4ba
00000210: 9cb1 393a af2b 04ba f6db 053b 82f5 4dba
00000220: 1b1f 5139 d68f db3a 2098 95b9 922a 6dba
00000230: f509 653a 4cc9 5cb8 27be 3aba 057b 21ba
00000240: 1223 17b8 c0be 7cb9 39f7 2f3a 336f 11ba
00000250: 087e 303a d195 143a bb39 52ba 801e 693a
00000260: 418e d439 34c1 6439 6379 02b8 2db7 1c3a
00000270: 7ce6 0d3a 1618 8db9 ef9e 9139 5bba 0538
00000280: 63ee b938 3d2c 313a caf1 2d39 6341 273a
00000290: f862 0bb9 b727 b339 bd77 3739 ae07 77ba
000002a0: 490d b8b1 fc72 8e39 fd4e a53a 9b55 3631
000002b0: 31de 37ba 75e6 b439 5542 a83a 0d0d 5fb9
000002c0: 1c08 64ba 2052 6a3a 8f3f acb8 73be 843a
000002d0: 6d5c 15b8 ecbc 19b8 25a5 1f3a 5e7e 10ba
000002e0: 10ed 11ba 90e4 153a de68 94ba 7b02 2e39
000002f0: b3c2 2f39 6207 0038 9c90 96b9 14f4 79b9
00000300: 9d5b b338 d135 6db9 0725 afb8 0c87 89b8
00000310: d2e2 75b9 53dd ad39 75b6 aa39 fc15 45ba
00000320: 228b 5eba 123a 7039 9bdc 3a3a 11ea a7b9
00000330: cea3 9fb6 c3d8 f437 efb7 e9b9 c88e f338
00000340: fe8f 0dba 6405 59b8 42a0 6bb9 0f5b 2db9
00000350: fd64 aeba 3502 c2b0 12a5 0138 7140 ae39
00000360: 9ff0 a52f ef55 9336 d509 d1b8 741a dd39
00000370: c6c5 0cba 1be8 2dba 85a7 4f3a 381f 47ba
00000380: b0b3 2d39 7b2c 383a aefb b4b9 ff3c c7b9
00000390: 717e 683a 2b9e a238 f252 28ba 94ac 5c37
000003a0: d97a 573a 9510 443a 6c89 4638 7996 1f39
000003b0: eb98 59ba 1da6 2d3a 2b5e 58ba b29a 36ba
000003c0: 4d14 32b9 f2d7 283a 932c 7239 e434 3bb9
000003d0: 5de1 c839 5aac 9939 7098 5fba c738 47b9
000003e0: 6521 1fb9 e087 c0b8 6803 1838 f7ab 9d38
000003f0: dda6 cab9 5225 5f39 3c7a 3039 b458 70b9

exp_avg_sq f4 [64, 45]
4.683773e-05 3.2881147e-05 7.76715e-05 1.48861645e-05 4.544281e-05 5.0935632e-05 2.9162524e-05 1.7403934e-05
1.7340362e-05 8.0526615e-06 9.399734e-06 1.7278348e-05 1.7908485e-05 1.761101e-05 1.7860548e-05 8.918916e-06
5.104556e-06 8.839527e-06 7.1439777e-06 1.372066e-05 1.5907643e-05 1.0944911e-05 6.852315e-06 6.8050026e-06
3.6294825e-06 5.235774e-06 6.405772e-06 9.161012e-06 6.870252e-06 9.251793e-06 9.51974e-06 9.007348e-06
9.17763e-06 4.645653e-16 3.0209168e-05 2.5755915e-05 2.8804903e-15 1.8972336e-05 6.5385375e-06 4.2364816e-05
4.3052343e-05 3.7863785e-05 3.1835956e-05 2.4429994e-05 3.6543814e-05 0.00020261975 4.585299e-05 0.00013530045
8.455286e-05 0.00012495389 7.680517e-05 0.00013696763 0.00019138042 0.00018554874 1.5935639e-05 2.1703583e-05
0.00018719722 0.00017507444 0.00018707692 0.00017546193 4.1263836e-05 2.1403668e-05 4.0416056e-05 7.925624e-06
6.9148045e-05 4.8448983e-05 4.888735e-05 2.3082861e-05 2.7520413e-05 3.1225727e-06 9.594276e-06 2.1440068e-05
2.5711144e-05 2.102792e-05 2.5291745e-05 4.1250285e-05 3.5633366e-05 3.688697e-05 1.4834823e-15 0.00015462213
8.224616e-05 1.4743098e-14 8.930825e-05 9.458315e-06 7.218527e-05 0.00025654954 0.00013343272 6.3967185e-05
0.00011422269 0.00024493545 5.560177e-05 2.080513e-05 7.0844995e-05 2.8332155e-05 5.343071e-05 2.9206152e-05
1.923451e-05 2.8824583e-05 2.9623572e-05 9.987663e-06 2.2566092e-05 2.8582164e-05 3.212037e-05 2.8655119e-05
3.2239655e-05 1.303641e-05 9.597524e-06 1.31510615e-05 1.1519544e-05 1.7697137e-05 2.100469e-05 1.2028938e-05
1.4853565e-05 1.4381589e-05 1.983758e-06 1.2090605e-05 1.3336692e-05 1.6208794e-05 1.2833812e-05 1.5433674e-05
1.705898e-05 1.7033928e-05 1.5265958e-05 4.1717953e-16 3.9642317e-05 2.3128952e-05 3.7799442e-15 2.2450433e-05
5.3893577e-06 4.3558743e-05 0.00014553324 4.1313415e-05 3.1704898e-05 1.4936099e-05 6.4436084e-05 3.390646e-05
1.6356411e-05 4.659209e-05 1.8688943e-05 3.1946678e-05 1.752517e-05 1.7322966e-05 3.163664e-05 3.2152442e-05
6.792328e-06 1.6997164e-05 3.1030086e-05 3.499384e-05 3.1018822e-05 3.4748813e-05 7.769784e-06 6.3453863e-06
8.760105e-06 4.650075e-06 1.19808265e-05 1.24047e-05 7.938795e-06 7.723919e-06 8.87879e-06 1.1073889e-06
6.62144e-06 7.487587e-06 1.1009976e-05 7.4377335e-06 1.0844553e-05 1.5376769e-05 1.1828783e-05 1.1178644e-05
2.8794178e-16 2.0466281e-05 1.5963727e-05 1.9514853e-15 1.219531e-05 3.3461968e-06 2.4867144e-05 8.323148e-05
2.6640697e-05 2.7655857e-05 1.19390315e-05 4.8697082e-05 0.00010481025 2.5406393e-05 7.583522e-05 4.087217e-05
4.6584082e-05 4.9636386e-05 6.775054e-05 9.9752455e-05 9.4227646e-05 8.596527e-06 2.4698515e-05 9.615412e-05
9.0362104e-05 9.610229e-05 9.053985e-05 1.2146574e-05 9.533439e-06 1.4468746e-05 6.628758e-06 2.8151744e-05
2.0509206e-05 1.6161997e-05 1.3058728e-05 1.5341964e-05 1.8974656e-06 1.165631e-05 1.2400945e-05 1.7632108e-05
1.2068857e-05 1.7673183e-05 2.0236777e-05 1.5154415e-05 1.5232742e-05 6.136663e-16 4.9104015e-05 3.4022225e-05
4.6820204e-15 3.4076562e-05 5.096619e-06 3.757091e-05 9.358594e-05 5.205679e-05 3.5218167e-05 4.830835e-05
0.00012200311 8.0439975e-05 2.147474e-05 6.7038454e-05 4.1298383e-05 3.987001e-05 2.246877e-05 4.316035e-05
8.89594e-05 8.6126536e-05 1.0959172e-05 1.5158846e-05 8.667987e-05 8.352052e-05 8.6549844e-05 8.3751525e-05
1.7612736e-05 1.2551618e-05 1.7231127e-05 6.960941e-06 2.5409114e-05 2.2619237e-05 2.1330869e-05 9.683392e-06
1.4122827e-05 1.37308e-06 8.9682635e-06 1.07214955e-05 1.5785716e-05 9.98302e-06 1.5684494e-05 2.658956e-05
00000000: a173 4438 dde9 0938 92e3 a238 97bf 7937
00000010: d899 3e38 b8a3 5538 0ba2 f437 aafe 9137
00000020: 2576 9137 eb19 0737 8db3 1d37 f8f0 9037
00000030: 2e3a 9637 5bbb 9337 3cd3 9537 74a2 1537
00000040: cd47 ab36 7b4d 1437 4db6 ef36 c931 6637
00000050: 6771 8537 09a0 3737 f0ec e536 8756 e436
00000060: 0992 7336 f5ae af36 2af1 d636 3fb2 1937
00000070: 0487 e636 2638 1b37 f9b6 1f37 441e 1737
00000080: 9ff9 1937 dee6 0526 b269 fd37 680e d837
00000090: ab8f 4f27 c826 9f37 9c65 db36 e0b0 3138
000000a0: 1a93 3438 eecf 1e38 9987 0538 03ef cc37
000000b0: 9f46 1938 5376 5439 4652 4038 70df 0d39
000000c0: f951 b138 0e06 0339 7612 a138 f89e 0f39
000000d0: 4aad 4839 dc8f 4239 86ad 8537 1710 b637
000000e0: 5f4a 4439 3094 3739 142a 4439 34fc 3739
000000f0: b512 2d38 078c b337 6984 2938 4cf8 0437
00000100: 9303 9138 b335 4b38 640c 4d38 11a2 c137
00000110: a3db e637 648d 5136 1af7 2037 32da b337
00000120: 43ae d737 1d65 b037 9c29 d437 2804 2d38
00000130: 0975 1538 15b7 1a38 d6ca d526 1022 2239
00000140: 927b ac38 45cb 8428 004b bb38 27af 1e37
00000150: 2c62 9738 7f81 8639 13ea 0b39 1f26 8638
00000160: d78a ef38 ae6a 8039 f235 6938 ad86 ae37
00000170: 9e92 9438 d7aa ed37 ca1a 6038 bcff f437
00000180: cc59 a137 52cc f137 2380 f837 b090 2737
00000190: 504c bd37 bbc3 ef37 fcb8 0638 6660 f037
000001a0: 1139 0738 f4b6 5a37 0d05 2137 61a3 5c37
000001b0: 1144 4137 5074 9437 3a33 b037 e5cf 4937
000001c0: 9333 7937 7448 7137 b420 0536 c1d8 4a37
000001d0: a8c0 5f37 1ff8 8737 ce50 5737 9077 8137
000001e0: e119 8f37 15e4 8e37 650f 8037 d57c f025
000001f0: 9d45 2638 0c05 c237 d52f 8827 f053 bc37
00000200: 3bd6 b436 d8b2 3638 489a 1839 f147 2d38
00000210: e0fa 0438 0f96 7a37 dc21 8738 c936 0e38
00000220: 2035 8937 e06b 4338 33c6 9c37 7cfe 0538
00000230: 0403 9337 c950 9137 95b1 0438 6cdb 0638
00000240: a7e9 e336 2295 8e37 4d26 0238 59c6 1238
00000250: 351a 0238 41bf 1138 f85a 0237 74ea d436
00000260: 5df8 1237 d707 9c36 4201 4937 c81d 5037
00000270: dd30 0537 fb95 0137 1df6 1437 98a1 9435
00000280: bd2d de36 e23d fb36 7db7 3837 a591 f936
00000290: 00f1 3537 5cfd 8037 3c74 4637 e98b 3b37
000002a0: b5fc a525 01af ab37 d8e9 8537 8d9e 0c27
000002b0: 759a 4c37 398f 6036 c999 d037 908c ae38
000002c0: 767a df37 80fe e737 c04d 4837 1840 4c38
000002d0: 93cd db38 d01f d537 b909 9f38 296e 2b38
000002e0: 4763 4338 aa30 5038 4b15 8e38 3132 d138
000002f0: 159c c538 cd39 1037 a82f cf37 5aa6 c938
00000300: c980 bd38 868a c938 36e0 bd38 23c9 4b37
00000310: cff1 1f37 cabe 7237 996c de36 6927 ec37
00000320: 2f0b ac37 a093 8737 cf16 5b37 9eb2 8037
00000330: 6cac fe35 788f 4337 a70d 5037 aae8 9337
00000340: 597b 4a37 df40 9437 26c2 a937 b83f 7e37
00000350: 2190 7f37 95e0 3026 09f5 4d38 16b3 0e38
00000360: 04b0 a827 6eed 0e38 a003 ab36 7595 1d38
00000370: 9243 c438 8d57 5a38 38b7 1338 b29e 4a38
00000380: ecdb ff38 e2b1 a838 a724 b437 ff96 8c38
00000390: cd37 2d38 193a 2738 517b bc37 1307 3538
000003a0: b78f ba38 d59e b438 49dd 3737 bf52 7e37
000003b0: e7c7 b538 bd27 af38 1882 b538 c2a3 af38
000003c0: 10bf 9337 ca94 5237 908b 9037 0792 e936
000003d0: a825 d537 71be bd37 b1ef b237 da75 2237
000003e0: 15f1 6c37 ab4a b835 6676 1637 79e0 3337
000003f0: 916b 8437 bf7c 2737 3292 8337 a50c df37

exp_avg f4 [64]
-0.00029961555 0.0011250944 -0.0010503453 0.0008941585 0.0010272384 -0.00066715106 0.00085926184 -0.00058739627
0.00024596995 0.00011311007 0.0012356875 5.81426e-05 -0.0005776862 3.4747252e-05 -0.00023183064 0.00035921525
0.0003304885 0.00071637187 -0.0021254593 -0.00038849533 -0.00076682237 -0.00044188806 -0.00028108124 -0.00015379401
-5.34169e-05 -0.00026307922 0.0009671166 -0.00012413597 -0.00039657528 -0.00134486 -0.000588312 -0.00033335248
-0.0031325403 -0.0006056734 0.00030526525 -0.0009375949 0.00017554146 -0.0009135658 -0.000766778 0.0006691042
0.00081615325 -0.00038544822 -0.00038025656 0.00072208553 0.000973532 0.001691967 -0.00057685707 0.00043007333
0.0013188893 0.0009802184 0.0004336545 0.00041194793 -0.0009418653 7.229581e-05 0.00023957061 0.00026850105
-0.0014697731 -5.612203e-05 6.507708e-05 -0.0016983862 0.0008016282 -0.0003871326 0.00013098393 0.0010539667
00000000: b815 9db9 e777 933a bdab 89ba f665 6a3a
00000010: 67a4 863a c0e3 2eba 1640 613a 7ffb 19ba
00000020: 87f5 8039 8235 ed38 cbf6 a13a 24de 7338
00000030: dd6f 17ba 94bd 1138 9017 73b9 0e55 bc39
00000040: 6a45 ad39 e7ca 3b3a 4a4b 0bbb f6ae cbb9
00000050: 9404 49ba 36ad e7b9 165e 93b9 c443 21b9
00000060: f60b 60b8 e5ed 89b9 1986 7d3a 7f2a 02b9
00000070: 6feb cfb9 0346 b0ba f338 1aba d0c5 aeb9
00000080: 4e4b 4dbb 0ec6 1eba 020c a039 eec8 75ba
00000090: 8d11 3839 5d7c 6fba 9a01 49ba d366 2f3a
000000a0: 1ef3 553a fc15 cab9 2c5d c7b9 574a 3d3a
000000b0: a034 7f3a fec4 dd3a 3938 17ba 777b e139
000000c0: 95de ac3a ac7a 803a 1f5c e339 b7fa d739
000000d0: 83e7 76ba 849d 9738 3f35 7b39 9ac5 8c39
000000e0: 67a5 c0ba 9264 6bb8 fe79 8838 629c deba
000000f0: 5c24 523a 0ff8 cab9 bb58 0939 4125 8a3a

exp_avg_sq f4 [64]
2.7251926e-05 0.00013114732 4.1936935e-05 3.461729e-05 4.8283764e-05 5.4441272e-05 4.5159715e-05 5.3355303e-05
0.00019010303 2.434117e-05 2.6047439e-05 3.1862735e-05 6.122951e-05 4.680218e-05 3.2104414e-05 2.3998553e-05
3.452478e-05 9.342931e-05 6.802596e-05 0.00014535253 7.098722e-05 3.814959e-05 4.94683e-05 5.36229e-05
3.3561526e-05 5.8887443e-05 5.4146283e-05 6.6966284e-05 0.00013274715 3.84839e-05 0.00011187913 6.5860455e-05
0.00026898732 4.960036e-05 3.7250175e-05 4.9808754e-05 3.8561626e-05 4.245934e-05 6.905787e-05 4.2859632e-05
8.6830914e-05 5.094817e-05 3.0332656e-05 0.00018521868 4.7186848e-05 6.455614e-05 2.5922995e-05 4.5568184e-05
0.00011756363 0.00012546185 0.00011132461 5.9699756e-05 8.0602134e-05 1.470291e-05 4.3487827e-05 3.923011e-05
8.760443e-05 8.614434e-05 0.000167421 0.000107216976 0.00010794492 3.79128e-05 5.507568e-05 8.6413966e-05
00000000: 119b e437 9784 0939 71e5 2f38 0832 1138
00000010: 4c84 4a38 df57 6438 e069 3d38 d2c9 5f38
00000020: 6556 4739 4430 cc37 7380 da37 5aa4 0538
00000030: 5868 8038 754d 4438 daa7 0638 8050 c937
00000040: b3ce 1038 7bef c338 29a9 8e38 c669 1839
00000050: f9de 9438 cf02 2038 2f7c 4f38 27e9 6038
00000060: 6ac4 0c38 e9fd 7638 211b 6338 4070 8c38
00000070: 0b32 0b39 c669 2138 a7a0 ea38 901e 8a38
00000080: de06 8d39 fb09 5038 123d 1c38 bee9 5038
00000090: 3bbd 2138 5f16 3238 29d3 9038 2ec4 3338
000000a0: fe18 b638 2eb1 5538 e272 fe37 4337 4239
000000b0: 7eea 4538 5062 8738 3575 d937 7720 3f38
000000c0: 7e8c f638 698e 0339 f276 e938 2066 7a38
000000d0: f108 a938 85ac 7637 b366 3638 038b 2438
000000e0: 45b8 b738 64a8 b438 bc8d 2f39 add9 e038
000000f0: 7d60 e238 8f04 1f38 1001 6738 2539 b538
