sim2real/pretrained_models/reach3/policy.pt (torch, 41010 bytes, 6 tensors)

weight f4 [64, 45]
000000 f0 ee bb 3e 81 f7 cf 3e 12 ed 74 3e f9 0e 8b 3f
       0.36705732 0.40618518 0.2391856 1.0863944
000010 4a 1d 2d be f6 db f8 bd bb 65 c7 be 50 00 84 3d
       -0.16905704 -0.12151329 -0.38944802 0.06445372
000020 b4 8e c1 3d 87 cb 0d bf 61 d4 e7 be c3 ec be 3b
       0.094510466 -0.55388683 -0.4527922 0.005826564
000030 9b 4a bf 3d 36 f9 b6 3c 7d 24 c0 3d bc ca 0b be
       0.09340402 0.02233563 0.093819596 -0.13651556
000040 f2 eb 4b be e8 98 35 3d 55 a7 19 3e 7f 0a 47 3e
       -0.19914225 0.044335276 0.15005238 0.19437598
000050 48 9a 39 be 11 75 40 bd d0 e8 19 be 61 51 e3 3c
       -0.1812526 -0.046986643 -0.15030217 0.027748765
000060 2a 59 53 be e5 89 8d 3b 1b 32 a9 bd c9 99 0b be
       -0.20639482 0.004319417 -0.0826151 -0.13632883
000070 07 ae 72 3d 06 a2 5e be 84 b1 30 3e 85 09 fe 3f
       0.059247997 -0.21741495 0.17255217 1.9846655
000080 55 c4 c8 3e b2 7a d3 3c 8f e4 43 be 76 a3 7c 3b
       0.3921229 0.025815342 -0.19130157 0.0038549579
000090 c9 19 b0 3c 28 5c e7 3c 8a 7e 52 3d 7b 98 f9 3d
       0.02149667 0.028242186 0.05139021 0.121872865
0000a0 d6 9a 18 be 15 16 8d 3c 77 ff fa 3d 43 fb 3d bd
       -0.14902815 0.017222444 0.12255757 -0.0463822
0000b0 10 60 95 3d 0c ac 0c be 4f e0 f9 bd dc 4d 0d be
       0.07293713 -0.13737506 -0.122009866 -0.13799232
0000c0 fd c5 65 bf 1d 07 99 3e 8e c4 a1 be 31 2c d6 bd
       -0.8975523 0.2988824 -0.31595272 -0.104576476
0000d0 85 12 55 be 96 e7 91 3d e6 69 f3 be 7f 8e be be
       -0.20807846 0.0712425 -0.47541732 -0.3721809
0000e0 b6 68 f0 3d 95 6a 83 bd 13 f0 49 3e 2f 23 f3 bc
       0.11738722 -0.06416813 0.19720487 -0.029679863
0000f0 f8 c1 81 3d 7c 97 31 bf 93 5d 38 bd 29 f5 f8 be
       0.06335825 -0.6937177 -0.045011114 -0.48624542
000100 50 5f 4a 3d 2d 8f 41 bd ac 44 ea bc c7 14 4e ba
       0.049407303 -0.047255684 -0.028597198 -0.00078613724
000110 29 45 47 3c 82 32 22 be bc 4f 57 3e 81 2a 94 3d
       0.012162485 -0.1583958 0.2102651 0.072346695
000120 dc c9 07 3d 96 e5 98 bd 37 15 e1 bd 71 bc ac bd
       0.033151492 -0.07465665 -0.109903745 -0.0843438
000130 40 b6 68 bd f9 2c 9e 3e 97 4f 5e 3d 5f b0 bf 3e
       -0.056814432 0.30893686 0.05427512 0.37439248
000140 be 99 c5 be ec 9f ca bd 43 69 91 3d 84 31 9a be
       -0.38593858 -0.09893784 0.07100155 -0.30115902
000150 72 8d 36 3d 53 33 c3 3a 1e 1b e8 3d de 68 5b be
       0.044568487 0.0014892615 0.11333297 -0.21426722
000160 e5 ab 64 bd 49 2b 25 3d de 20 23 3d 15 8b a8 3e
       -0.055827994 0.040324483 0.039826266 0.3291861
000170 79 f9 61 3e 3c f2 ae 3e f7 96 61 be 91 91 af be
       0.22067823 0.34169185 -0.22030245 -0.34290746
000180 3b 33 43 3e f0 a9 65 3d f8 94 d7 bd b1 42 f6 3e
       0.19062512 0.05607027 -0.105264604 0.48097757
000190 58 65 d0 be 16 0f 8f bd b4 3b 63 bd dd 41 4f be
       -0.4070232 -0.06985299 -0.05547686 -0.20239969
0001a0 54 2a 65 3d ef 9c da bd af 83 8e bd f6 6d 85 be
       0.05594857 -0.10674464 -0.069587104 -0.26060456
0001b0 38 21 cb be ed a6 4f be e6 49 3c 3c af 2f 87 3c
       -0.3967378 -0.20278521 0.011492228 0.01650223
0001c0 68 12 42 bc 0d 8b b9 bd 8b 17 07 be 5b 31 c8 3d
       -0.011845209 -0.09059725 -0.13192575 0.09775039
0001d0 60 0c 45 3d c2 eb f1 bd 31 f2 81 bd 4a 09 06 be
       0.048107505 -0.11812545 -0.063450225 -0.13089481
0001e0 20 43 e9 3c 58 a0 ed be 4c cd f6 3e b7 ff ca bd
       0.02847439 -0.46411395 0.48203504 -0.09912055
0001f0 4d 18 33 bf 70 d2 73 be 23 93 64 bd b8 03 d8 bd
       -0.69958955 -0.23810744 -0.055804383 -0.10547584
000200 12 d0 37 3e 94 fc 17 3d 2e 6c 16 3e 0d 95 24 3e
       0.17950466 0.03710611 0.14689705 0.16072483
000210 08 bc 11 be 7a d2 1c bc c6 e0 2b be d1 38 6b 3e
       -0.14231884 -0.009571666 -0.16784963 0.22970892
000220 1c d6 e4 be bb ea ae 3e fe a5 68 bc 69 aa b8 3e
       -0.44694602 0.3416346 -0.014199732 0.36067513
000230 92 a6 79 3c d6 6e 03 bf d6 04 3c 3e d7 0e 6e 3c
       0.015237467 -0.51341 0.1836122 0.014529905
000240 f2 6e ab 3e 39 67 72 3e 69 78 34 3d 14 cd 7e 3e
       0.33483082 0.23672189 0.044060145 0.24882919
000250 8f 8e cc 3d 72 be 81 be 7f 03 b4 3d 65 66 12 be
       0.099881284 -0.2534061 0.08789729 -0.14296873
000260 bd 88 0a be 32 37 f1 bd 1f b7 2c 3e a6 96 fc bd
       -0.13528724 -0.11778106 0.1686673 -0.123334214
000270 76 42 80 bd 69 44 d2 3d 99 cb e8 bd 8d 92 25 be
       -0.062626764 0.102669545 -0.11366958 -0.16169186
000280 6b c7 fd 3c 7c 38 2b 3e 5c de 18 3e 83 31 88 bd
       0.030978879 0.16720766 0.14928573 -0.066500686
000290 63 3e d2 3c e7 ba bc bd 06 b6 11 3e 88 2a bc 3e
       0.025664514 -0.09215336 0.14229593 0.367512
0002a0 42 e0 09 3d 0c 59 3e bf 05 d6 fe bd 41 19 3b bc
       0.033661135 -0.74354625 -0.12443165 -0.011419595
0002b0 fe c7 25 3e ff 8d 1b bd dd 70 9f 3d 54 bb 03 be
       0.16189572 -0.037977215 0.07785199 -0.12864429
0002c0 4d 61 58 be 11 6b 8b 3d 61 b3 1c 3d 8e b9 2f be
       -0.21130867 0.06807531 0.038257007 -0.17160627
0002d0 1e 3e eb 3d 0c f0 99 bd d5 38 4e 3e 33 bd 76 be
       0.11486457 -0.075164884 0.20138867 -0.24095611
0002e0 8e 03 86 3d c7 01 cb 3d 08 f4 cf 3e c8 22 3c bd
       0.06543647 0.099124484 0.4061587 -0.045931607
0002f0 b2 58 2d be 54 ec 56 3f 4e 95 4a be dd d0 03 3c
       -0.16928366 0.8395436 -0.19783518 0.008045402
000300 cb 33 7e bc 91 e7 40 3e ad 26 e0 3d 61 a5 c5 bd
       -0.015515278 0.18838336 0.10944877 -0.09650684
000310 e8 7b f2 bb 61 6f 77 3d d6 8b 05 bd a4 26 80 3d
       -0.0074000247 0.060408954 -0.03260406 0.0625737
000320 7a d5 5c be 6c c7 06 bd 37 fe 46 3e b2 fc 91 3d
       -0.2156581 -0.032905027 0.19432913 0.07128276
000330 8b 60 00 bd 53 6f 6e be 52 fc 7a bd 6a 56 a3 bd
       -0.03134207 -0.23284654 -0.061275788 -0.079754665
000340 35 95 69 bd ec 6c 85 3c c2 4d cf 3d 24 0c 2c 3e
       -0.05702706 0.01628729 0.10122253 0.16801506
000350 6d 1b e3 be 6b f6 b7 bd 3c 29 cd be c2 1e 59 3e
       -0.44356862 -0.089825474 -0.40070522 0.2120314
000360 f7 bd a1 3c 4b 22 28 bd aa 87 19 3d a2 bd a5 bd
       0.019743903 -0.04104833 0.037482895 -0.0809281
000370 17 78 e2 bd c8 50 5f 3e 93 7c 97 bd 8f 8b c7 3d
       -0.110580616 0.2180816 -0.073968075 0.097434156
000380 c3 4b a3 bd 8f 6a 21 3e 91 f9 57 3e 30 3e 43 bb
       -0.07973435 0.15763305 0.21091296 -0.0029791705
000390 e9 a2 f3 3d ac 34 7e be 40 e4 6f be cf 31 76 3e
       0.11896307 -0.2482478 -0.23426914 0.24042438
0003a0 74 c5 99 3d 09 38 1c 3e a8 ed ce 3e 6e 7d ab 3d
       0.07508364 0.1525575 0.40415692 0.08373533
0003b0 e4 88 22 bc 2b 24 94 bd 4c 88 17 be 06 f0 2b be
       -0.009920333 -0.07233461 -0.14798087 -0.1679078
0003c0 6b 85 28 3d 5d a7 05 be a4 c0 09 bd 80 79 f4 3d
       0.041142862 -0.13052125 -0.033630982 0.11937237
0003d0 39 81 ca bd d6 d7 54 bc cf 1b 22 be 5b 86 a6 3d
       -0.098879285 -0.012990912 -0.1583092 0.08131095
0003e0 15 90 16 bc 04 c8 70 3e 76 ef 91 bc cf fe a7 bd
       -0.009189625 0.235138 -0.01781438 -0.08202898
0003f0 03 79 d2 3c 81 bd 7e bd fa 27 99 bd 76 33 39 be
       0.025692469 -0.062192444 -0.07478328 -0.18086037

bias f4 [64]
000000 fc 3c 0f be 10 2b 04 be 4a 59 03 be 9b 6d ee bd
       -0.13988107 -0.12907052 -0.1282703 -0.11641999
000010 e5 fb c4 bd df 1d 61 3e aa ba a3 bd dc 13 43 be
       -0.096183576 0.21984051 -0.07994588 -0.19050545
000020 0b 5e b7 bd f9 5f 2c bc 10 26 aa bd ae 8e bd 3c
       -0.08953484 -0.010520929 -0.08308041 0.023139324
000030 bd 3b 85 bc ef 68 39 bd 7f b2 aa bd a8 da fb bc
       -0.016263837 -0.045266088 -0.08334827 -0.030743912
000040 5b 0f fd 3c 37 28 7e 3d 65 dc 04 bd 0f f8 7b bd
       0.030891111 0.06205007 -0.032436747 -0.061515864
000050 c1 76 f7 3c 0c 52 4b be a1 e9 34 be b5 a5 59 3c
       0.030207993 -0.19855517 -0.17667247 0.013284137
000060 04 ce 12 3d 85 e0 c5 bd 83 a1 88 be 88 4f ac 3c
       0.035841003 -0.09661964 -0.26685724 0.021034017
000070 6e a3 8f 3c 1b 95 88 3d 25 2b 3e be c3 11 80 3d
       0.017533984 0.066690646 -0.18571146 0.06253388
000080 b3 da 99 3d 78 ac a3 bd c1 43 0b be 01 fd 12 bd
       0.07512417 -0.0799188 -0.13600065 -0.035885815
000090 a0 45 11 be 53 13 d1 3d b1 57 78 3d ed 98 ad 3d
       -0.14186716 0.10208764 0.060630504 0.08476434
0000a0 85 95 bd 3d 4c e7 90 bc 58 72 55 bd 53 77 48 3d
       0.09257034 -0.017688416 -0.052111 0.04894192
0000b0 15 6c ab bd 29 59 5f bc d9 bf 9c bc 3d 84 af 3d
       -0.083702244 -0.013632097 -0.019134449 0.08570144
0000c0 8f f5 cb 3d d5 43 18 3e 54 da 2d 3d e5 81 45 bd
       0.09958946 0.14869626 0.042444542 -0.04821958
0000d0 bd 54 91 be 69 01 19 3d a6 ad 77 be 98 b4 2a be
       -0.28384963 0.03735486 -0.24187335 -0.16670454
0000e0 10 bf 80 3c 66 d1 61 3c 2a 37 22 be a6 bc 25 be
       0.015716106 0.013782835 -0.15841356 -0.16185245
0000f0 b6 92 43 be 90 78 84 3d 36 4a 01 be 17 c0 47 3e
       -0.19098935 0.06468308 -0.12625965 0.1950687

weight f4 [64, 64]
000000 66 12 48 3e 50 32 3f 3d 2a 58 a5 bd f5 3e a3 3e
       0.19538268 0.04667884 -0.080734566 0.3188397
000010 3f eb cd 3c 09 28 9f 3d 02 e8 62 3e 5d 45 26 be
       0.025136588 0.07771308 0.22158816 -0.16237397
000020 c1 03 2b 3e a9 ab f7 bb 30 87 74 be 47 cd 3d 3d
       0.16700651 -0.0075583053 -0.23879695 0.046338346
000030 2b 76 0d be 7d f6 1d be 10 c9 03 3e 7e b6 32 be
       -0.13814609 -0.15426059 0.12869668 -0.17452428
000040 f2 fc a4 bd bc e9 50 be f0 e0 95 3d 01 dd 88 3e
       -0.08056058 -0.20401663 0.07318294 0.26731113
000050 72 33 88 bd ac 68 9c bd 2b 99 f2 3d 59 5a 86 bd
       -0.066504374 -0.07637152 0.11845621 -0.06560201
000060 2f 32 62 be 38 c9 02 3d 2e 2c df 3d 3d e5 45 be
       -0.22089456 0.03193018 0.108970985 -0.19325729
000070 f5 4b 80 3d 20 2f 46 be b5 83 60 be 4e 03 a0 bd
       0.06264488 -0.19353914 -0.21925242 -0.0781313
000080 6d 1e 26 be 92 a4 a6 3c b5 1d f7 3d 18 01 e6 3d
       -0.16222544 0.020342145 0.12066213 0.11230677
000090 bc 13 36 3e d6 9e bf 3d 15 bf f4 bd 16 18 1f 3e
       0.17780966 0.093564674 -0.119505085 0.15536532
0000a0 8b 0b 94 be c7 4e 13 3c c8 c8 65 3e 40 d9 56 3e
       -0.28915057 0.00899095 0.22439873 0.20981312
0000b0 e0 b8 55 be db 77 91 bd 73 9f 80 bd e9 d4 0b be
       -0.20871305 -0.07102939 -0.062804125 -0.13655438
0000c0 31 e8 9b 3d 71 6e 3c bd 11 b3 6b 3d ee 04 15 be
       0.07612646 -0.046003763 0.057543818 -0.14552662
0000d0 1f 9e af bd 9e 8e 86 3e 36 3d 3a bc 01 67 48 be
       -0.08575081 0.26280683 -0.011367133 -0.19570543
0000e0 ca b9 fd 3c 56 ca 44 3e fa 83 84 bd b9 1e d1 3a
       0.03097238 0.1921781 -0.06470485 0.0015954591
0000f0 ce 57 00 3e 4a 14 6f bc 5b 40 85 bd 68 f0 df 3d
       0.12533495 -0.01459224 -0.065064155 0.10934526
000100 c9 40 41 be bb 87 53 be f9 04 33 be 69 9d 68 bd
       -0.1887237 -0.20657246 -0.17482366 -0.056790743
000110 bc fc 61 bd 47 b2 99 3d 27 77 af be 53 11 ce bd
       -0.055172667 0.07504707 -0.34270594 -0.10061898
000120 e5 9e de bd 61 e4 65 3d 87 46 44 3d 40 93 e2 3c
       -0.108701505 0.056126002 0.047918823 0.027658105
000130 a4 99 7a be e7 54 0b be e7 e2 33 3e 8b 81 99 bd
       -0.24472672 -0.13606606 0.17567025 -0.074954115
000140 90 f5 15 3d 5e 5c 16 bd 14 a5 a9 bd 13 fd 12 3c
       0.03661114 -0.036709182 -0.08283439 0.00897147
000150 9e bc 83 be 05 e4 aa 3c 1c cc 1b 3e 81 65 3a bd
       -0.2572984 0.020860681 0.1521458 -0.045506958
000160 c5 71 de 3d 85 04 15 bd 4c d8 55 3d 56 e8 5f 3d
       0.108615436 -0.036381263 0.05220823 0.054664932
000170 b1 f2 24 be 6b 94 41 bd b4 5e 2d bd d9 1d 97 bd
       -0.16108204 -0.047260683 -0.042326644 -0.0737874
000180 80 d4 2e bd c9 04 0a be b4 16 14 be 95 83 8d 3d
       -0.042683125 -0.13478388 -0.14461786 0.06909863
000190 61 e1 75 be 86 c5 ff bd 15 ff f2 3d 6b 24 2a bd
       -0.24011756 -0.124888465 0.11865059 -0.041538637
0001a0 3f 35 b7 bd b5 29 be bd c4 57 a6 bd 97 68 88 bb
       -0.08945703 -0.09285299 -0.08122209 -0.0041628587
0001b0 20 33 be 3d 65 33 95 bd 4b 5e 95 3d 37 36 f1 3d
       0.09287095 -0.07285193 0.072933756 0.11777919
0001c0 8a cb b5 b9 f4 6c 0f be e9 0d 1d be f9 4c 18 bd
       -0.0003467466 -0.14006406 -0.15337338 -0.03718278
0001d0 03 11 33 bd 51 7b 44 3e 4d 92 5b be 1b da 13 3e
       -0.043717396 0.19187666 -0.21442528 0.1443867
0001e0 61 15 cf bd ca ca 7f bd c8 70 a9 3d 9e fa 31 3d
       -0.101114996 -0.062449254 0.082734644 0.043451898
0001f0 53 de 92 3d 6c 5e 85 bd b1 60 1c be e7 36 e6 bd
       0.07171311 -0.0651215 -0.1527126 -0.112409405
000200 aa 31 e7 bc 5e df 0e 3e 62 ab 9b bb ff fa 24 be
       -0.028221924 0.13952395 -0.004750655 -0.16111372
000210 6d 73 3f bd 4a c2 d1 3c c1 33 11 3e df e3 01 be
       -0.046740938 0.02560534 0.14179899 -0.12684582
000220 8b 6c e2 bd 6a 2b 47 bc 8f 21 e2 bd 8c 0f 04 3e
       -0.11055859 -0.012156347 -0.11041557 0.12896556
000230 62 a4 ee bd 81 3d 9e bd f7 56 22 3e 2d dd 05 3e
       -0.11652447 -0.07726575 0.15853487 0.13072653
000240 3a 60 4d bc 99 93 75 3e 9a 36 b1 3e 28 2b e0 3b
       -0.012535149 0.23982085 0.3461197 0.006841082
000250 0e b1 0b be d0 d6 55 3e ca 23 ad 3e 7f b4 73 3d
       -0.1364176 0.20882726 0.33816367 0.059498306
000260 76 49 9a be 20 20 06 3e 1f ed 2a 3b 9c fd ff 3d
       -0.3013417 0.13098192 0.0026081277 0.12499544
000270 6e 07 1b bd 15 aa 9a 3d 67 1e 9f bd 2d 69 2d be
       -0.037848882 0.07551972 -0.07769471 -0.16934653
000280 18 dd ac 3d 11 96 87 bd 90 9b 08 3e fe 8b a6 3e
       0.08440608 -0.0662042 0.13340592 0.3252868
000290 96 2b fc bc c2 27 b5 bb a0 b2 54 be e4 c3 ca bd
       -0.030782502 -0.005528421 -0.20771265 -0.099006444
0002a0 83 cd 2a b9 2d 63 fe 3d 3d 56 2c be 8f 76 47 3e
       -0.00016289022 0.1242126 -0.16829772 0.1947882
0002b0 bb 0a bf be 08 2b 6f 3e 05 97 fc bc e3 b7 46 be
       -0.37312874 0.23356259 -0.03083373 -0.19406085
0002c0 30 09 fc 3c 56 d9 ba bd 80 3c 13 bd 1b 6e 99 bc
       0.0307661 -0.09123485 -0.03594637 -0.01872926
0002d0 94 06 7f 3e b2 25 99 3e a6 2b 27 3d b4 41 1b bd
       0.24904853 0.29911572 0.04081311 -0.037904456
0002e0 67 b7 b2 3d bd 86 bd 3e c4 ae 84 3d ff 1c 44 3b
       0.087263875 0.3701686 0.064786464 0.002992451
0002f0 04 fd 94 3e 6b cd fb 3c da 77 64 bd 4c 4e 45 be
       0.29099286 0.0307376 -0.05577836 -0.19268149
000300 a6 95 56 bd d6 8e 32 bd fe 7a 00 3e 12 38 cf bd
       -0.05238881 -0.04359325 0.12546918 -0.101181164
000310 29 8c 7e bd 5e 83 49 bd 71 57 98 be 61 5a 9b 3d
       -0.062145386 -0.049197547 -0.29754212 0.07585598
000320 ba ab 7d bd 7e a6 5f 3e 4c c3 80 3e 44 9e b3 bd
       -0.06193135 0.21840855 0.25149 -0.08770421
000330 96 fd 37 bd 9b 95 02 be 23 1b b2 bd 8d 86 a4 3d
       -0.044919573 -0.12752382 -0.08696582 0.08033476
000340 4e 89 05 bd 93 25 55 3e bc 05 39 be af 11 72 3d
       -0.032601647 0.20815115 -0.18068594 0.059098896
000350 9b 2b b7 3d f2 ea 39 3c dd 1f 1e 3e 06 38 20 be
       0.08943864 0.011347519 0.15441842 -0.15646371
000360 7f 03 4c 3e 97 5e 9a 3d 27 52 71 bd 76 d3 aa 3d
       0.19923209 0.07537573 -0.058916237 0.08341114
000370 31 da 8e be e9 41 4e 3e 18 8a ca bd cf 3a 3d bd
       -0.27900842 0.2014233 -0.098896205 -0.046198662
000380 d6 ef ec 3d be 3d c7 bd 3c eb 37 3c 5a cb 00 3c
       0.115691826 -0.09728573 0.011225518 0.007860983
000390 ef 96 27 bd 20 bd 61 be e3 aa ce bc f1 1c e5 bc
       -0.040915426 -0.22044802 -0.02522797 -0.027967902
0003a0 6e f6 a5 3d 7f 6e 0f be da 93 06 3c 6d 41 a9 be
       0.08103643 -0.14006995 0.0082139615 -0.33057728
0003b0 f5 fd 3f 3e 6e 96 6b be 10 a7 de 3d de 73 c9 3c
       0.1874922 -0.23006603 0.108717084 0.024591383
0003c0 f8 25 02 3b 85 ad 89 3c 31 22 85 3e 9e c4 15 3c
       0.0019859057 0.016806373 0.26002648 0.0091411155
0003d0 e5 7f f4 bd d5 91 8b 3d d5 06 9c be bd 6d ac 3e
       -0.119384564 0.06814925 -0.30473962 0.33677474
0003e0 e2 a4 3e be 6f 47 8b bd 9e f8 d0 3d 04 23 db 3d
       -0.18617585 -0.06800734 0.1020367 0.10700038
0003f0 cf ba 06 3d c6 0f 61 bd 6c 66 00 3e 47 dc 05 be
       0.032893 -0.054946683 0.12539071 -0.1307231

bias f4 [64]
000000 e9 ca e4 3d 4e d7 19 bb 2b 61 7b be b5 06 58 be
       0.111715145 -0.002347428 -0.24548785 -0.21096309
000010 f5 83 86 3d 4f fd c2 bd 70 67 ac 3d b8 4a 8d be
       0.065681376 -0.09520971 0.08418167 -0.27596068
000020 62 bf 4f bd f0 6a ad be 46 4c 3d be 9b 7e 3d 3d
       -0.050719626 -0.3387065 -0.18486127 0.04626332
000030 47 b9 ca be 8a a0 01 bd 87 7f bb 3c 50 73 18 3e
       -0.3959448 -0.031647243 0.022887958 0.14887738
000040 47 b8 6f 3e 53 28 e3 bc a3 83 d4 bd f8 f1 ea bc
       0.2341014 -0.027729189 -0.1037667 -0.028679833
000050 dc 2d 61 be 28 63 72 be 1c 43 eb bd b6 10 56 be
       -0.2199015 -0.23670638 -0.114874095 -0.20904812
000060 57 35 53 bc a6 38 9a bc 06 64 3f 3e 3b 54 00 bd
       -0.012891135 -0.01882584 0.186905 -0.03133033
000070 57 69 f8 bc 53 06 9d be 04 0a 04 bd a8 76 f7 3c
       -0.030323667 -0.30668887 -0.032236114 0.030207947
000080 0b 46 32 3d 7a 0b af 3d 4c 52 57 3d b3 63 15 3e
       0.04352383 0.08547111 0.05256872 0.14588813
000090 6c e6 cc ba 41 b3 27 be 86 c5 a8 be e3 b6 55 3e
       -0.0015632636 -0.16376974 -0.32963198 0.20870547
0000a0 7b 26 f6 3d 44 a5 41 3e ef a6 63 be 72 13 c1 3d
       0.12019058 0.189107 -0.22231649 0.09427537
0000b0 5f 04 ef bd 9b 82 a4 bd 91 39 84 3d 9a cb 83 bd
       -0.116707556 -0.080327235 0.064562924 -0.06435318
0000c0 e3 b0 65 be 31 0f 9b bd 16 67 37 3c e5 a1 1e 3d
       -0.22430758 -0.07571257 0.011194011 0.038728613
0000d0 ac ba 12 3d 66 cb 27 bc f6 a8 56 be 33 85 4f be
       0.035822555 -0.010241365 -0.20962891 -0.20265655
0000e0 2a bb cf bd 66 54 1e 3e 7b 7e 31 be 21 85 50 be
       -0.101431206 0.15461883 -0.17333405 -0.20363285
0000f0 67 ec 51 3e 77 a3 ce 38 29 f6 d1 be 9a c3 ab bd
       0.20500337 9.853293e-05 -0.41008118 -0.083869174

weight f4 [8, 64]
000000 ed ee df bd 0d 6e 19 3e 65 8c d8 3d 3b c8 ea 3d
       -0.10934243 0.14983387 0.10573653 0.11463972
000010 6b 16 3b 3e 2c ee 13 3d fb 18 d2 3d 33 c7 15 b9
       0.1827027 0.03611581 0.10258671 -0.00014283955
000020 2d ea cb bc d1 3d 52 3e c6 a6 18 3e 54 e9 27 be
       -0.024891937 0.20531394 0.14907369 -0.16397601
000030 04 46 4f bd ac 4f d2 bc d8 90 00 3d 7c ae c2 3d
       -0.05060388 -0.025672756 0.031388134 0.095059365
000040 9a e3 b0 3c 6b cb 55 bc 17 fb 19 3d f0 72 d5 bd
       0.021592904 -0.013048987 0.037592974 -0.10422313
000050 f3 7f 98 bd af 0b b4 bc 60 ff 40 bd d4 51 b1 bd
       -0.074462794 -0.021978227 -0.047118545 -0.086581856
000060 df f3 9d 3d ed 99 b6 3d 9d f3 e0 bc 46 67 0f 3e
       0.0771253 0.08916078 -0.027459914 0.1400424
000070 2d 29 c0 bd cf 8b 92 bd c1 23 14 bd b9 59 d3 3d
       -0.09382854 -0.071555726 -0.03616691 0.103198476
000080 3b 21 0b 3e 62 cf 97 bd b9 f5 df 3d 6c ba 90 bd
       0.13586895 -0.07412602 0.1093554 -0.07066807
000090 d4 08 38 bc fa 3a 6b bd 86 ae f8 3d 1c 57 08 bd
       -0.011232574 -0.05742929 0.12142663 -0.0332862
0000a0 9d 9b ca bd 66 3e 93 bd 00 95 ac 3c cf 2f 1c 3e
       -0.09892962 -0.07189636 0.021067142 0.15252613
0000b0 62 6a 82 bc 1e 20 42 3d 0d 6f a4 bd d4 68 8a bd
       -0.015919868 0.04739391 -0.08028994 -0.06758276
0000c0 2b 90 03 3e 03 57 d7 3d 11 1c 01 be 4e 70 a0 3d
       0.12847964 0.10514643 -0.12608363 0.078339204
0000d0 24 b5 02 3e a4 8d f6 3b 30 9b 89 bd 64 51 c5 bc
       0.12764412 0.007524209 -0.06719053 -0.024086662
0000e0 3a 5d cf 3c 30 74 e0 bc d4 0c b7 3c fa 02 6a 3d
       0.025313009 -0.027399153 0.022344984 0.057131745
0000f0 ff 68 1c 3c 49 b7 3d 3e fd 66 04 bc 42 48 d3 3c
       0.009546517 0.18526949 -0.008081195 0.025791291
000100 4b 5c bd bd c8 99 2c 3c ad 60 c2 bd 88 9a 4b 3e
       -0.09246119 0.010534711 -0.09491096 0.19883168
000110 77 2a 17 bd 2c d6 eb 3d a7 9e 89 3d 24 f0 32 3e
       -0.036905732 0.115154594 0.06719714 0.17474419
000120 08 f5 be bd 78 55 41 be b5 29 85 bd f2 ad 05 3e
       -0.0932408 -0.1888026 -0.065020956 0.13054636
000130 ff 1d 8a bd 6a 12 be bc 64 7a 08 3e 7a 5b 9c 3d
       -0.067440026 -0.02320214 0.13327938 0.07634635
000140 d6 03 74 3d 01 a6 ff bc 74 bd e7 bd f9 33 c1 bd
       0.05957397 -0.031207087 -0.11315432 -0.09433741
000150 30 47 58 bd 29 d0 70 be ac d5 6d be 5e de d0 be
       -0.052802265 -0.23516907 -0.2322604 -0.40794653
000160 47 2c 2f 3c 2e c7 26 bd 4b 65 35 3d 35 78 c9 3c
       0.010691709 -0.040717296 0.044286054 0.024593452
000170 2d 0d 52 bd 89 49 0c 3d 4c f8 09 3d 67 64 a3 3d
       -0.051282097 0.034249816 0.03368406 0.079781346
000180 43 6a 10 be b8 46 85 3d d6 32 99 bc c5 1f 2a 3e
       -0.14103036 0.06507629 -0.018700998 0.16613682
000190 ec dd d0 bc 4c a7 ec bd 99 30 81 bd 6a 27 75 3d
       -0.025496446 -0.11555347 -0.063080974 0.05985204
0001a0 3f b3 d2 3d 7a b9 b6 3d 87 f0 b2 3d 31 ae 9f bd
       0.10288095 0.089220956 0.08737283 -0.07796896
0001b0 cf dc 08 bd c0 90 cd bd 63 30 60 bd 92 51 19 3d
       -0.033413704 -0.100373745 -0.054733645 0.037431307
0001c0 92 a6 45 be b2 0c 03 3e 75 0d b8 3c 84 b8 d7 bd
       -0.19301823 0.12797812 0.022467354 -0.105332404
0001d0 4d 3e a5 bd fc 15 9f bd 7f 58 cb 3c 12 6e ce bd
       -0.080685236 -0.07767865 0.024822472 -0.10079588
0001e0 17 7b c8 3c 20 a2 bb 3d cc 5c b0 bd 11 9d a9 3c
       0.024472756 0.09161782 -0.086114496 0.020704778
0001f0 9d cd ee 39 de 64 46 3a 4e a8 dc bd 87 ab 3f bd
       0.0004554809 0.0007568131 -0.10774289 -0.04679444
000200 27 7c 08 3c 55 a9 3d bd a3 09 f7 bd 45 0e 3c bd
       0.0083303815 -0.046304066 -0.12062385 -0.045912046
000210 4a 33 09 3e ae d4 92 be c7 30 6a 3d e1 15 7d 3b
       0.13398471 -0.28677887 0.057175424 0.0038617777
000220 91 e1 f9 3d 09 10 c4 bc 95 58 09 bd 02 4a ec bd
       0.122012265 -0.023933427 -0.033531744 -0.11537553
000230 9e 52 87 3e ef bb dc bd c1 8b f4 3d a1 79 6e bd
       0.2643022 -0.10778033 0.119407184 -0.058221463
000240 54 ab 1a 3e 5a bd af 3d 39 60 d4 bc 73 05 37 be
       0.15104419 0.08581038 -0.025924789 -0.17873172
000250 dd 61 37 bd e2 2c 82 3d ab 40 9c 3d 02 0b fd bb
       -0.044771064 0.06356217 0.07629522 -0.0077222595
000260 5c b2 10 3d 30 d8 f4 3d b7 71 05 bd d1 c4 f4 bd
       0.035326347 0.11955297 -0.03257915 -0.11951602
000270 fa 65 1e bc 0c 80 6c 3d 73 9d 7b 3d 37 5b a0 3d
       -0.009667868 0.057739303 0.061429452 0.07829898
000280 dc 8d 27 be 96 32 fa 3c 27 dc 9b 3d 56 64 08 be
       -0.16362709 0.0305417 0.0761035 -0.13319525
000290 b7 fc c0 bd 67 5b 2b 3d 8c d4 35 3d 3f 73 00 bd
       -0.094232015 0.041835215 0.044392154 -0.031359907
0002a0 a7 7d b8 3c db 0f 65 3d 62 e2 63 3e 18 73 87 3a
       0.022520853 0.055923324 0.22254327 0.0010333983
0002b0 38 a7 a5 3d 06 3d e5 bd 07 39 69 bc ba d3 44 bd
       0.08088535 -0.1119328 -0.014234788 -0.04805348
0002c0 3f 9b 04 3c 5b 2e d3 bd ca 81 2f bd 7e 58 47 bd
       0.008093654 -0.10311576 -0.042848386 -0.048668377
0002d0 17 32 45 bd 79 57 94 3d c9 87 ba bc 54 c8 ba 3d
       -0.048143473 0.072432466 -0.022769826 0.09120241
0002e0 27 88 14 3d ce 19 d8 3d c9 bd 06 bd 15 61 2f bb
       0.036262657 0.10551797 -0.032895837 -0.0026760746
0002f0 95 1a de 3c 4d 64 30 3d 77 89 a9 bd 7b fb 76 3d
       0.027112285 0.043064404 -0.082781725 0.060298424
000300 cc d0 84 bd 9d 60 74 3e f9 28 3a 3e 88 c4 08 bd
       -0.06485137 0.2386498 0.18179692 -0.03339055
000310 e9 c1 7f bd e6 49 e9 bd e4 24 aa bd 6f 5b 89 bd
       -0.062440787 -0.11391048 -0.083078176 -0.06706893
000320 7b 6a 2e 3d 61 b0 d0 3b 9a 73 91 3d d3 86 93 3a
       0.042582016 0.0063686823 0.071021274 0.0011255391
000330 e2 59 45 3d 4f b8 9a bd 81 ba 0b 3e ce dd 21 3c
       0.048181422 -0.07554685 0.13645364 0.0098795425
000340 55 7f c0 bd 23 d5 71 be c6 7f 4d 3c e0 b7 aa 3d
       -0.09399287 -0.23616461 0.012542671 0.083358526
000350 0b cc 50 3d 4c 43 86 bd 88 61 98 bb db 84 35 3d
       0.05097584 -0.065558046 -0.0046502985 0.044316154
000360 4f a4 26 be 5e ff 95 bd 41 cd 1c bc 9a 8b 88 3c
       -0.16273616 -0.07324098 -0.009570421 0.01666813
000370 23 d3 63 3d 51 09 6c bc 07 de 04 3c fd 70 2a 3c
       0.055621278 -0.014406518 0.008109576 0.010402915
000380 4b f1 0f be d1 45 06 be d0 88 ad bd 67 54 71 bd
       -0.1405689 -0.1311257 -0.084733605 -0.058918383
000390 d1 63 95 3c ff 21 88 be 82 f5 ce bc d5 a7 49 3d
       0.018236073 -0.26588437 -0.025263552 0.049232323
0003a0 a5 29 4f 3a b0 68 88 3d 48 22 53 3e 21 14 48 3b
       0.0007902629 0.066605926 0.20618546 0.0030529576
0003b0 ee 4b 3f bc c7 05 82 bd 8c ae e6 3c 56 d1 f5 bd
       -0.011675818 -0.06348758 0.028159402 -0.12002818
0003c0 56 7e 96 bd 92 4e c7 3d da 65 1c bd 26 d8 dd bc
       -0.073483154 0.09731783 -0.03818307 -0.027080607
0003d0 8f a6 00 3e df 1b 66 bb 08 94 e5 3d 45 af 81 3b
       0.12563537 -0.0035111827 0.11209875 0.0039576613
0003e0 30 41 41 3d 5f c1 89 bd f5 d2 21 be 88 e7 0c 3d
       0.04718131 -0.06726336 -0.1580313 0.034400493
0003f0 85 57 e7 3d e2 43 04 be 2d 6e fb bc df 63 aa bd
       0.1129599 -0.1291652 -0.030692184 -0.0831983

bias f4 [8]
000000 0b 42 86 bc 36 af f1 3d ef 80 a0 bc 03 f7 81 3d
       -0.016388914 0.11800997 -0.01959273 0.06345942
000010 eb c0 e2 bd dc 21 50 3e 67 c3 0d bd 9c 21 f0 bd
       -0.110719524 0.20325416 -0.03461018 -0.117251605
