sim2real/policies/gripper/policy.pt (torch, 37426 bytes, 6 tensors)

weight f4 [64, 31]
00000000: 22ee 813e 7e95 c53e cef0 df3e 33af 353e
00000010: 05a8 923e 0079 b73e 74ed 69be b238 743e
00000020: 3bda 693e 9cb7 a1bd 805d 463e 51d4 d63e
00000030: 2d11 063e b271 3f3d cab1 bc3d fb22 503d
00000040: b954 123d c0c1 813f 6c1f dfbe 1649 3c3d
00000050: af2a d5be f485 15be 1eaa 98bd 0189 603e
00000060: 55de 44be 8943 08be bb27 50bd b178 0cbe
00000070: d560 b03c 2350 46be be83 293e d723 f2be
00000080: 2cf3 f33c c8f1 c2be d44b 6ebe aedd f1bc
00000090: ba82 7fbd 1f9d e93e 17b3 383d 52e9 cd3c
000000a0: d47f 1a3d 9a3d eebc 4ec1 bd3d 803a 643d
000000b0: 2494 803e 74bd b4bd e943 1a3d 46b1 943c
000000c0: b899 a1bf c615 8dbe bc26 36be 911e 78be
000000d0: e3b4 e5bd 6d44 163e f12a 4a3e 9d2c 1f3d
000000e0: 76cc 2e3d ca75 1b3e d75f 913c f943 54ba
000000f0: 72bc 913d dc7b e6bd a00f 7e3e 6a99 f8bc
00000100: e112 613e 58e4 0a3e 81ae 383f e0eb 7bbd
00000110: f619 dbbe cc78 7abd 7fc5 3e3e 318f 19bc
00000120: 204a 313e 37cb dfbd d745 73be 5526 44bd
00000130: 2bfb c5bd 238e cd3d 6390 4fbd 4311 643e
00000140: 7129 80be 0a9c f7bd 8765 df3d 1b74 b4be
00000150: 7fad df3d 9e87 16bd 42eb 1abd adbd 22be
00000160: f73b b0be c1b1 8f3d 6f3c 9a3b 1b12 aebd
00000170: e030 9f3d b2c7 2abf db43 7b3d 78b8 6fbe
00000180: 5d54 93be 266c 59be fce1 40be c9f5 9fbe
00000190: fba4 1fbe 8563 62bc 048d 43be 0364 8fbd
000001a0: 48f9 79be 96f0 99bd 687e 8abc c509 04be
000001b0: 32bb 2ebe e07f b8be 4e57 edbe 8e47 053f
000001c0: b2ed 5f3d c60d 0ebe 2dd7 69bb a4bf 75bd
000001d0: b99b babc 0495 78be 96e5 91b9 d977 d6bd
000001e0: aa9e 433c bb58 3bbd 60f2 71bd 2835 8dbe
000001f0: b083 e1be 501d 2f3e 46cc 8e3e aa1f 24bf
00000200: 2520 eebc 18d5 06be abc6 0d3f fdc4 df3d
00000210: 8c51 71be 8dca c9bc f917 a5bd 56f7 22be
00000220: 64cc ffbd 3e26 2dbe bc97 073b ddb0 763c
00000230: 332b 82be 2546 6d3f 41da b03e 7b70 07be
00000240: a178 423e 4496 b63d 9673 bf3d 78bf 143e
00000250: 09f1 973b 6d0d 51be cfe0 5e3d 2906 b1bc
00000260: 2358 b2bd 1d17 05be 4f9d b5bd 7b60 ae3e
00000270: 3a6b 243f ef2a 783e 2340 e33e 6737 e0bd
00000280: 0207 1b3d 4bdb df3e 915e 133e 0c86 1bbe
00000290: 08af c53d 6d23 253d 4ca4 273d 6cd0 ed3c
000002a0: 6d22 e73d d674 c9bd 65c1 b4bd 5b61 58bd
000002b0: 7787 ec3f 6426 59bb 2943 d1bd f339 8dbe
000002c0: 1905 8cbe f529 803d 80df 2a3e ed3e a3bc
000002d0: 048b f638 518d 943d 6362 f3bd b5f8 22bd
000002e0: bec5 693e 13c6 f03c 8fb1 383f 3b2b b03d
000002f0: 4e2b 843e e228 19bd 88ec e73e 62f1 1cbd
00000300: 9a33 33be 429d 503e 2d45 1abd dc3d 8dbd
00000310: 878c 533d 02e5 11be 452c df3d d7b3 f73d
00000320: fa90 0fbe 2bfb 53bd a542 1a3e 077c cd3f
00000330: 355c 30bd 1cdd dbbd 6070 1c3d 5223 c9be
00000340: f085 6ebd d616 f93d 1f13 203e 1799 8e3d
00000350: 0af4 42bd c4d6 14be 596d bbbd 2222 a53e
00000360: 01e9 8abd 9b56 d4be 9b3e 01be a725 24bf
00000370: 2529 68be 369d 65bd 4184 f83d 4502 553d
00000380: ed92 27be d805 8e3e 0461 a93d ca88 b73d
00000390: 2695 23bd 9eb9 e8bd 64e4 e8bd 2c85 8e3e
000003a0: a4d6 c03d c206 f93d 8fe9 8fbf 33df 8ebe
000003b0: 1eb5 5fba 8e40 ccbd 86fc a8be 5af3 2bbe
000003c0: 88bc 023e ccc1 22be 8ef0 cfbd 9739 01be
000003d0: e9a7 f4ba 55e3 eabd 7b46 3fbd 5dc7 383e
000003e0: 6629 293a f038 fdbe aefd 92bb b594 96be
000003f0: 2670 e43e f39c 92be 250f 96bc cda3 31be
0.25376993 0.38590616 0.43738407 0.17742614 0.28643814 0.35834503 -0.22844487 0.23849753
0.22837155 -0.07896349 0.19371605 0.4195886 0.1309249 0.046739288 0.09213598 0.05081461
0.03572533 1.0137253 -0.4357866 0.045968138 -0.41634127 -0.1460188 -0.07454322 0.21927263
-0.19225438 -0.13307013 -0.05081914 -0.13717915 0.021530548 -0.19366507 0.16554162 -0.4729297
0.02977904 -0.3807509 -0.23271114 -0.02952465 -0.06238053 0.45627686 0.04509267 0.02513567
0.037719563 -0.029082108 0.092653856 0.055719852 0.25113022 -0.08825198 0.03766242 0.018150937
-1.2625036 -0.27555674 -0.17788213 -0.2423041 -0.11216142 0.1467454 0.19742943 0.038860906
0.042675458 0.15181652 0.017745895 -0.0008097287 0.07116021 -0.11254093 0.24810648 -0.030346591
0.21979858 0.13563669 0.7214127 -0.061504245 -0.42793244 -0.061150357 0.18630026 -0.009372518
0.17313433 -0.10927432 -0.2375711 -0.04788812 -0.09667047 0.10036876 -0.050674807 0.2227221
-0.25031617 -0.12090309 0.10908037 -0.3524483 0.10921764 -0.03675043 -0.037822016 -0.15892668
-0.3442075 0.07016326 0.0047069113 -0.08499547 0.07772994 -0.6671096 0.06134401 -0.23410213
-0.28775302 -0.21232662 -0.18836206 -0.31242207 -0.15590279 -0.013817673 -0.19096762 -0.070014976
-0.244115 -0.07516591 -0.016905978 -0.12894352 -0.17063597 -0.3603506 -0.4635567 0.5206231
0.054670043 -0.13872442 -0.0035681233 -0.059997216 -0.022779332 -0.24275595 -0.0002782761 -0.10472078
0.011939684 -0.045738917 -0.059069037 -0.27579618 -0.44045782 0.17101026 0.27890223 -0.64110816
-0.029068062 -0.13167226 0.5538127 0.109262444 -0.23566264 -0.024632717 -0.08061213 -0.15914664
-0.12490156 -0.1690912 0.0020689806 0.015056816 -0.25423583 0.9268516 0.34541515 -0.13226502
0.18991329 0.0891538 0.09348218 0.14526165 0.004636888 -0.20415278 0.054413613 -0.021609383
-0.08708217 -0.12997098 -0.08867895 0.34057984 0.64226115 0.24235128 0.4438487 -0.10948067
0.03784848 0.43721995 0.14391543 -0.15187854 0.09652525 0.040316988 0.04092817 0.029030047
0.11285863 -0.09836738 -0.088259496 -0.05282722 1.847884 -0.0033134455 -0.10217888 -0.27583274
-0.2734764 0.06258003 0.16686821 -0.019927466 0.00011756088 0.072535165 -0.11884 -0.039787967
0.22829339 0.029391324 0.7214593 0.086019956 0.2581429 -0.037392505 0.45297647 -0.038316138
-0.17500153 0.20372489 -0.037663627 -0.06896564 0.05164769 -0.14247516 0.108971156 0.120948486
-0.14020148 -0.051753204 0.15064485 1.6053475 -0.043056685 -0.10735533 0.038193107 -0.3928476
-0.0582332 0.12162559 0.15632294 0.06962793 -0.047596015 -0.14535052 -0.09151716 0.32252604
-0.06782723 -0.41472325 -0.12621538 -0.6411995 -0.22671945 -0.05605813 0.121346004 0.052004118
-0.16364641 0.27738833 0.082704574 0.08961637 -0.03993716 -0.11363529 -0.11371687 0.27835977
0.094159395 0.12159492 -1.1243151 -0.27904662 -0.00085337635 -0.0997325 -0.3300516 -0.1679205
0.12767231 -0.1589424 -0.10153304 -0.12619625 -0.0018665764 -0.114691414 -0.046698075 0.18044801
0.0006453007 -0.49457502 -0.0044858074 -0.2941033 0.44616812 -0.28635368 -0.018317768 -0.17347641

bias f4 [64]
00000000: 3f6c a8bd 2556 abbd f8fe 6ebe 1c28 98bc
00000010: fab1 b6bd d91b 753c a7bf 00bd b74e c5bc
00000020: dd73 503c aebd 88bd 2d9c 71be 2be4 15be
00000030: 7965 cdbc 14bc a33d 3e74 8bbe 2e66 2bbe
00000040: 844b 8bbd f3b2 ebbd ff34 6b3d 4019 79bd
00000050: 00d5 303d 4123 9ebd 471d 00be 37ad 59bc
00000060: 83dd 1bbb 5f9d 25be ac9a 93bd 60ab 083d
00000070: e602 e9bd 07ab e2bd 2f60 d7bd e060 f7bd
00000080: 8125 613e d216 a8be 5fe5 16be 50e6 ddbd
00000090: 9691 4fbc 6e7a 57be 661a af3d 2a31 35bd
000000a0: 61ec 603c 947a 1ebe b022 59be 754d 37be
000000b0: 1ad3 16be 6233 123c a945 ed3d 8f48 72bd
000000c0: 1acd 3cbe 087f 10be d175 0cbe 7b36 c6bd
000000d0: b147 5ebe 046d 69be 340a 5abd efa8 cc3d
000000e0: 2ea0 59bd c93c 5fbe 897f 7abe 3bd1 37bd
000000f0: 0d16 8d3d 72ed 33bd 242c 853d 5178 033e
-0.08223771 -0.0836604 -0.2333945 -0.018573813 -0.08920665 0.014960253 -0.031432774 -0.024085386
0.012722936 -0.066768035 -0.23594733 -0.1463782 -0.0250728 0.079948574 -0.27237123 -0.16738197
-0.06801513 -0.11508741 0.057423588 -0.060815096 0.043171883 -0.07721568 -0.12511168 -0.013285927
-0.0023783154 -0.16173314 -0.07207236 0.03336656 -0.11377506 -0.11067777 -0.105163924 -0.12079024
0.21986963 -0.3282991 -0.14735936 -0.10834944 -0.012668988 -0.21042797 0.08549957 -0.04423634
0.013728232 -0.15476447 -0.21204638 -0.17900641 -0.14728966 0.008923383 0.11585552 -0.05915123
-0.18437615 -0.14110959 -0.13716818 -0.0967836 -0.21707036 -0.22795492 -0.053232387 0.09993159
-0.053131275 -0.21800531 -0.24462713 -0.044877272 0.068889715 -0.043927617 0.0650256 0.12838866

weight f4 [64, 64]
00000000: 3372 103d b819 663d e4c4 fbbd 82a8 0f3e
00000010: 074b 67bd c973 4bbe 88b3 f1bd 3933 c23d
00000020: bdfc e4bb a60e 45bc 5c50 2fbe e4d5 2dbd
00000030: 723f 3cbd ad36 babd daae 783c a4c3 b43c
00000040: 6095 673c e7fd a43b b235 d03c 1d7d 54be
00000050: abbf 513b 9dd3 233c e263 27be 9b8b b13c
00000060: 92db 87bd f4bb 883d 2c53 88bd 474a 28bd
00000070: 21c2 083e 2f6c 8fbd 1280 8a3c 7282 943d
00000080: 1873 3dbd 6398 0e3e 98df 6c3c e1e4 c0bd
00000090: 9e7f 323d 9ccb ec3d c1e3 b8bd d550 7cbd
000000a0: 639b 223e 3284 74bd 0828 4f3d f076 80bd
000000b0: 8558 633d 9513 db3d d7bf a1bc 6e7d f6bd
000000c0: 2474 c3bc c343 e93c d5ae 9bbd 73f9 f5bd
000000d0: 202d 873d c644 a93d c28a 89bd 8b0e 37be
000000e0: 19bf 07be 41f7 053e c5ef 803d c90e 333e
000000f0: b5b2 8fbd 5271 b93c 3d69 e23d 4719 703c
00000100: 1299 a8bd 1971 343e 5745 d13d 7e0a 2a3b
00000110: d947 cf3d a802 503e bb57 ab3d 0f50 973c
00000120: 7041 553d ad74 f33d fc4e 923e 2235 923d
00000130: bedd b33d 8883 2ebe ad47 4b3e a685 38bd
00000140: 5f64 bb3d b5aa fb3d c69c e3bc 833e 40be
00000150: 1014 a9bc 8211 7d3d 53d1 07be 14e5 483b
00000160: 4134 783e 6980 f4bc aa62 cc3d b4c0 463c
00000170: 4a1f fc3d e45a 4abe c015 99bc 42b1 8c3d
00000180: f371 57bb 01b6 7a3e 7138 2d3e db13 86be
00000190: 468d 6e3d 0f18 5d3e c748 2a3d fb0b 42be
000001a0: ed0c 61bc 54ec 91bd accb d23d 0658 c93d
000001b0: af67 2a3e d486 f63d ceed 03be 34b5 acbd
000001c0: f4f2 eabd 27b9 b0bd 2690 4a3e 7ef3 80bc
000001d0: 7acc 6e3e 4533 293d 6064 8bbe 8b39 9ebc
000001e0: bf28 c23c c5dc 943d 55bf d33d 9b57 b2bd
000001f0: 03e2 0abd 5f52 973c 2920 8dbc 0f17 7a3d
00000200: 5637 bd3d fc1a 3f3d 5fdd 4cbe 29a5 be3d
00000210: 1f8e 09bd 7f4b f73c dc83 21be 65c7 14bd
00000220: 36da 97bd a78d 1d3e f483 19be aa0a 853d
00000230: 7985 83be 4ef0 43be 9bb3 47bc 0cde 563d
00000240: ad2a 523b 6455 1cbe 62fc c0bd c0c2 babe
00000250: 4e86 babd 1b29 10be 07f3 c3bd 8f34 dcbd
00000260: 9b19 2c3e ca45 f2bd dc08 6ebe ecc1 c7bc
00000270: 41af fbbd 89b5 20be 6874 1a3c 1d3f c23d
00000280: 817d 8b3e 3a9c a9bd 8665 253d 6198 22be
00000290: 47b4 d33b fc53 e9bb 3412 14be 66c8 383d
000002a0: af20 cbbd 6037 86be 4b21 64bc 4291 523c
000002b0: 3c66 89bc 6dab c4bc 89c6 1bbe 190c ac3c
000002c0: 24ed c13c 0e2f fdbd d2f1 67bd 7411 213e
000002d0: 8e7d 103e c454 02bd e5ab 663e 525f 7bbe
000002e0: 793b 73be 5408 52be 7ae3 5c3e 5bab c63d
000002f0: 525b b73e c9ef 1f3e 5edb 07be 6b16 e7bd
00000300: f211 c8ba 91b8 943a bd45 443d 7a7d bfbd
00000310: 76a9 ae3d ab4a 8a3d bc97 5f3d fef3 06bd
00000320: a90b ab3d c58f b8bc 82c8 98bd 6528 1dbe
00000330: e7e8 443d 71c1 94bd 6760 5f3c 9a13 36bd
00000340: e88c de3d 8be1 763d 5648 103c 63e7 0cbd
00000350: 8706 de3c e1d7 2a3d 0fa1 6e3d 38e9 03bd
00000360: dbe3 8ebd 403a 673d 5ce2 8cbc 7b13 8cbd
00000370: e820 bcbc 16ed 153e bf31 343d 9fee cfbc
00000380: dc99 ef3d 9f3a a03d 57f7 923d 91de f5bd
00000390: f1b3 92be fcd1 82be 0cde ff3d 90c7 c8be
000003a0: 6df5 47bc 1951 8abd 9705 4cbe d0d4 5f3d
000003b0: 81d3 dd3d 024e b13c 79b8 f33d 35c7 fabc
000003c0: 7b2a 47bd 608c 093e 6e99 673d bed6 13be
000003d0: bce0 0dbd b6a1 c73c 422d 6e3c 1982 853e
000003e0: 679d 6f3d bcc5 64bd 6e4d 52be d3ab c3bd
000003f0: 58de 3dbe 86b8 d4bd 60f1 0cbd 78ff 0a3d
0.03526516 0.05617687 -0.12293413 0.14029124 -0.056468036 -0.19868387 -0.11801821 0.09482426
-0.0069881366 -0.012027418 -0.17120498 -0.04244031 -0.045958944 -0.0909246 0.015178407 0.022065945
0.014134735 0.0050351503 0.025416229 -0.20750852 0.0032005112 0.009999183 -0.16346696 0.021673014
-0.066336766 0.06676474 -0.06656489 -0.04108646 0.13355304 -0.07003056 0.016906772 0.07251443
-0.04625234 0.13925318 0.014457606 -0.09418655 0.043578736 0.11562273 -0.090278156 -0.061600525
0.15879588 -0.059696384 0.050575286 -0.062726855 0.05550434 0.10697094 -0.019744797 -0.120356426
-0.023859091 0.028474694 -0.07601706 -0.12010469 0.06600404 0.082650706 -0.06715919 -0.17876641
-0.13256492 0.13082601 0.062957324 0.17486109 -0.070165075 0.022637043 0.11055229 0.014654464
-0.08232321 0.17621268 0.10218304 0.0025946195 0.10121126 0.20313513 0.08366343 0.018470792
0.05206436 0.118874885 0.28575885 0.071390405 0.08782528 -0.17042363 0.19851561 -0.045049332
0.09150004 0.12288419 -0.027784716 -0.18773846 -0.02063945 0.061784275 -0.13263445 0.003065412
0.24238683 -0.029846387 0.09979756 0.012130905 0.123106554 -0.19761235 -0.018687129 0.06869747
-0.0032874316 0.24483491 0.16916062 -0.26187024 0.058240198 0.21591209 0.041573312 -0.18949883
-0.013735992 -0.07125154 0.102927536 0.09831242 0.16641115 0.12037435 -0.12883684 -0.08432999
-0.11472121 -0.08629065 0.19781551 -0.015741106 0.23320189 0.04130866 -0.27225018 -0.019314548
0.02370107 0.07268671 0.10339228 -0.08708116 -0.033906948 0.018471895 -0.01722725 0.061057147
0.0923907 0.046656594 -0.20006321 0.093088455 -0.033582803 0.030187367 -0.15772957 -0.03632297
-0.07414667 0.15386067 -0.14991742 0.06496175 -0.2568777 -0.19134638 -0.012188817 0.052457854
0.0032068894 -0.15266949 -0.09423138 -0.36476707 -0.09107648 -0.1407818 -0.09567838 -0.10752212
0.16806643 -0.118297175 -0.23245567 -0.024384461 -0.122892864 -0.1569425 0.0094271675 0.09484694
0.2724419 -0.08281751 0.040380023 -0.1587844 0.0064606997 -0.0071206074 -0.14460069 0.04511299
-0.09918343 -0.26214123 -0.013923953 0.012852015 -0.016772382 -0.024007523 -0.15212454 0.021001862
0.023672648 -0.123624906 -0.056627102 0.15729314 0.14110395 -0.03181912 0.2252651 -0.2454808
-0.23753156 -0.2051099 0.2157115 0.09700652 0.3581186 0.15618815 -0.13267276 -0.11283573
-0.0015264137 0.0011346509 0.04791807 -0.09350105 0.08528416 0.06752523 0.054588065 -0.032947533
0.083518334 -0.022529492 -0.07460119 -0.1534744 0.048073675 -0.072634585 0.013633824 -0.044452287
0.108667195 0.06027369 0.008806309 -0.034400355 0.027102722 0.041709784 0.058259066 -0.032204837
-0.06977054 0.056452036 -0.01719778 -0.06839653 -0.02296491 0.14641222 0.043992754 -0.025382338
0.11699268 0.07823681 0.071760826 -0.12005342 -0.2865291 -0.2555083 0.12493524 -0.39214754
-0.01220451 -0.067537494 -0.19924007 0.054646313 0.10831357 0.021643642 0.1190042 -0.030612567
-0.048624497 0.13432455 0.056542806 -0.14437386 -0.03463815 0.024369102 0.0145371575 0.2607582
0.05849972 -0.055852637 -0.2053735 -0.09554257 -0.18541849 -0.103867576 -0.03440988 0.03393504

bias f4 [64]
00000000: 5035 0ebe fb8d 28be aa7c 35bd 4a03 853d
00000010: f4fa 7cbe 2b0c 803c 69c0 d03d 884e 953d
00000020: a6e0 4fbe 9cbd 2d3e 2a3a 15be 2186 493e
00000030: 973b e13d dbfc 2ebd 72d1 9dbd 63b1 23be
00000040: 4f19 d0bd cb52 efba 1e9a b0be 1c19 593c
00000050: 4ab5 243d b158 adbd 3d29 9ebe d335 86bd
00000060: c0b0 273d ccfa a33b 4256 8ebe ee24 d33c
00000070: 72b3 4cbe 72e7 0bbd ce73 9f3c a8af 25bc
00000080: 24ba 16bd 4426 b1bd 5ec8 113e 4e9d bd3c
00000090: ca00 453d c9f6 efbd 4e87 44be a5e7 19be
000000a0: 7abb 7ebe 4d04 e83c 741a fa3c 3e1b 6abe
000000b0: abc8 5ebe 1f37 30bd 57bb 56be 2056 8e3e
000000c0: 7142 72be f02c 9dbb 5f5a 8cbe b246 d4bd
000000d0: ff2d 82be 7612 d8bd 098d a9bd 7f07 4c3c
000000e0: ddbd f1bb 03fe 513c 06c7 a83d 566a 27be
000000f0: 0de5 2ebe 8639 36bd 159f a2be 99c6 55bc
-0.13887525 -0.16460411 -0.044308342 0.06494768 -0.24705106 0.015630802 0.10192949 0.07290369
-0.2030054 0.16966861 -0.14572969 0.19680072 0.10997694 -0.04272161 -0.07705964 -0.15985636
-0.10161077 -0.0018258927 -0.34492582 0.013250615 0.040211953 -0.08464182 -0.30890837 -0.06553235
0.040940046 0.0050042626 -0.27800184 0.025774445 -0.19990328 -0.03415627 0.0194644 -0.0101126805
-0.03679861 -0.08649877 0.1423659 0.023146298 0.048096456 -0.117169924 -0.1919224 -0.15029772
-0.24876204 0.028322363 0.030530192 -0.22861955 -0.21756236 -0.043021318 -0.20969902 0.27800083
-0.23658158 -0.0047966167 -0.27412698 -0.103650466 -0.25425717 -0.10550396 -0.082788534 0.012452959
-0.00737737 0.012816909 0.08241086 -0.16349158 -0.17079563 -0.044488452 -0.31761995 -0.013047838

weight f4 [8, 64]
00000000: dba0 e73c 95d4 86bc 14af fabd fd76 1ebd
00000010: 6ea1 03be 89ef 653c dc1f 33bd ca96 e1bd
00000020: 492b 2c3e 7e09 d6ba 32a2 a5bd 5dc2 f4bd
00000030: 453f d4bc d172 8fbb 23b1 153d e13c 0fbc
00000040: d250 7f3c d5e1 85bd a3b4 ae3d 6e87 47bd
00000050: d5ae babd 4193 2cbd 008a bc3d 8060 033e
00000060: 87a8 bcbd ec12 0fbd 9318 443d af19 38bc
00000070: 1832 c93d 7b76 8abc 1f68 863d 96fe 0ebe
00000080: e199 e63a 07c7 2bbd 528f a6bc 9e26 57bd
00000090: b285 2bbd e6ff 8c3d 09b3 08bc a92c b4b9
000000a0: 5c75 e3bb 8d96 d8bd 2fec 7fbe 7df7 f53d
000000b0: 759d 0ebe 3206 8d3c 0c89 063e a147 2ebd
000000c0: 82a6 6c3e f623 a7bd 8c69 b93c a557 cd3c
000000d0: e50b 8f3b 322a c2bd f889 9b3c 86f0 cdbb
000000e0: 1876 3c3e 19cb c6bd 53a1 87bd 4b2f c1bd
000000f0: 91bd 9c3d d5e5 e1bd f942 143e 1bd3 8cbd
00000100: 8862 74bd 5940 5abd 1e8f 483d 517c af3d
00000110: 0c9e 9a3c c0a8 f53b 1d6f f83c b449 9cbd
00000120: 50cd 1fbe 83c0 0c3d 464d cbbc c74f aa3d
00000130: 52da 703d 6e0d 87bb 1d76 723b e432 73bd
00000140: 547d 3c3c 4b5b 2c3a 3f80 fabd 64ef b4bc
00000150: fa25 3c3d 0ca1 babd 070a 39bd 66a2 183e
00000160: 5206 bd39 403e 02bc 68f4 d8bd 2185 5c3c
00000170: 02ef a6bd 4a48 bc3c ef0d 3e3d f3f4 91bd
00000180: 7ed3 39bc ba3e 4bbd 5f8d fa3a 797b 1e3d
00000190: 2539 30bd b9b0 983d 20c5 efbe 6f69 0e3d
000001a0: 7562 dabd 2fdc e7bc 7a20 36ba 34de ffbd
000001b0: 9056 b3bd 73fd 34bd 488d 3bbc 17b1 e73d
000001c0: ead0 76bc f26e 96bd 2135 a1bd abb5 bfbc
000001d0: c3c0 3fbd 5f45 06be f9a3 983c 4e58 243c
000001e0: 4776 583c c594 55bd ead0 013d 9a4b cabd
000001f0: 4e9f 45be fbe5 223e 50a0 723d 4fa1 6c3e
00000200: 5244 a43d ec12 6ebc f739 9b3d b140 763d
00000210: 9cd6 0a3c a9ef 05bb 8e9c d63a 2055 9d3d
00000220: 4b06 93bc 604e 863d 6970 00be 5ec7 b5bd
00000230: 95ac d5bd a6c0 f9bb 7191 e33c a6fe ddbd
00000240: c919 29bc a248 7abd fa91 b83c 62eb a8bc
00000250: bd0d 673c d64d ee3b 9ffb 76bd a3c2 02bd
00000260: fcb5 74bd 5fed 4d3c add4 a9bd 09aa fabc
00000270: c673 8cbd eef8 b5bd a0b5 bc3d 9164 82bd
00000280: 4b16 d43d 8e3c 1f3d 4cd8 e9bd b6b4 f93b
00000290: 63cf c03c c5e8 6fbd 7e3a 103d 6d85 c8bc
000002a0: 8a51 9bbd 2e4c 73bd aea4 30be 6c65 653e
000002b0: 8290 e13d f85a 94bd 2ab3 d23b 2a8a c83b
000002c0: 5c43 f93d 1ccd 77bd dcab 473d f7c0 a2bb
000002d0: f67c 663d 44b4 133e 071b 0fbd e81e 3bbd
000002e0: 0383 cc3c d7ff 213c c487 1ebd 092a de3c
000002f0: 881b a5bd 9893 903d de2b 1c3d f7e4 113e
00000300: ffa9 6f3d 1307 22be 4326 f43c 3def 813d
00000310: 7c29 073d 1564 923c 8f0a 99bc 94c7 5d3c
00000320: 909e 59bd d25d 87bc a333 85bd 8d5e b1bd
00000330: e721 4a3d 8ef3 1a3d 7eca 94bd 3ae0 9abd
00000340: 9440 03bd 43a6 81bd a4f0 ecbd 08dc 473c
00000350: 5139 bdbc b2e7 8a3d b4db b13d 356d 95bc
00000360: 8828 093c 2f4b 7e3d 21cf eebc 136d 6bbd
00000370: 474c 413d 2ada b6bc 4ef2 93bd ac78 0c3d
00000380: e463 f1bd 63d7 70bd ac9e 633c 26af 023e
00000390: 6de2 d1bc 5abc f1bb f2c7 2a3d 93bb 21bd
000003a0: fcbc 4e3d 2225 003d e7f1 2bbe b4a7 e2bc
000003b0: f530 aebd 12a1 cdba e6fc 163d 25b7 09be
000003c0: a6e4 ae3c aee0 bbbb 70ef 643c 876b 34bd
000003d0: 2488 d33c 2c2a 16bd 0b98 1b3d 39ae a83c
000003e0: f038 673d 8147 bebd 5818 c23c d540 0ebb
000003f0: 8d14 24bd 17a8 3e3a 79f1 e53c 9ff7 bf3d
0.028274944 -0.016458789 -0.12240425 -0.038687695 -0.1285455 0.01403416 -0.043731555 -0.11015089
0.16813387 -0.0016329733 -0.08087577 -0.11951134 -0.025909076 -0.004377701 0.036545884 -0.008742542
0.015583234 -0.06537215 0.085305475 -0.04871314 -0.09115378 -0.04213262 0.09206009 0.1282978
-0.092118315 -0.034930155 0.047875 -0.011236592 0.09824008 -0.016902199 0.06562828 -0.13964304
0.0017593467 -0.041937854 -0.020332012 -0.052527063 -0.04187555 0.06884746 -0.008343467 -0.0003436555
-0.0069414806 -0.1057559 -0.2499244 0.12010095 -0.13927253 0.017214868 0.13138217 -0.04254878
0.23110393 -0.08161156 0.022633336 0.025066206 0.0043654316 -0.09480704 0.018986687 -0.006284776
0.18404424 -0.097067066 -0.06622567 -0.094328485 0.076533444 -0.11030165 0.14478673 -0.06876203
-0.05966428 -0.053284023 0.048964612 0.08568633 0.01887419 0.007496923 0.03032642 -0.07631245
-0.15605664 0.03436328 -0.02481712 0.083159976 0.058801956 -0.004121474 0.003699667 -0.059374705
0.01150449 0.0006574883 -0.12231492 -0.022086807 0.045934655 -0.091127485 -0.04517558 0.149057
0.00036053598 -0.007949412 -0.10593492 0.013459475 -0.08151056 0.022983689 0.046400007 -0.071267985
-0.011341928 -0.049620368 0.0019115618 0.03869197 -0.043023247 0.07455582 -0.46830082 0.034768518
-0.106633104 -0.028303234 -0.00069475884 -0.12493554 -0.08756745 -0.04418702 -0.011447258 0.11313074
-0.015064457 -0.0734538 -0.07871462 -0.023402056 -0.04681469 -0.131124 0.018632876 0.010030819
0.013211793 -0.05214383 0.031693377 -0.09877701 -0.19299051 0.15908043 0.059234917 0.2310841
0.080208436 -0.0145308785 0.07579415 0.06012029 0.008474018 -0.0020437038 0.0016373561 0.07682252
-0.017947337 0.065579176 -0.12542881 -0.08875917 -0.10433308 -0.0076218424 0.027779313 -0.10839586
-0.010321089 -0.061104424 0.022530545 -0.020620052 0.014102397 0.0072724624 -0.06029856 -0.0319239
-0.059743866 0.012568801 -0.08292518 -0.030598657 -0.068580195 -0.0888537 0.0921433 -0.06366838
0.103558145 0.03887611 -0.114182085 0.0076204194 0.02353639 -0.058571596 0.035212032 -0.024477685
-0.07583912 -0.059398822 -0.1725032 0.2240197 0.11013891 -0.072439134 0.0064300494 0.006119986
0.12171051 -0.060498342 0.048747882 -0.004966851 0.056271516 0.14424235 -0.034937885 -0.04568377
0.024964815 0.009887657 -0.038703695 0.027119653 -0.08061892 0.07059401 0.038127773 0.142475
0.05851173 -0.15823011 0.0298034 0.06344459 0.032998547 0.017869988 -0.018681793 0.013536353
-0.053129733 -0.01652423 -0.065039895 -0.08660612 0.049348738 0.037829928 -0.07265185 -0.07562299
-0.03204401 -0.0633054 -0.11569336 0.012198456 -0.02309862 0.067824736 0.08684483 -0.01824055
0.00837148 0.06208342 -0.029151501 -0.05747707 0.047191884 -0.022320826 -0.0722395 0.03429477
-0.11786631 -0.05879916 0.013892811 0.12762126 -0.025620664 -0.0073771896 0.04169459 -0.039485525
0.0504732 0.031285413 -0.16791497 -0.027667858 -0.085054316 -0.0015688261 0.036862276 -0.1344877
0.021349262 -0.005733571 0.013973102 -0.04404786 0.025821753 -0.036661312 0.037986796 0.020590888
0.056450784 -0.09290982 0.023693249 -0.0021706123 -0.04005866 0.0007272972 0.028069245 0.09373402

bias f4 [8]
00000000: e3d8 3b3c 8fb7 c43d 7fef b9bc c43c 5e3d
00000010: 1dae 983d 6570 9e3e 1990 473b d830 92be
0.011465284 0.096053235 -0.022697208 0.05425717 0.074550845 0.30945125 0.003045088 -0.2855289
