sim2real/policies/no_gripper/policy.pt (torch, 36402 bytes, 6 tensors)

weight f4 [64, 28]
000000 92 2c 9a bb 9e 7d 71 3f 0c 2e 86 be 98 3b 94 3e
       -0.00470502 0.943323 -0.26207006 0.28951716
000010 7f 4a 21 bd 5b 86 02 3e b4 0d 03 be ee d9 fa 3c
       -0.039377686 0.12746565 -0.12798196 0.030621495
000020 ea d0 7c 3e 4a 77 ff bd aa 5b 12 3f db ea 88 3d
       0.2468907 -0.124739245 0.5717112 0.0668542
000030 92 0f 20 3e 92 43 a3 3c d8 8c 1f be ef c9 7e bc
       0.1563094 0.019929681 -0.15581071 -0.015551074
000040 e0 7d 4f 3f d8 49 f7 3c 4f 56 1a bd 29 c1 d1 bd
       0.81051445 0.030186579 -0.037679967 -0.102419205
000050 62 78 b1 bd 6f b4 af bd be c9 38 3c ed cc 5d 3e
       -0.08665539 -0.08579337 0.011278568 0.21660204
000060 c0 ea 12 3d c6 df 1c bd 1f e1 3a bb f3 a3 ee bc
       0.035868406 -0.038299344 -0.002851553 -0.029130911
000070 3d 7e c5 3e 88 e0 55 bf 69 f0 d3 3e ff 84 dc be
       0.38572875 -0.8354573 0.41394356 -0.43070218
000080 fe be 81 bd 97 06 5b 3e 66 f8 14 bc 9e 35 96 3d
       -0.06335257 0.21389233 -0.009092426 0.073344454
000090 0c 57 0b 3e a2 5d 7c 3d a2 8b bb 3c 69 88 08 be
       0.13607424 0.061612733 0.02289373 -0.13333286
0000a0 59 cc 4b 3e 9d cf 0f bd cf 1e 83 3e 59 9d 90 3f
       0.19902171 -0.035110105 0.25609443 1.1298019
0000b0 54 56 7a bf b4 ef ae bd 22 78 b6 bd 72 99 06 3e
       -0.97787976 -0.085418135 -0.08909632 0.13144472
0000c0 e9 46 c0 3d 4f 71 e4 bd ce ae 2b be 2f a0 2b be
       0.09388525 -0.111544244 -0.16765901 -0.16760324
0000d0 7a 6f 94 be 6f 2d b5 3d 87 12 0e 3d ed b2 95 3c
       -0.289913 0.088465564 0.034685638 0.018273795
0000e0 39 6a 95 3e 3e 87 af 3e d5 47 85 bd 80 39 e1 be
       0.29182604 0.3428287 -0.065078415 -0.43989182
0000f0 bb fd 9e bc 8d 3c 79 be f7 a9 4c be a1 5c 9a be
       -0.019408097 -0.24339505 -0.19986711 -0.30148795
000100 41 4e e5 3b f6 20 89 bd 08 08 75 3e 20 96 94 bd
       0.006997854 -0.0669574 0.23928845 -0.072551966
000110 fd b9 39 bc 04 59 a9 3a 0f 4c 29 3e 14 b0 f3 3e
       -0.011335847 0.0012920205 0.1653292 0.47595274
000120 7c 71 97 3e 8c 22 1b be 40 81 39 bf 3a d1 1b bf
       0.2957877 -0.15149897 -0.72462845 -0.6086613
000130 3d 0c 08 be d2 de 0b 3c d3 2d 8e 3d 23 02 2b 3e
       -0.13285919 0.008537011 0.06942334 0.16700034
000140 d1 93 19 3e 29 40 99 bd 48 2d 18 3e 5f 77 fa bb
       0.14997794 -0.07482941 0.14861023 -0.0076436247
000150 cb 11 0b bf e5 49 b2 be ef de d4 be d4 4a 82 bf
       -0.54324025 -0.34822002 -0.41576335 -1.0179086
000160 be 54 bb be 47 3b 36 3a 62 7c 79 3d 71 1b 5a 3d
       -0.3658809 0.0006951582 0.060909636 0.053248826
000170 6e 66 14 bb a7 8e f8 3d 18 39 5d be f6 c1 25 bd
       -0.002264406 0.12136584 -0.21603811 -0.04046818
000180 94 f4 d5 bd 16 04 21 3d 4c de 06 bd 5d 6d 7d bf
       -0.1044704 0.039310537 -0.032926843 -0.98995
000190 95 16 72 bf c1 25 49 3d 44 ec 08 be b9 61 9c be
       -0.9456571 0.04910827 -0.13371378 -0.30543306
0001a0 30 74 29 3b 69 74 a5 bd f0 dd 31 be c2 29 11 be
       0.0025856607 -0.08078844 -0.17369819 -0.14176086
0001b0 c0 a3 3a bd 62 d5 02 be e5 c9 82 3d 1a 77 6b 3d
       -0.04556632 -0.12776712 0.063861646 0.05748663
0001c0 11 31 23 bd f3 1e a2 be f3 67 bd be db 6f 9f 3e
       -0.039841715 -0.31664237 -0.3699337 0.31140026
0001d0 1f 47 7b bc ac 4d 92 bd 8d 58 a1 be 7d 33 9b bd
       -0.015336781 -0.07143721 -0.3151287 -0.0757818
0001e0 e7 6e c4 3d 70 51 28 3d 54 47 15 bd b4 ec b7 3c
       0.095914654 0.04109329 -0.036444977 0.022451736
0001f0 7d 96 74 3c de f4 8e 3d 0e 75 d6 3d d8 e5 da 3e
       0.014928457 0.069802985 0.10471545 0.42753482
000200 2b f2 c0 3e 62 da 17 bd 18 51 88 3f 5b 97 7c 3e
       0.3768476 -0.0370735 1.0649748 0.24667113
000210 a3 8c 17 be 22 f0 c4 3d 2f 14 70 bc dc 34 6c 3c
       -0.14799742 0.09616114 -0.01465325 0.0144168995
000220 d5 d0 32 be ba 19 73 be 91 d0 a6 3d 21 34 22 bd
       -0.17462476 -0.23740283 0.0814525 -0.039600495
000230 e8 f9 9a bd 53 fd 44 3d d8 eb a9 3e b2 82 56 be
       -0.07567197 0.04809315 0.33187747 -0.20948294
000240 0f 68 99 bd cf 15 42 3e 76 7b bd 3e 41 e1 51 3e
       -0.07490551 0.18953632 0.37008256 0.20496084
000250 bd 47 bc 3c fa e4 a7 3d 2d 72 06 bc c9 ed 3b bc
       0.022983426 0.08197971 -0.008205933 -0.011470267
000260 ad 79 3c bb 15 14 6c be 71 69 5f 3e 96 24 9f be
       -0.0028759048 -0.23054536 0.21817566 -0.310826
000270 24 09 de be a1 ab 8d 3d 03 e7 bd 3e d6 0d 05 bf
       -0.4336635 0.06917501 0.3709031 -0.51974237
000280 e2 4c 31 3e 7b 20 3c 3c 01 09 73 3c 84 ce d3 3d
       0.17314485 0.011482353 0.01483369 0.10342124
000290 28 2a 10 3c 75 dd 99 3c 6e c6 55 bd 95 0c 6b 3e
       0.008799113 0.018782357 -0.05219119 0.22954018
0002a0 d9 e1 ba 3e e0 23 05 be b3 fa a2 3e 26 c3 b4 be
       0.36500433 -0.13001966 0.31831893 -0.35305136
0002b0 40 2c 9c 3e 86 45 51 bd 57 ac 9b be 99 f0 6f 3d
       0.3050251 -0.051091693 -0.30404922 0.05857906
0002c0 6d 29 66 bd 92 46 56 3d d1 97 6f be 12 df 55 be
       -0.05619185 0.052313395 -0.23397757 -0.20885876
0002d0 da 33 c6 bd e0 2e 81 3d aa ec e0 bd 0e c1 d7 3f
       -0.09677859 0.06307769 -0.1098264 1.6855791
0002e0 3f 7c 07 bd d6 57 ce 3d 0a 16 d0 3e 6f ac ba be
       -0.033077475 0.10075347 0.40641814 -0.3645968
0002f0 d6 4a 46 bd 07 82 58 3d 8c de 48 3e 3e da 2d be
       -0.048411213 0.05285838 0.19616145 -0.16977784
000300 83 c6 89 3e bb e7 71 3e 53 6b 8f bd af 9d 6c be
       0.26909265 0.23623554 -0.07002892 -0.23107027
000310 f6 e3 f6 3e 77 76 01 3f 73 ac 17 3e f2 74 14 be
       0.48220795 0.5057139 0.14811878 -0.14497736
000320 27 fb b8 bd 93 af 0c be ea 44 2a 3b aa 84 34 3e
       -0.090322785 -0.13738851 0.0025981017 0.17628732
000330 55 97 0b bd 3b 8c 10 bd e2 fe 2b be 32 01 da bd
       -0.03407987 -0.035289984 -0.16796449 -0.10644759
000340 37 db 32 3d e5 04 2a bd 94 48 6b be 94 ef 0c 40
       0.04366609 -0.041508574 -0.22976905 2.2021227
000350 e1 8d c3 be bd da e9 bd da c3 a0 3e 19 06 fe 3d
       -0.38194183 -0.11418674 0.31399423 0.12403507
000360 12 64 e9 3c 08 fe f4 bd 17 74 29 3e 13 63 b3 bd
       0.0284901 -0.11962515 0.16548191 -0.08759131
000370 53 19 55 be 6e ab 62 3e 51 b0 05 bd 71 47 45 be
       -0.20810442 0.22135708 -0.03263885 -0.19265534
000380 4f 1c 08 bf 4e ba 5c 3f 79 f8 92 be 3a 3a 07 3f
       -0.53168195 0.8622178 -0.28705195 0.5282322
000390 5d f7 7d be 96 7c 3d be c4 db de bd d2 c2 5c 3d
       -0.24801393 -0.18504557 -0.10881761 0.053896733
0003a0 92 d6 21 3e 61 f4 65 3d 4a 16 01 3f 20 29 4d bc
       0.15804508 0.05614126 0.50424635 -0.012522012
0003b0 36 94 26 bc 4d 10 98 bd 57 42 5a be a6 21 96 bf
       -0.010167172 -0.07424984 -0.21314369 -1.1729019
0003c0 96 10 a9 3f 2e 68 ba bd 44 04 4d be 8a e8 ca bd
       1.3208187 -0.09101902 -0.20021158 -0.099076346
0003d0 57 86 12 bd 5f 1a d1 bc 23 31 bc 3d 00 2a 62 bc
       -0.035772648 -0.02552527 0.091890596 -0.013803959
0003e0 c2 f3 6c bd d9 1c 8a 3d 83 da 8e bc 3c 4a d4 bc
       -0.057849653 0.067437835 -0.017438179 -0.025914304
0003f0 aa 00 89 be 18 31 2e be 5e d9 90 3e f2 06 3d be
       -0.2675832 -0.17010915 0.28290838 -0.1845968

bias f4 [64]
000000 f8 87 ef be 37 50 81 3e d7 d6 24 be a1 c3 ca 3d
       -0.46783423 0.25256512 -0.1609758 0.099005945
000010 7a d1 da bd 47 19 1c be 42 73 2c 3e cd 12 b1 bc
       -0.10684486 -0.15244018 0.16840842 -0.02161541
000020 95 02 17 be 02 cf ad be 77 74 a2 3e 80 0f 71 3c
       -0.14747079 -0.33946997 0.3172948 0.014713168
000030 68 c6 41 bd 23 4a 22 bd ac f4 c3 be 67 96 aa 3d
       -0.047308356 -0.039621484 -0.38272607 0.08329468
000040 06 e9 81 3d 2f fa 99 be cf 2c 90 bc d0 08 94 be
       0.06343274 -0.30073687 -0.017599491 -0.28912973
000050 e3 5b 32 bd c4 ba 80 3e 41 16 ad bd 88 b1 87 3e
       -0.04354466 0.2514249 -0.0845151 0.26502633
000060 81 cc 08 3e 94 68 30 ba 20 48 e1 bd 83 86 64 3e
       0.13359262 -0.00067294505 -0.11000085 0.22316937
000070 29 24 40 be 81 46 13 3e 9d aa 65 3c e4 00 72 be
       -0.18763794 0.14382364 0.014017728 -0.23633152
000080 d9 21 50 3d 38 ce 37 be cc 21 47 3e 15 c9 6a be
       0.05081353 -0.1794976 0.19446486 -0.22928269
000090 8b 8a 06 be 01 12 0a 3e 95 4d 24 be fa e3 93 3d
       -0.13138787 0.1348343 -0.1604522 0.072212175
0000a0 32 8a 37 be 4f 94 d4 be bd 75 89 bd 47 66 8b be
       -0.17923811 -0.415194 -0.0671191 -0.2722647
0000b0 88 83 5b bd 31 88 e7 bd c9 2f bd 3d ab df 84 be
       -0.053592235 -0.11305273 0.0923763 -0.25951895
0000c0 e1 cb 9d bd 1c 11 89 be 8b 50 52 3d c0 81 82 be
       -0.077049024 -0.26770866 0.051346343 -0.25489616
0000d0 30 98 11 bf 4c 9b 41 be 16 e3 0e be 84 21 21 be
       -0.56872845 -0.18906897 -0.13953814 -0.15735441
0000e0 2a f4 00 bd 03 32 c9 be 26 05 d7 bb 11 27 51 be
       -0.031482853 -0.39295968 -0.006561893 -0.20425059
0000f0 bb 5c 0f 3c fe bf 90 3d 4f 1e 9e 3d 4f e3 18 be
       0.008750136 0.070678696 0.07720625 -0.14930461

weight f4 [64, 64]
000000 25 a1 87 bd 56 e4 51 bd 95 d9 77 be 79 8e 8f 3d
       -0.06622533 -0.05124315 -0.24204095 0.070095964
000010 66 42 9c 3c b6 95 51 be ab 2f 18 3e 4b 3b 27 3e
       0.01907463 -0.20467266 0.14861934 0.16331212
000020 22 13 43 be 66 78 00 3e e2 5b 84 bd 16 72 d1 bd
       -0.19050267 0.12545928 -0.06462838 -0.10226838
000030 cc 58 8d 3e 73 56 67 3d d6 e8 0c be 7a 34 92 3d
       0.2760681 0.05647893 -0.13760695 0.07138915
000040 21 cb d3 bd 1e bf c0 3d 08 a3 86 bc 15 ea 76 bd
       -0.10341478 0.09411453 -0.016435161 -0.06028183
000050 0f 5e 00 be d4 4e 91 bc 0c c8 bb 3d 7b 9f 53 bb
       -0.1253588 -0.017737783 0.09169015 -0.0032291103
000060 7e a1 1a 3e 63 b7 e7 bd 46 be f4 3d 68 9a a6 3c
       0.15100667 -0.11314275 0.11950354 0.020337299
000070 b3 d6 01 3e db 95 36 bd 92 e4 f6 3c 5f 63 30 be
       0.12679558 -0.044576507 0.030138288 -0.17225407
000080 00 14 e5 3d 4e 9f 9b bc 6d ee 33 3e fe f8 e6 3d
       0.11185455 -0.01899686 0.17571421 0.1127796
000090 cd 36 17 be b0 e4 b6 bd 01 30 45 be 1d f6 f5 bd
       -0.14766999 -0.089303374 -0.19256593 -0.12009833
0000a0 23 15 03 bd db b5 cd bb 06 db 40 3e 5e 65 23 bc
       -0.03200258 -0.0062777824 0.18833551 -0.009972898
0000b0 24 8e ca 3d 12 8d 35 bd c6 e3 bc bd 24 aa e0 3c
       0.098903924 -0.04432399 -0.09223132 0.02742488
0000c0 1c fd 55 bd a2 f3 67 3d 05 33 5d bd 12 66 5a bc
       -0.052243337 0.05662883 -0.054003734 -0.0133299995
0000d0 2e 85 e1 bd ec 7e 8a bc 75 63 1e 3e 77 6d 28 bd
       -0.1101173 -0.016906224 0.15467627 -0.04112002
0000e0 07 16 20 3e 52 5b 51 be 31 0a 3e be ca 08 2b 3d
       0.15633403 -0.20444992 -0.18558575 0.04175643
0000f0 2b b3 0c bd aa a7 64 bc cb 2d de 3d 08 ce 23 bd
       -0.034350555 -0.01395599 0.10848578 -0.03999141
000100 02 7e c7 bd 92 c8 c3 be ac 59 77 bd 96 a5 f6 3d
       -0.09740831 -0.3823896 -0.060388252 0.12043302
000110 6f 87 80 3d 2b 75 c3 3d f8 75 a7 bd 58 57 02 bd
       0.06275832 0.095438324 -0.08176798 -0.03182158
000120 56 27 e6 3d 8d e3 3c 3e ca 1c 26 bd a5 40 82 3d
       0.112379715 0.18446179 -0.0405548 0.06359986
000130 54 db 00 3d 6c 5f 1e 3c e0 53 af bd 22 79 20 be
       0.031459168 0.009666305 -0.0856092 -0.15671209
000140 32 25 a2 3d 04 61 34 bd e2 c1 6b 3e fc fa c0 3c
       0.07917251 -0.044037834 0.23023179 0.023557179
000150 4d b6 20 3e 92 32 29 bd 7e c5 06 3e 71 f5 5d 3e
       0.15694542 -0.041307993 0.13161275 0.2167566
000160 ec 0f 6c bd 86 04 24 3b b4 58 ab bd 89 b3 07 be
       -0.05763237 0.002502711 -0.08366528 -0.13252081
000170 be 9f b4 3d 52 db 3a be 7e 3b 43 be 1d be b0 38
       0.08819531 -0.18247727 -0.19065663 8.427745e-05
000180 82 c7 aa bd f3 59 47 bc 88 0a cc bc 3d 0e 23 3e
       -0.08338834 -0.012167442 -0.024907365 0.159234
000190 e3 9f cd 3d 86 0f 9f 3d c6 fd 2f 3e e4 88 b5 bc
       0.100402616 0.07766633 0.1718665 -0.022160001
0001a0 fa a9 de 3c 04 d7 df bd 6e c6 b6 be cc aa 2f bc
       0.02718066 -0.10929683 -0.35698265 -0.0107218735
0001b0 e7 78 1a bc 82 15 77 be d2 80 12 bd 4d 43 2b 3e
       -0.009428239 -0.24129298 -0.035767384 0.16724892
0001c0 59 55 1a bd fb 78 3d 3d 61 27 03 3e db f0 eb bd
       -0.03767905 0.046257954 0.1280799 -0.11520549
0001d0 36 2e 79 bb f0 79 04 be 66 8c 16 3d df c5 44 3d
       -0.0038021929 -0.1293714 0.036754988 0.048040267
0001e0 5c 8c b4 bd a7 c4 64 3d 43 31 17 3e c3 de 30 3b
       -0.08815834 0.055851605 0.14764886 0.0026988245
0001f0 be 19 28 bd 4f 75 83 3d 24 9b 1b 3e 14 5e e0 bb
       -0.041040175 0.06418859 0.151959 -0.0068471525
000200 64 ac d8 bc 6f 62 31 bd d4 ad 39 bb 93 2b 33 3e
       -0.02644939 -0.043306764 -0.002833237 0.17497091
000210 bf 9e 45 be ca e1 fd bd ed 79 59 3e a3 b4 71 3e
       -0.19298838 -0.123965815 0.21237917 0.23604064
000220 44 0d c0 3d bb 6a ac bc 51 66 85 bc 71 3d 16 bc
       0.0937753 -0.021046987 -0.01628414 -0.009169922
000230 97 65 33 3e 78 18 7e 3d c7 3d a9 be 05 5f 85 bd
       0.17519222 0.062035054 -0.33054945 -0.06512264
000240 41 96 04 be 28 41 5b 3d 3b 01 15 3e 63 b8 86 be
       -0.12947942 0.053528935 0.1455125 -0.2631255
000250 80 3c 06 bd 63 87 82 bd b5 80 2b 3e 66 56 7d be
       -0.03277254 -0.06373479 0.16748317 -0.2473999
000260 78 d5 4f 3d e5 1b fb bd a8 76 de ba 7e 57 2c bd
       0.05074069 -0.1226118 -0.0016972618 -0.042075627
000270 7b 41 bd bd da 00 08 be 14 90 42 be 42 ba 50 be
       -0.09241005 -0.13281575 -0.19000274 -0.20383552
000280 b0 88 3b 3e 26 e0 c4 3c 1c 79 da bd 4a b1 1e 3d
       0.18313861 0.024032664 -0.10667631 0.038743295
000290 b0 82 df bd 03 c6 34 be 90 7c af 3d 2f 3f df be
       -0.109135985 -0.1765366 0.0856868 -0.43602893
0002a0 9a 4e 24 3d 2b 51 0f be 01 25 a1 3b b5 5a 80 3c
       0.040114023 -0.13995807 0.0049177413 0.015668252
0002b0 02 cc 27 3b 1c 52 0d 3e 4a 69 55 be 75 64 20 3d
       0.0025603776 0.13800853 -0.20840946 0.039158303
0002c0 34 cf b7 be ee 1c 4d 3b b7 db bf bd 25 03 06 be
       -0.3590027 0.003129776 -0.09368079 -0.13087137
0002d0 a8 78 b3 bd 34 bf 0c be e4 1a 27 3e e0 db db 3c
       -0.08763248 -0.13744813 0.16318852 0.026838243
0002e0 73 4b 11 3e aa 45 30 be 53 ae 0c bd b8 94 0b 3e
       0.14188938 -0.17214075 -0.034345936 0.1363095
0002f0 7d 7e 13 3e 64 57 5c be a4 2f a5 3d 47 9f a6 3e
       0.1440372 -0.21517712 0.08065727 0.32543394
000300 76 fc af bc 60 eb f9 bd b7 3c 2c be e6 7f 21 3e
       -0.021482687 -0.12203097 -0.16820036 0.15771446
000310 e4 dc 92 3d 2c c6 66 bd 3d 21 42 bd 4e 8d 30 bd
       0.07171038 -0.056341335 -0.04739498 -0.04310351
000320 93 07 36 3e f6 70 86 3d 6b d1 b0 bb 5a 85 11 3d
       0.17776327 0.06564514 -0.0053960583 0.035527565
000330 03 0c 6e 3d a2 49 c5 3c 2d f9 ab 3c d4 48 ed bc
       0.058116924 0.024082962 0.02099284 -0.028965391
000340 25 a7 f7 3d 74 8d 24 bd 4b f6 81 3b 3a ba ef bd
       0.12092427 -0.040173963 0.003966128 -0.11705442
000350 a7 99 51 3d 87 89 83 36 89 d4 57 3d 0a e8 de bd
       0.051171925 3.9201145e-06 0.052692924 -0.10884102
000360 f5 26 81 3c e9 27 85 3d b0 6a 1c bd b9 59 d7 bc
       0.015765646 0.06501753 -0.038187683 -0.0262879
000370 42 8d 8b bb 7f e5 8f bc d5 32 da bc 11 a9 d1 3d
       -0.0042587826 -0.017565487 -0.026635567 0.10237325
000380 84 29 28 be eb 19 b6 3c 79 86 1a be 28 96 bd bd
       -0.16422087 0.022229156 -0.1509036 -0.09257156
000390 d8 de df bd b1 3b 3f 3d ef ab 08 be 55 32 31 be
       -0.10931176 0.046687786 -0.13346837 -0.17304356
0003a0 d4 3c e0 3d 6d 3e 20 be f8 7f 1f 3d fc 2e da 3c
       0.10949102 -0.15648814 0.0389404 0.026633732
0003b0 03 26 d6 ba 14 db 02 3d f8 56 5f be 48 2a 8f bd
       -0.0016338233 0.03194721 -0.2181052 -0.069904864
0003c0 3c 45 a1 3d 07 a0 80 be 67 d6 e6 bd 54 25 7e bd
       0.078745335 -0.2512209 -0.11271363 -0.062047318
0003d0 9a be 2d bd 68 d3 85 3d d1 c0 eb 3c ab 07 59 be
       -0.0424181 0.06534463 0.028778465 -0.21194331
0003e0 e2 a1 44 be 51 1d c7 3d 8f a9 13 3b 83 cc fe 3d
       -0.19202378 0.097223885 0.0022531485 0.12441351
0003f0 e1 dd 6d 3d 5c 8e ac bd a7 7e b5 bd 33 51 ba bd
       0.05807293 -0.084255904 -0.08862048 -0.09097519

bias f4 [64]
000000 a1 1b df 3d cb 3d f5 3d 37 aa 4e 3e 15 e5 ff bd
       0.10893942 0.11974677 0.2018212 -0.12494866
000010 1a 4c 6e be 9c ba ac bc 3f 97 9b bd 2c 53 fa 3b
       -0.23271218 -0.021085076 -0.07597207 0.0076393094
000020 40 76 c7 bd 22 7d 07 3e 05 8e fc be 2b 6e c7 be
       -0.09739351 0.13231328 -0.49327102 -0.3895124
000030 16 50 02 be ee 1b 0b bf 44 cd ae bd 91 34 f2 bc
       -0.12725863 -0.5433949 -0.08535245 -0.029566081
000040 c3 d8 aa bd 21 b6 75 bd 8b d9 fb bc 09 63 65 ba
       -0.08342125 -0.059988145 -0.030743381 -0.0008750414
000050 0d 11 b3 be 08 bb 7a 3c cd 68 3f bd 30 85 9c be
       -0.34973946 0.015303381 -0.046730805 -0.30570364
000060 bb 0e 58 bd d3 09 81 bd 06 58 d6 bd 4b df 09 bf
       -0.052748423 -0.06300702 -0.10466008 -0.53856343
000070 7f 15 0a be 59 66 1a bc d4 f1 39 3e 8e 10 55 bc
       -0.13484763 -0.009423816 0.18158656 -0.013004435
000080 eb 57 27 3d 96 b2 b3 3d 91 de ca bd 5f 39 c9 be
       0.04085533 0.08774297 -0.099057324 -0.39301583
000090 75 ec 1a bd fc 7a d4 be 99 88 f2 bd 75 37 b8 be
       -0.03782316 -0.4150008 -0.1184246 -0.3597981
0000a0 ad 64 f3 be 7c 15 0b be 63 b5 95 be 23 02 28 be
       -0.47537747 -0.13582414 -0.2923995 -0.16407065
0000b0 7e be 02 3c 13 12 03 bf 63 97 77 be c7 a0 e3 be
       0.007979987 -0.51199454 -0.24178843 -0.444586
0000c0 e2 e6 ab bd 48 95 f8 bd 00 1b 1b 3e 11 8f e3 bd
       -0.08393647 -0.12137848 0.15147018 -0.11111272
0000d0 11 5d 40 be ee df cf be d2 56 95 3d 0c 94 ed 3a
       -0.18785502 -0.40600532 0.0729195 0.0018125786
0000e0 2f 69 c8 bd 0b 29 5e bd 6b 75 99 be b4 b5 35 be
       -0.09785687 -0.05423836 -0.29972395 -0.17745095
0000f0 03 95 c0 3d 32 1c 77 be 7b f7 81 be a2 77 dd bd
       0.09403422 -0.2413185 -0.25384125 -0.10813834

weight f4 [7, 64]
000000 2e 77 29 bc ff 8d 32 bc 2d 1d 9b 3c f4 c8 74 3c
       -0.010343356 -0.010898112 0.01893481 0.014940489
000010 dd e0 f1 3d 61 dc 8e 3c 1f 68 c5 3c ec 64 65 3c
       0.118104674 0.01743907 0.0240975 0.014001112
000020 fe 7e 22 bd 97 72 1d bc 07 a5 1b be a9 8b 31 bd
       -0.03967189 -0.00960984 -0.15199672 -0.04334608
000030 04 c1 89 bd 20 75 f6 bd a4 45 19 3e 4b 83 54 3d
       -0.06726268 -0.120340586 0.14967972 0.051883023
000040 eb dc fa bd 25 74 f3 3b 7f 09 09 bd 7c 43 e5 3d
       -0.12249168 0.007429617 -0.03345632 0.11194512
000050 a5 60 11 bd 90 a0 36 3d 74 cd a5 3c 71 32 58 bd
       -0.035492558 0.044586718 0.02023957 -0.05278248
000060 46 a9 35 be 06 96 37 3d 70 8a b0 3a 00 6a d6 3d
       -0.17740354 0.044820808 0.0013468992 0.10469437
000070 d5 5b 59 3d d0 44 bd bb a3 41 49 be 7c 2b 7c 3e
       0.053066093 -0.0057760254 -0.19653945 0.24625963
000080 a3 b9 d9 3b 78 47 ae bb e7 a1 e2 3c c3 93 2c 3e
       0.006644444 -0.0053185783 0.027665092 0.16853242
000090 f2 0a 88 bb 2b ac 16 3e 6f cf 3e bc 3e a4 39 3e
       -0.0041516954 0.14714114 -0.011646136 0.1812906
0000a0 13 e4 ec 3c 41 d6 84 3e 31 ad a4 3d 73 46 03 bd
       0.028917348 0.25944713 0.08040846 -0.032049607
0000b0 0b f3 52 3e d6 f5 07 3e 55 1f 8f bc a8 7e 98 bc
       0.20600526 0.13277373 -0.017470995 -0.018615082
0000c0 10 b6 c0 ba 39 bd 43 3d 3d dc ac 3d c3 80 4e bc
       -0.0014702696 0.04778788 0.084404446 -0.012603941
0000d0 ea 47 0d be 8f e7 ab bd ce 8f 98 3d a5 4c 66 3d
       -0.13796964 -0.08393776 0.074493036 0.056225438
0000e0 11 ea 2c 3d 05 69 a1 3b cd 74 ef 3d 59 f5 97 bd
       0.04221541 0.0049258494 0.116922 -0.07419843
0000f0 d9 5b 13 be 0a b7 41 be 71 35 63 3e d4 2b bb 3d
       -0.14390506 -0.1891748 0.22188355 0.09139219
000100 ba 34 a9 3c 03 58 20 bb 95 cf 42 3d 73 26 35 bb
       0.020655025 -0.0024466522 0.047561247 -0.0027641326
000110 52 89 1b bd 0e d2 db 3d ec 9d bf 3b 68 1c 1b bd
       -0.037972756 0.10733424 0.005847683 -0.037868887
000120 7a 93 02 3e 1f c5 89 bd fd fb 80 be 14 55 1d be
       0.1275157 -0.06727051 -0.25192252 -0.15364486
000130 37 e4 d9 bc 9a 1d 64 be 2e 12 01 3c 84 bf 2a bd
       -0.02659808 -0.22276917 0.0078778695 -0.04168655
000140 43 d8 05 3e 18 91 6c 3d e2 17 84 ba cb e6 c6 bc
       0.13070779 0.05775556 -0.0010077918 -0.024279973
000150 b9 1e 96 bd 15 2a 72 3c 20 02 11 bb 0d 85 a9 bd
       -0.07330079 0.014780541 -0.002212651 -0.082773305
000160 ae 53 4e bd 56 15 89 bc 66 7c 18 bc 65 5c 1d be
       -0.050372772 -0.016733807 -0.009307003 -0.15367277
000170 df 45 d6 bc 76 7d 71 3c 02 35 7a 3d 99 9f b3 3d
       -0.026156364 0.014739385 0.06108571 0.08770675
000180 e5 cb e5 3b 86 a9 a4 3c df e5 1b bd 11 bd 33 3e
       0.0070128315 0.020100366 -0.03806102 0.17552592
000190 2a ff 7d bd 56 c4 2c bd 81 de f5 3c c5 f0 9d 3c
       -0.06201092 -0.042179428 0.030013325 0.019279847
0001a0 3c bc a7 be d3 64 c3 bc 0d 53 01 3d ea 07 5c bd
       -0.327608 -0.023851788 0.031573344 -0.053718485
0001b0 e2 b5 3b bc 10 fc e5 bc bc e2 50 bd 25 27 9a bd
       -0.011456938 -0.028074294 -0.05099748 -0.075269975
0001c0 d8 ca b2 be 2a 00 eb 3d a9 db f2 3c bf 0b 9a 3c
       -0.34920382 0.11474641 0.029645758 0.01880443
0001d0 24 3a 8e 3c 8d 2a be bd f9 cb 0f be fa 2f b3 3d
       0.017361708 -0.0928546 -0.14042653 0.08749385
0001e0 ad b5 c0 bd 7e b4 63 bc 50 32 1a be f7 8f 38 3b
       -0.09409652 -0.013898013 -0.15058255 0.0028161982
0001f0 63 92 09 3e ad 7f cd be 0e ec 9f bd f0 b2 2b bd
       0.13434748 -0.4013647 -0.07808696 -0.041918695
000200 9c f2 50 3c 0c 76 1f 3d 45 84 93 3d 3b 94 18 bd
       0.012753155 0.038930938 0.07202963 -0.03725074
000210 9d 50 53 be fd 25 08 3e 57 6e 0f bd ca 65 39 3d
       -0.2063622 0.13295741 -0.035017338 0.04526309
000220 1a 95 18 be ce ff e1 3c 84 9b b7 bc 38 11 ff 3d
       -0.14900628 0.027587797 -0.022413023 0.12454456
000230 2f a9 16 3e 32 e6 30 3e ad b6 5f 3d 91 51 fe bc
       0.14712976 0.17275313 0.054617573 -0.031044753
000240 f7 ae f0 3d 4f 7a 9b 3d 12 6e 8a 3d f0 1c 04 3d
       0.11752122 0.07591688 0.067592755 0.03225416
000250 c6 e5 f6 3c 80 17 5f bd 6b 48 ba bd 06 71 8f bc
       0.030138861 -0.05446577 -0.09095844 -0.017509948
000260 c3 98 10 3e a1 ff e6 3d e4 be e2 bd 8a 63 7a 3e
       0.14120774 0.11279226 -0.11071566 0.24452034
000270 d3 66 be bd fb d4 87 3d 4c a4 b5 3d 66 91 c5 3d
       -0.09296956 0.0663242 0.08869228 0.09646873
000280 9f a6 72 bb 59 a6 4d 3c 03 c7 b3 bc 19 24 79 bd
       -0.0037025583 0.012551867 -0.021945482 -0.06082544
000290 15 19 ab bd 6c 99 a4 bb 72 1f b6 3d 49 b6 c3 bd
       -0.083543934 -0.005023172 0.088927165 -0.095562525
0002a0 e2 9d dd bd ec f4 28 3e 70 ee 6c 3e 16 1e b5 be
       -0.108211294 0.1649968 0.23137832 -0.35374516
0002b0 94 ab a7 3d dd 68 16 3e 21 84 e1 bd a2 12 8e bd
       0.08187023 0.1468844 -0.1101153 -0.06937148
0002c0 8f 57 d7 bc ba 90 f3 bc 47 6d 0e 3d bf 1d 7f bd
       -0.026286868 -0.029732097 0.034772184 -0.062284227
0002d0 b2 a5 3b bd cd 90 18 be 1d e8 8c 3e fb 2e 7b 3d
       -0.045812316 -0.14898987 0.27520838 0.0613241
0002e0 28 84 b9 3d 02 d4 1e bd b0 9e f7 3d 1b 31 0c bd
       0.0905841 -0.038776405 0.12090814 -0.034226518
0002f0 86 be de bd b8 5b da 3d 96 f4 0a bd 29 2a d5 bc
       -0.10876183 0.10662025 -0.03392466 -0.02602108
000300 1e 04 4b bd f9 79 c0 3d 5c cd 1a 3c 22 d5 95 3d
       -0.049564473 0.093982644 0.009448376 0.073160425
000310 39 5f 24 be 72 b6 a2 3d 44 04 bb 3d 64 5a 72 bd
       -0.1605195 0.07944955 0.09131673 -0.059168234
000320 4b 2d 87 3d fe cb 60 bd a7 4f 2e be e8 b0 57 be
       0.06600436 -0.054882042 -0.17022572 -0.21063578
000330 01 40 b7 bd d4 4c 50 3c f1 db d8 3d 29 1f e8 bd
       -0.08947755 0.01271363 0.105888255 -0.11334068
000340 6c 41 fe bc bf f1 08 bd 94 65 76 3d 9f 13 c2 38
       -0.031037055 -0.033433672 0.060155466 9.2542956e-05
000350 b5 0e 3a 3d 1c db 46 bb 4a e3 c7 3d 3a a1 08 3e
       0.045424182 -0.0030343002 0.09760149 0.13342753
000360 88 9a 3c bd 16 10 26 be 54 4c a0 3c 6d 98 c0 3b
       -0.04604581 -0.16217074 0.019567646 0.0058775456
000370 9c 7f d8 3d 91 57 c5 bc 68 10 5b 3e 60 3d 1c 3e
       0.105712146 -0.024089606 0.21392977 0.15257788
000380 9c d4 25 3c e8 fb 0d be be ff 3e 3c 32 6f 85 bd
       0.010121491 -0.13865626 0.011657653 -0.065153494
000390 21 02 c9 3c e6 ad e4 bd 30 ce c9 3d 7f 55 c8 3b
       0.024537148 -0.11165981 0.0985378 0.0061137076
0003a0 c3 f5 d6 bd da 2f a8 3d 3c 76 d3 3d d9 fd 03 3e
       -0.10496094 0.08212252 0.10325286 0.12889804
0003b0 75 2b f2 bd a9 c9 2e 3d 87 4b eb 3d 54 e4 22 bd
       -0.11824695 0.042672787 0.11489015 -0.039768532
0003c0 55 39 bc 3d 58 84 83 3d ac 16 49 bd 57 e2 cb 3d
       0.09190623 0.06421727 -0.049093887 0.0995528
0003d0 87 fb 4e be c5 18 49 3d df ac ec 3d cb 49 89 be
       -0.20213138 0.049095888 0.1155641 -0.26814112
0003e0 ed 6f 92 3d 10 72 fb bc 63 6b 80 3d 1f ca 25 3e
       0.071502544 -0.030694038 0.062704824 0.16190384
0003f0 5e e9 82 bd a5 74 94 bc 39 38 8a bc 6e 42 2a 3c
       -0.063921675 -0.018122027 -0.016872512 0.010391815

bias f4 [7]
000000 b3 6f 5b bd 9a 95 86 3e ae 30 5d 3d 3a db a5 bd
       -0.05357332 0.26286012 0.054001503 -0.08098455
000010 2e c9 c4 bd 9e 53 f4 3e 92 7e a0 3d
       -0.096086845 0.47720045 0.07836641
