sim2real/pretrained_models/reach2/policy.pt (torch, 41010 bytes, 6 tensors)

weight f4 [64, 45]
00000000: 954e a63e 50e4 7b3e 75b1 343e 027a b13e
00000010: 1477 d33d 61a3 8ebe 90bd b0be 5b91 313c
00000020: a721 023d e646 673f c4c8 5d3e 6535 b83d
00000030: f062 3c3c 58e8 de3d e9b4 403e ad21 c1bd
00000040: eab4 7b3e ff81 8dbd ce00 0a3f 01a9 94bc
00000050: e39f 413d 44b6 77be ec38 80be e689 e5bc
00000060: 2939 c1be 39d9 22be 172d 0abe 66df 0abe
00000070: ad99 97bd 38d3 5abe 358f 583a b712 52bf
00000080: 312b 923f 8f9e c33c 5d6f 583e d50b 043e
00000090: 04a6 c53c 1cfe 0e3d 48ba 893d 0964 13be
000000a0: 7b7b e63d 763f bd3d 24d5 cb3d d07f 7c3d
000000b0: 42b4 523e 5d5a e83d 42b5 b43d f375 05be
000000c0: bf69 203f af71 bbbd 447f a5be eecb b9bd
000000d0: 71d0 37be 8546 1b3e 2653 0a3e e4fc e23d
000000e0: 7c1d 053e 55ec fc3a 3b52 0f3e b0ff 04be
000000f0: a66d 863d 12bd 69be 4c92 3e3d f183 2abf
00000100: 1fc7 cebd d5f3 7ebe 00a4 fd3d 5eac 18be
00000110: bf2d e33b 4714 e3be f653 d9bd 6a47 0b3e
00000120: 4144 2c3d 9132 06be b411 9e3c adce 2dbe
00000130: a97d 8fbf 800b 973e cf74 683d f6aa 1f3e
00000140: cdd4 0ebf 7057 cebd e1f7 dd3d d5f3 0dbf
00000150: 101d 89bc 6f09 c13d d204 fc3d e622 b3be
00000160: 972f a6bd bf80 91bd a35f 0f3d 8ea2 583f
00000170: f24b b2bb 723f 603f c20e f4be 9870 a4be
00000180: 2af1 8c3d 36fb d33b 9e0a 0fbd 9a62 483f
00000190: c634 633f 2aa5 4abc 7429 e3bd 5db0 21be
000001a0: 2676 983d c3ac 803e 1717 983d 2822 27be
000001b0: 1bda 0f3e 3be4 debd d37f 273e 08fb b7bd
000001c0: 1ec2 81bd a6e1 b2bd db33 e4be bd28 1a3e
000001d0: 9d69 7bbc 2062 edbd f104 edbd e823 a8bd
000001e0: 6e8c e2bd 66d0 e7be 5a4c 7f3e be27 cdbd
000001f0: d676 20bf 7fbd b4be 743f 65bd 0118 7fbc
00000200: 676d 373e 21d3 b1bd c477 383e a5c8 c13d
00000210: 81bc a2bc e526 7ebc 7a67 7dbd a117 2d3e
00000220: efcf c1be 6c90 133e bb4d 7bbd 7d61 913e
00000230: f309 163e 9001 903d 9a0e 243e 5286 86bd
00000240: 8221 cdbd f659 d03e a15c a23d 4a77 3a3e
00000250: 4dbb 523e 3910 4dbe e9af bdbd 3574 233e
00000260: 94de ec3c 821a ce3d 9262 373e 1649 c6bd
00000270: 11af 00bb 3e17 853d 87f3 ce3d 6a6e f6be
00000280: fc9e 0e3f 6977 003e c4d3 e6bc 1c7e 50bd
00000290: d4e5 7dba be41 5bbe 9850 98be 60f9 6a3e
000002a0: cd67 053d f1c2 55bf 48af b3bd 4465 74bc
000002b0: 499a 3c3d ea3c 19be 067d efbd 3c07 373d
000002c0: 9325 1cbe ad1f 413e bb00 653d 8f84 dcbd
000002d0: 8cc7 c3bc 8682 8b3d aa74 a83e 390a 68be
000002e0: ff8c dbbd 1250 5f3d 1f48 d0bc 1b8e a4bd
000002f0: 00e6 c0bd 17e4 39be 851e 9f3d 6423 4cbc
00000300: 585d 173d 0abd 2f3e 3878 503d 36bd 433d
00000310: 0c53 0d3d 2d37 84be 214f c03f 6f68 dd3e
00000320: a69b 903d 0099 afbc 13e5 8d3d 182b 173e
00000330: 6126 b23d ec68 88be 8020 e93c 57bd e2bd
00000340: a8d0 b13d ab88 7dbd 1595 82be 4417 863f
00000350: ad65 04bf 3dcf bdbd 7024 f8bd 36da dd3e
00000360: ddf3 ac3c 3233 f23b 4182 653d d072 bcbe
00000370: 0dba 283d 1ff6 783e 576d 1ebe 942e 16be
00000380: d8db d9bd e464 6d3e 6614 b93e 5cc7 d63d
00000390: 2a4a 083e f5e7 6dbd dcc1 59bd 219a 8d3e
000003a0: 860e debb fb40 0a3c 78af 5c3f 4b8b 9abe
000003b0: 6c47 1f3d bbe5 65be ca22 b0bd 71b2 6fbc
000003c0: 393f 50bd ced6 c73c 001c 18be 17c4 713d
000003d0: 9e73 4dbd 9dc0 86bc bf2a 9bbd de1e 9dbd
000003e0: 28d3 d13c b788 a3be 5cf9 a7be dfc0 2dbe
000003f0: 08b3 93bc 53d1 d6bd acea 9cbd c46a b6be
0.32481828 0.24598813 0.1764582 0.34663397 0.10325447 -0.27859023 -0.34519625 0.010837878
0.031770375 0.9034256 0.21658617 0.08994559 0.011498198 0.1088416 0.18819012 -0.09430251
0.24580732 -0.069095604 0.5390748 -0.018146994 0.04727162 -0.24190623 -0.25043428 -0.028019857
-0.37738922 -0.15903176 -0.13493763 -0.13561782 -0.07402358 -0.21369636 0.00082610856 -0.82059807
1.1419431 0.023879318 0.21136232 0.12895139 0.024127014 0.034910306 0.067249835 -0.14393629
0.11254021 0.0924062 0.09952763 0.06164533 0.20576575 0.113453604 0.08823635 -0.13033275
0.62661356 -0.09152543 -0.32323658 -0.090720996 -0.17950608 0.1516362 0.13508281 0.11083391
0.12999529 0.0019296507 0.13996212 -0.12988162 0.065638825 -0.22826031 0.04652624 -0.66607577
-0.10096573 -0.24897702 0.12384796 -0.14909503 0.0069329436 -0.44351408 -0.106117174 0.13601461
0.04205728 -0.13105227 0.01929555 -0.16973372 -1.1210223 0.2950096 0.056752022 0.1559256
-0.5579346 -0.10075271 0.10838295 -0.55450183 -0.01673749 0.094256274 0.12305607 -0.34987563
-0.08114546 -0.071046345 0.035003316 0.8462304 -0.0054411823 0.8759681 -0.4766751 -0.32117152
0.06881936 0.0064691557 -0.034922235 0.78275454 0.887524 -0.01236848 -0.11091891 -0.15789934
0.0744441 0.25131807 0.07426279 -0.16321623 0.14048044 -0.10883375 0.16357355 -0.08983427
-0.06335853 -0.08734445 -0.44570813 0.15054603 -0.015345004 -0.115909815 -0.11573208 -0.082099736
-0.11061941 -0.45276183 0.2493147 -0.10017346 -0.6268133 -0.35300824 -0.055968717 -0.015569688
0.17912827 -0.08682848 0.18014437 0.09462098 -0.019865276 -0.015512203 -0.06186626 0.16903545
-0.37853953 0.14410561 -0.061353426 0.2839469 0.14652233 0.07031548 0.16021195 -0.06568588
-0.10016157 0.40693635 0.07927824 0.18209568 0.20579262 -0.2002572 -0.09262068 0.15962298
0.028914727 0.1006365 0.17908695 -0.09681909 -0.0019635598 0.06498574 0.10105043 -0.48131114
0.5571134 0.12545551 -0.02817715 -0.050901517 -0.0009685431 -0.21411797 -0.29748988 0.22946692
0.032569695 -0.8350058 -0.087736666 -0.014916722 0.046045575 -0.14964643 -0.11693768 0.044684634
-0.15248708 0.1885974 0.0559089 -0.10767471 -0.023898862 0.06812005 0.32901508 -0.2266015
-0.10720252 0.05451972 -0.025425015 -0.08034917 -0.09418869 -0.18153416 0.07769493 -0.01245961
0.036954254 0.17161956 0.0508959 0.047787867 0.034503028 -0.25823346 1.5024148 0.4324374
0.070609376 -0.02143526 0.06928458 0.14762533 0.086987264 -0.2664255 0.02845788 -0.1107127
0.08682376 -0.061897915 -0.25504366 1.047585 -0.51717645 -0.09268043 -0.12116325 0.43330544
0.021112377 0.007391357 0.056032423 -0.36806345 0.041193057 0.24312638 -0.15471397 -0.14666206
-0.10637635 0.23183018 0.36148375 0.104872435 0.13309541 -0.05808254 -0.053163394 0.27656654
-0.0067766337 0.008438344 0.86205244 -0.30184397 0.038886473 -0.22450916 -0.086003855 -0.014629946
-0.050841544 0.024394419 -0.14854431 0.059024896 -0.05015909 -0.016449267 -0.075765125 -0.07671903
0.025613382 -0.31940243 -0.32807434 -0.16968106 -0.018029705 -0.10489144 -0.076619476 -0.3562833

bias f4 [64]
00000000: 835e 65be ef5c c7bd a14b 73be 339c 03be
00000010: 91b0 31bd 9524 d43d ba19 af3d 6e1a 42be
00000020: f83e 2abe 17ac d23d 6dd0 0a3d 5ccd 5bbe
00000030: 5226 53bd a10b 693d 1642 7dbe 123a f3bd
00000040: f66b c33d a6d4 a63d b865 6f3c c72a 6f3d
00000050: e60a 283d a5aa 1fbe 3710 97be e6af 16be
00000060: 8547 df3d 321b 38be 7f9e 82be 15e2 8fbb
00000070: cec3 f63c 60ce 4a3e 7953 6abc 40f8 803d
00000080: 562d 873d a92c 27be f9b3 c2bd b16d 4a3d
00000090: 1ead 05be 4c5f d83c a217 c23d 4447 f6bb
000000a0: 19fa 0a3d 11d2 533c 1b82 07bc 3f99 e5bc
000000b0: 2fbb d1bd f28f 1ebe 4132 03be ae99 e73d
000000c0: 7a35 ce3d 4645 fa3d 7145 b0bd fa58 9abd
000000d0: e475 49be dd84 30bc f811 5dbe 8d17 0fbe
000000e0: c10f 30be b002 b0bd 88e0 00be bf84 06be
000000f0: 1b0c a8bd 1736 ca3d dcb8 84be 13f8 263e
-0.22399335 -0.097345226 -0.23759319 -0.12852554 -0.043381277 0.1035854 0.08549829 -0.18955395
-0.16625583 0.1028673 0.033890177 -0.21465057 -0.051550217 0.056895856 -0.24732241 -0.118763104
0.09542076 0.08146028 0.014611654 0.058390405 0.04102602 -0.1559244 -0.29504558 -0.14715537
0.10902313 -0.17979124 -0.25511548 -0.0043909648 0.030122664 0.19805288 -0.014302128 0.0629735
0.06600444 -0.1632563 -0.09506983 0.049421016 -0.1305432 0.026412629 0.09477164 -0.0075158197
0.033929918 0.012928502 -0.008270766 -0.028027175 -0.102407806 -0.15484598 -0.12812139 0.11308609
0.100687936 0.12220244 -0.08606995 -0.07536502 -0.19673878 -0.010773865 -0.21588886 -0.13973828
-0.1719351 -0.085942626 -0.12585652 -0.13136576 -0.08205434 0.09873598 -0.25922287 0.1630557

weight f4 [64, 64]
00000000: 0441 813e 73be 543e 5776 923e 13d1 3fbc
00000010: df9c 0a3e 2560 4a3c e01c b2bd 62a1 24be
00000020: 44e7 ea3c d52c 7b3d 21c8 e1bd 21e2 283e
00000030: 8603 65be 53ba a3be e9b5 8fbc 5899 98bd
00000040: 41f1 c7bc 84c2 b6be 4bf5 0f3e f883 033e
00000050: 827d 5cbe b9e0 c6bd 1634 e93c 39ff b3bd
00000060: 7540 b5be 070b bbbd 0b8e 0cbd 79c0 e33b
00000070: c5dd 6abd 177a e5bd 41fd 6abe 9d7a ccbc
00000080: 5fe5 fa3c 3229 12be 84f3 0b3e 2708 443e
00000090: 4eef 123e e11f a7bd 111b 51be 1826 263e
000000a0: 1dfe d7be 5369 713b a06e 4f3e 97b6 a4be
000000b0: e04a b8bd b9d0 5b3d 260f 89be 146c 34bd
000000c0: 514c f2bd bcd5 7ebe 2bec 243e 19d6 63bd
000000d0: 84b6 09be d3da 023e 0388 19be 71dd 173d
000000e0: dde6 da3d fa3f 7e3e 413b 21be c073 ad3d
000000f0: fd44 a9bd a00d 31be d7cd 59bd fa35 0abd
00000100: df13 9ebd 66f6 09be bf0b b0be e360 ce3d
00000110: d9c3 6c3c e52d 323e 4ade 55be 6867 99be
00000120: 4a02 803d 9ae8 073c e184 8a3d 1479 073d
00000130: 1fca a4be 7f21 bdbd d841 07be ebb5 5dbe
00000140: 3b3e 0cbe 91e5 a63d d629 6cbd 81a0 61be
00000150: 4881 45be 5fa9 fabd 7976 863e be87 d0bc
00000160: f620 b63e d285 08be e06f cc3d e604 be3d
00000170: 9c26 e6bd ec9f 2ebd c745 febd 0405 0d3d
00000180: b5aa 84bc b9f8 053e 0929 ccbc 1365 1fbc
00000190: 5d73 8fbe 620b 00be fdbc 573e 40e8 07be
000001a0: eb09 4dbd f33a 3ebe 740f 23be 3d55 0b3e
000001b0: 18b4 513b 7918 8ebe d4b5 2abe 90f3 203d
000001c0: 7c71 393d 0145 1fbe fe9f 063e b68c 283c
000001d0: e17f 973c 74d5 803d e981 01be 5220 523d
000001e0: ec67 4bbe d2be f7bd e3e7 813d afe5 01be
000001f0: 0681 bdbd 1b34 20bc a4b7 8ebe f560 01be
00000200: 259c f0bc fb2e 693e d8aa 3cbc ec7e 47be
00000210: 565a 513c 0a6e 81bd e144 4fbe d2ae b33d
00000220: c272 7e3d f1c2 bb3d 7db4 c73c 8b97 b93c
00000230: ada3 e83b 09b7 0fbd a2d2 efbd 3a04 693e
00000240: 41a9 94bd c325 1a3e 59b4 c73d 3bb1 80bd
00000250: 7b92 12be 44dd e33d d886 cb3e 16e0 8d3d
00000260: 7923 9cbd 34db de3d 5a86 1abd b57d 823d
00000270: dd3f 33bb 6958 13bd 0677 98bd bf16 c7bd
00000280: b4f7 493e b1b5 853e 27ff 3bbc 2f0d 113e
00000290: 05ec 6f3d 2eb0 83be 7c61 96bd 08cd dcbd
000002a0: 225f f23b 2ded c63d 5e9b 49be d07d 26be
000002b0: 75ce 63bd 28f2 0a3d 4292 7ebe 8918 943d
000002c0: 13b4 113e e099 9d3c 235c c33e a981 8f3e
000002d0: 59d4 f73c 86a9 193d ddb4 cf3d 68e4 353e
000002e0: 42d6 5b3e 3fb2 a93e f82f 8abe 4b67 323e
000002f0: 4b86 003e ede0 2fbe 7015 0d3e 8250 a3bc
00000300: 971c bcbd fc6c eebd 6440 d13d c2c5 f53d
00000310: bdb7 963d a301 2fbd 8b6d 31be 2301 953d
00000320: 8b63 10be 7a1f 983d 8ade 8b3e 0ce6 62be
00000330: df3e 92bd 1be3 afbd 932f d2bd 990d 3b3e
00000340: 65af 8f3c 832b cd3c 1f58 96bd 14f5 45bd
00000350: 8e73 0c3e 9567 c43d c20e 3fbe 0c44 c3be
00000360: 233d ad3e c51d 51be a9f4 823c 4992 0bbe
00000370: c57b 71be 6f7d 503c 8654 4e3c 7029 9e3d
00000380: 9784 273e 9f58 22bf 9b92 b93d 7377 813c
00000390: 1d81 12be 541b 6ebe 37be 483e bad6 07be
000003a0: 9f4e 4f3b ca84 33be 5b1e 843d fc2c a1bd
000003b0: fe13 103e 885b e8be 14e2 153e 7b8c 63be
000003c0: 76af 2dbd 3c56 223d 846d 413d cfd6 cbbd
000003d0: 5d12 713e 3cc1 68be 984e 84be 184c 6a3d
000003e0: 8dba 08be 5220 07be 2db1 893d 4bf7 853e
000003f0: 5d2c 983a 3c0c ebbd ceab 463e fe64 3c3e
0.25244915 0.20775776 0.2860591 -0.011707562 0.13536404 0.012352024 -0.08696914 -0.16077188
0.02867473 0.061322052 -0.110245 0.16492511 -0.22364625 -0.31978092 -0.017542796 -0.07451123
-0.024407031 -0.3569528 0.14058416 0.12843311 -0.21532252 -0.09710831 0.02846722 -0.08788914
-0.3540074 -0.09132963 -0.03431515 0.0069504348 -0.057340402 -0.112049274 -0.22948171 -0.02496081
0.03062695 -0.14273527 0.13667113 0.19143735 0.143491 -0.08160377 -0.20420481 0.16225469
-0.4218606 0.003683646 0.20257044 -0.32170555 -0.08998656 0.05366585 -0.2676937 -0.044048384
-0.118309624 -0.2488622 0.16105716 -0.0556241 -0.1344853 0.12778787 -0.1499329 0.037076417
0.10688565 0.24829093 -0.1574526 0.08469343 -0.082651116 -0.17290354 -0.05317482 -0.033742882
-0.07718634 -0.134729 -0.34383962 0.100770734 0.014450991 0.1740032 -0.20885578 -0.29961705
0.062504366 0.008295203 0.06763626 0.033074453 -0.32185456 -0.092349045 -0.13208711 -0.21651427
-0.13695614 0.08149255 -0.057657085 -0.22033884 -0.19287598 -0.12239336 0.26262262 -0.025455352
0.35572022 -0.13332298 0.09982276 0.09278278 -0.11237833 -0.042632982 -0.12415653 0.03442861
-0.01619468 0.13083161 -0.02492191 -0.009728688 -0.28017703 -0.12504342 0.21068187 -0.1327219
-0.050058287 -0.18577175 -0.15923864 0.13606735 0.0031998213 -0.27753046 -0.16670924 0.03929478
0.045274243 -0.15553667 0.1314697 0.010287454 0.018493595 0.06290713 -0.12647213 0.051300354
-0.19863862 -0.12096943 0.06343057 -0.12685274 -0.09253125 -0.009778048 -0.27874482 -0.12634642
-0.02937133 0.22771828 -0.011515342 -0.1948201 0.012777885 -0.063198164 -0.20241119 0.08773579
0.06212116 0.091680415 0.024378056 0.02265527 0.00709959 -0.035086665 -0.11710097 0.22755519
-0.07258845 0.15053467 0.097511955 -0.06283804 -0.1431369 0.111261874 0.39751315 0.069275066
-0.07623953 0.108816534 -0.037725784 0.06371633 -0.0027351298 -0.035972986 -0.07444577 -0.09721135
0.19723397 0.26115182 -0.011474407 0.14165185 0.058574695 -0.25720352 -0.073428124 -0.10781294
0.0073965946 0.097132064 -0.19688174 -0.16258931 -0.055616815 0.033922344 -0.2486048 0.07231242
0.14228849 0.019238412 0.38156232 0.2802861 0.030252622 0.037515186 0.10141919 0.17762911
0.21468452 0.33143803 -0.26989722 0.17422216 0.12551229 -0.17175646 0.13777709 -0.01993585
-0.091851406 -0.11641881 0.1021736 0.1200061 0.07359264 -0.04272617 -0.17326944 0.072756074
-0.14100473 0.07427879 0.2731822 -0.22158068 -0.07140898 -0.08588239 -0.1026298 0.18266906
0.01753969 0.025045162 -0.073410265 -0.048329428 0.13715956 0.09590069 -0.18657973 -0.38137853
0.33835706 -0.20421512 0.015985804 -0.13630022 -0.2358237 0.012725218 0.012593394 0.07722747
0.16359173 -0.63416475 0.09061166 0.015804028 -0.14307065 -0.23252612 0.19603811 -0.13265505
0.0031632555 -0.17531124 0.06451102 -0.07869908 0.14070126 -0.45382333 0.14637023 -0.22221558
-0.04240366 0.03963302 0.047223583 -0.09953081 0.23542161 -0.22729963 -0.25841212 0.057201475
-0.13352413 -0.13195923 0.06723247 0.26165232 0.0011609901 -0.11476943 0.19401476 0.183979

bias f4 [64]
00000000: 3d03 83bb 82ca e53d 2e04 a7be b173 20be
00000010: ab71 143d 0dd9 dfbd aceb f83d fb69 87be
00000020: c9f8 eb3d db2e 7cbe fb7b 5abe 168b 97bc
00000030: 8d11 b2be 7430 43be 6dd1 a43d 7bef 1f3e
00000040: f64c 423e e220 91b8 14b6 18bd d722 e7bd
00000050: 6558 56be a9fb 0abe 8c4d 74be 6124 8fbe
00000060: 3f35 21be be14 1e3d 9045 303e 08f9 86be
00000070: 9c0f 0ebe 48cc 7abe ed7c 1fbe ebdf 8f3d
00000080: 7f51 8f3d 401f 703c 178e 0e3e f134 103e
00000090: e7c0 08be 4454 85be 3337 9abe 0f99 e73d
000000a0: 3b55 643e be1f e03d 8e6a b9be a8b3 03bd
000000b0: 78d5 4ebe 482d 833b 48fa 113d 4b22 f13d
000000c0: 2ee9 49be fb03 07be a41d 3fbe 9e5d 27bb
000000d0: 061d 35be a248 9ebd 1754 75be f564 66be
000000e0: 6345 0cbe 63dd 443e 288c b3be 98e4 10be
000000f0: 0a82 ce3d 22f5 d4bc bba9 f2be f3ca 2abe
-0.003998189 0.11220266 -0.32620376 -0.15669133 0.036241215 -0.10930071 0.12154326 -0.26448044
0.115220614 -0.24627249 -0.21336357 -0.018498939 -0.34779015 -0.19061452 0.08047757 0.15618698
0.18974671 -6.920264e-05 -0.03728302 -0.11285942 -0.20932157 -0.13572563 -0.23857707 -0.27957442
-0.15742968 0.038594 0.17214036 -0.2636187 -0.13873142 -0.2449199 -0.15574999 0.07025131
0.06997966 0.014655888 0.1392139 0.14082696 -0.13354836 -0.26040852 -0.3012024 0.113084905
0.22298138 0.10943554 -0.36214107 -0.032153755 -0.2019862 0.0040032007 0.035639077 0.11774119
-0.19717857 -0.13185112 -0.18663651 -0.0025537978 -0.17686853 -0.07728697 -0.23957859 -0.2249945
-0.13698344 0.19225077 -0.35067868 -0.14149702 0.10083397 -0.025995795 -0.4739512 -0.16678981

weight f4 [8, 64]
00000000: eec9 87bd 0b6b 123e cb12 44bd 37b0 363e
00000010: 33ef 413d 2e32 6ebc a39c aa3d 2a9b 2cbe
00000020: fc5c 31be 78e6 d43c 0eda 5f3e b6cd 31bd
00000030: 40b2 45bd 69b2 00bd 929e b9bb 2468 4c3d
00000040: 4bce f53d ddb3 60bb fe59 963d ab42 803c
00000050: f5ed 1bbd dce2 9a3c 4b0d b8bd a1a3 ca3c
00000060: 26ec cfbc 9f87 3dbb 3d4a d2bc 41ee 0e3e
00000070: 903d c2bd a2c0 aabd b155 113d ed23 9b3d
00000080: b1b2 0b3d de8a a63b f526 92bd 7605 b8bd
00000090: 3913 7ebe fcce 343e 3144 453d 2a5d dcbd
000000a0: 1a3a 2fbd 2741 2dbd 910b 643d b02b ad3d
000000b0: 200d 2f3e df83 d23d 4c9e 22bd 53b5 3d3c
000000c0: 3607 16bd 5319 1a3e 6730 8bbd 46ce e53d
000000d0: 30a6 1dbc 6f96 833b 7b2e 6fbd 0065 72bc
000000e0: 0815 0a3e 37ef 99bc 4cb1 073e 4535 78be
000000f0: a9e5 fdbd 007b ae3c e94e 18bd 077c 523d
00000100: d12b 1b3e 885f 563d 7d75 a63c 0822 4a3e
00000110: 1912 52be 73a7 4e3d d0ef dbbd 34dc 6c3e
00000120: a8bd efbd 1809 c4bd 4426 1ebe 8564 eb3d
00000130: c636 5bbd 8c59 a2bc cff1 613d 9ffa 2b3d
00000140: 3bd7 133d a0c9 ba3d 5637 17bc 4357 073c
00000150: 2037 3ebd 9ba2 b33d d30e 32be 1340 33be
00000160: 9c6a 3bbd 30d3 a13d 77cb cf3d 5893 a7bd
00000170: f5e0 7bbd 3502 5e3d eafc ed3b 1b36 883d
00000180: aaac d3bd c866 cd3d b790 1f3d bafb c83d
00000190: 6cba 76bd 9774 40bd 4fe1 98bb ea2f b53d
000001a0: 009a e63d 99c7 d23d d423 4dbe 51b6 a3bd
000001b0: da67 1bbd 8636 8cbc 4cff 393c c82b 7f3c
000001c0: 2602 0fbe f272 653c e1fc f2bc 59cc 703d
000001d0: 3eb3 733a 9b6b 2dbe 8e11 433c 4eff 7fbd
000001e0: b1b9 98bc 784a 1fbb 2a0c 8cbd 7397 3ebd
000001f0: accf 70bc c222 0f3e 0e39 1abe 45de 94bd
00000200: d4f9 bfbd 9676 d0bc 37d5 c2bd f248 cd3b
00000210: 8f05 2ebc fb68 e63d e959 2bbd f916 c43d
00000220: 8740 183d 1b02 22bd 7eb6 5d3d bcb4 123d
00000230: 6c5f eabc fe3c c3bc 54b3 e5bc 7843 b53c
00000240: d99c 2cbc d85d eb3c 896d 5bbe 0eef fcbc
00000250: bb62 11be c37b 6fbe 8faa 183e b72d 94bd
00000260: d7f1 b5bd 78a2 233e 3ea6 9abd 894e 6dbb
00000270: 9be4 32be c6ce 83bd 6c96 1e3e 1a87 133c
00000280: fc21 eabd 19a8 e7bc 5d4e 2f3d 7a13 e3bd
00000290: c96e 3fbd 5b69 b5bc ce1a 8abd f626 033e
000002a0: 96ff 873d 2961 f03c 3ab7 df3d 46c0 763c
000002b0: f75b ad3d 555f 53bd 7f35 9abd 64c0 b7bc
000002c0: b56f 403e a7eb 67be 99d6 3b3c 395a bbbd
000002d0: cfd7 773d ace7 b13d 8c08 163e 873f 38bd
000002e0: fc1f c9bb 895c 793d 38d2 1abe 8246 7d3e
000002f0: 4f51 533e a421 a23e a1d5 a93a 68dd 5cbe
00000300: f7b3 a2bd f899 b73c 0899 943e bf17 58bc
00000310: 4f65 84bc 24ce 523d c5c6 16bb 4209 1e3e
00000320: 82aa 233e e1ac 2dbd 1cae b83d 261a c23d
00000330: e553 b9bd bb18 b7be 1a7c 823e 7a93 003e
00000340: d111 8cbd 2cbf 41bd 4d79 263e d1ec b03d
00000350: 6c08 81bd de3d d33d 9403 463d d0a4 f03b
00000360: 6295 b73d d0c7 9cbc fbd9 63bd 8508 d1bd
00000370: 89ab ad3d e136 e2bc ee13 7d3d 5bad 14be
00000380: de99 c13d 4b1a 5bbe 05a5 ad3d 6153 8bbb
00000390: 2a5c d7bb cda3 913c e8e5 81be ba29 613c
000003a0: 480e 65be 0771 113e d8fb 603e 0fbd a0bc
000003b0: 96d5 643d 735d e13d 0f52 793d e873 333e
000003c0: 6394 b43c 6dc8 243d 5163 593d bb1a 31bd
000003d0: 38f5 c73d 756f 093e 1bbb 6d3c fecb e63c
000003e0: 86df 42bd 4a5c 423e 7fd1 bbbc 5bc2 9dbc
000003f0: db98 8ebd 401a 1f3e 729d 2cbe ee70 59be
-0.06630312 0.14298646 -0.047869485 0.17840658 0.04734726 -0.014538331 0.08330657 -0.16856065
-0.17320627 0.025988802 0.21860525 -0.043409072 -0.048265696 -0.031420145 -0.005664655 0.049904004
0.12002238 -0.0034286894 0.073413834 0.01565679 -0.03806873 0.018907003 -0.089869104 0.024736227
-0.025381159 -0.0028919948 -0.025670165 0.13958074 -0.09484398 -0.08337523 0.035482112 0.07575212
0.03410596 0.005082472 -0.07136337 -0.089854166 -0.2481202 0.17657083 0.048160736 -0.10759957
-0.04278002 -0.042298462 0.055675093 0.08455598 0.1709485 0.10279059 -0.039701745 0.011578876
-0.03662797 0.15048723 -0.067963414 0.11220984 -0.009622142 0.004015736 -0.058393937 -0.014794588
0.13484585 -0.018790824 0.13251227 -0.2423907 -0.1239732 0.021298885 -0.03718463 0.051387813
0.15153433 0.0523372 0.020319695 0.19739544 -0.20514716 0.05045266 -0.107391 0.23130876
-0.11706096 -0.09572047 -0.15444285 0.11493782 -0.053519033 -0.01981809 0.055162247 0.041987058
0.03609393 0.09120488 -0.009229502 0.008260551 -0.04643929 0.08771249 -0.17388467 -0.17504911
-0.045755967 0.07901609 0.1014623 -0.081824005 -0.061493833 0.054201324 0.0072628157 0.06650945
-0.103356674 0.100293696 0.03895637 0.09813638 -0.06023638 -0.04698619 -0.0046655308 0.088470295
0.11259842 0.102919765 -0.20033199 -0.079937585 -0.037940837 -0.017115843 0.011352371 0.015574403
-0.13965663 0.014004456 -0.029661598 0.05878863 0.00092964235 -0.1693558 0.011906041 -0.062499337
-0.018643232 -0.0024305861 -0.068382576 -0.046531152 -0.01469795 0.13978103 -0.15060827 -0.07268957
-0.09373823 -0.025447171 -0.09513324 0.0062647993 -0.010621442 0.11250492 -0.041833792 0.09574694
0.037170913 -0.03955279 0.054129116 0.035816893 -0.028609954 -0.023832794 -0.028039612 0.022126898
-0.010535442 0.028731272 -0.21428503 -0.030875709 -0.14197819 -0.23387055 0.14908813 -0.07235282
-0.08884018 0.15979946 -0.075512394 -0.003621014 -0.17470019 -0.06435923 0.15487069 0.009004379
-0.11432263 -0.028278397 0.042799342 -0.11087699 -0.046736512 -0.022144964 -0.06743394 0.12807831
0.06640546 0.029343205 0.109236196 0.01506049 0.084648065 -0.051604588 -0.07529735 -0.022430606
0.18792613 -0.22648488 0.011464738 -0.09148068 0.060508545 0.08686766 0.14651698 -0.04498246
-0.006137846 0.060879264 -0.15119255 0.24733928 0.20636486 0.3166629 0.0012957343 -0.21568835
-0.07944482 0.022412285 0.29023004 -0.013189255 -0.016161589 0.051466122 -0.002300666 0.15433219
0.15983012 -0.0424012 0.09017584 0.09477644 -0.09049205 -0.35761055 0.25485307 0.12556258
-0.06839336 -0.047301456 0.1625721 0.08638919 -0.063004345 0.103145346 0.048343256 0.007343866
0.089640394 -0.019138247 -0.055627804 -0.10206703 0.08479983 -0.027614059 0.061786585 -0.14519255
0.09453176 -0.21396749 0.084787406 -0.004251883 -0.006572266 0.017778302 -0.25370717 0.013742859
-0.22368729 0.14203273 0.21971071 -0.0196214 0.055867754 0.11004152 0.060869273 0.17524683
0.022043413 0.040230203 0.05307323 -0.043238383 0.09763569 0.13421424 0.014509941 0.028173443
-0.04757645 0.18980518 -0.022927044 -0.019257715 -0.069627486 0.15537357 -0.16856936 -0.21234486

bias f4 [8]
00000000: 1f20 633d bc97 353e edff fcbb fc5f 183e
00000010: 6dd1 99bd ba74 893e 7910 e0bc 2c21 92bc
0.055450555 0.17733663 -0.0077209384 0.14880365 -0.07510648 0.26846868 -0.027351605 -0.017838083
