sim2real/policies/reach/policy.pt (torch, 39986 bytes, 6 tensors)

weight f4 [64, 41]
00000000: d3ae 903e 95a4 4cbd c900 f23e 12e5 7a3f
00000010: 236b 8dbd 5288 9b3d 700f 87be 5838 cfbd
00000020: 86cc 673d 578b adbe 2149 1a3f a3e8 4b3e
00000030: 3763 04be 46b9 293e d230 86bd 2a34 4fbd
00000040: 772e 8abd f946 aa3d 464e 43be 51f5 9c3d
00000050: a9bc 5f3e 7ed7 2ebd dddd 65bd 71fc 58bd
00000060: 64a4 47be 59c5 10be baf8 913e 61a3 d8be
00000070: aa16 92be dc92 1dbe 39a4 16bd 23cd 94be
00000080: 98b2 f83d 76b3 053e 5a95 bdbd fd1b d5bc
00000090: f0ee 74bd 455e 443e c5d9 f3bd 2a0a cebd
000000a0: 88cf daba 6bee 90be f04d 06be adb5 67be
000000b0: 5ad7 183f 44ad 3cbe 5466 043e 7909 8b3e
000000c0: 66cb 87bd afe9 7bbe 9ab2 733e c5d0 05bf
000000d0: fa5d 25bd cfc2 1c3e e903 703d c56e 123c
000000e0: 1d2e e93d 86f2 3dbe 779c 7a3d 410f 3c3d
000000f0: 1530 22bc e55a 28bd 374c b83c 7781 80ba
00000100: 3e85 2b3e fd83 48bd 6c6a fe3c 0107 8dbe
00000110: b45a e4bf 8ebd 3ebf f3ce 0a3e 23df c53e
00000120: 770e d23e 39a9 01be 9f11 3ebe 753f b7bd
00000130: f323 003d f3d5 92bd 6b10 9dbd d1e7 823e
00000140: 52f0 c0bd 1db3 c13c bc3b 763d ac32 563d
00000150: d85d 473d 93be 03bd a92a 0b3e 314f 95bc
00000160: 0684 31bd 3b0b 8ebd bc43 0c3d a3e5 b93e
00000170: 138b edbd 81ed 583e b5db c9bd 19f2 d6bb
00000180: 3f2f 6e3e 2637 613e 0c27 453d 1aed 49be
00000190: abe9 04ba dd7a 663e 64cf 1b3d 16da 77be
000001a0: 71c3 04ba 00f1 43be 624f dabd 6514 21be
000001b0: f609 71be ac5a 7dbf f732 95be 3426 023d
000001c0: c30a fcbd e4f3 28bf 3089 d3bd 94e6 3dbc
000001d0: 134f 343e 7f0b 21bc 00db 123c c315 14be
000001e0: 6756 cd3d 2d96 273d d49f 94bd 69a8 653e
000001f0: 12fc 98be c82a 993e c908 6abd b3b2 a9be
00000200: 2083 623e 543e 9bbd e0f1 fc3d 7919 d0bd
00000210: 92cd 17bd db96 02be 7571 2d3d f2cb 08be
00000220: 118d 403d 0b54 aebe 8578 0c3e 0e3a 5f3e
00000230: 4ec8 1ebc 838a c5be 08a7 2ebd e7c1 233d
00000240: fc03 cd3d 2126 d33d b341 a83e 955c 643e
00000250: 85bc 3c3d 1530 97bd 72f5 ae3f eded 21bf
00000260: e27d 99bc 1850 03bf cb32 8c3e 41da f4bd
00000270: 21b3 1b3e 020f 0ebd 276b d0bd 05be 94be
00000280: 4059 183e 184b 50ba 2a07 38bd 7cf1 81be
00000290: 3cc2 5bbe d034 b93e ea44 d5bd 9639 913f
000002a0: 66c8 153e 6b85 72be c159 10be c88f d13d
000002b0: 8efd 553e 1a62 0a3f f775 64bd a43a bb3c
000002c0: 6ae6 3abd a09f 973d e10d 7a3e cc62 7ebd
000002d0: 2073 1d3e da5b 833e 3eac 8a3d 797b 63bd
000002e0: f12e 163d 4c75 85bd 0d74 a93d 1bef 863d
000002f0: 952b 04bc 4d54 a33c 6bf0 92be 85f3 e2bf
00000300: 7558 db3e 7b2a 093e 1004 3ebe a298 19be
00000310: 0bcb b93a 4960 ebbc 36b6 673e b50a 413e
00000320: 643d 4bbe c0c9 d4bd e8ce 0d3e ddfe 3bbd
00000330: f09c 013d 2044 87bd 996c 22be 9f84 563e
00000340: 8c82 003f f118 1dbc e206 313e a7a6 733d
00000350: b981 87be 62f4 32be 09f2 65bd bc98 c13e
00000360: 427f 903e 5b82 22be bd87 e13e 2ced 873d
00000370: cf24 0c3e 3c2e c13e c231 a73c f9e2 ccb9
00000380: fe50 dd3d 7a9f 703e d7fe d23d 3977 e03d
00000390: 6c36 62be 3907 15be 15f1 46be b182 a53d
000003a0: bd58 8b3f 28f4 cc3d 9ef8 aa3d 7c57 6d3d
000003b0: 5a68 c1be 01ae f1bd 623b aa3c 16ca d6bd
000003c0: 1afc 7b3e afa8 b83d 7602 79be e686 cdbd
000003d0: 8a4b 7a3e 3518 8cbe cef3 ca3e 7e82 9dbe
000003e0: 8142 06bc b94d f5bc 18f1 253e 7a05 b5bd
000003f0: 06f0 bfbd b8ac 22be e9ea 36be 7288 19bf
0.2825838 -0.049961645 0.47266224 0.98005784 -0.069052 0.075943604 -0.26378965 -0.101181686
0.056591533 -0.3389537 0.60267836 0.19912963 -0.12928472 0.16574582 -0.065522805 -0.050586857
-0.06747144 0.08314318 -0.19072828 0.07663978 0.21849312 -0.042685978 -0.05611979 -0.052975122
-0.19496304 -0.14137782 0.28510076 -0.42312148 -0.28532916 -0.15388054 -0.03677771 -0.29062757
0.12143439 0.1305674 -0.09257002 -0.026014322 -0.05979818 0.19176586 -0.119067706 -0.100605324
-0.0016693929 -0.28306898 -0.13115668 -0.22627898 0.597036 -0.1842547 0.1292966 0.27155665
-0.06630592 -0.24600862 0.237986 -0.5227168 -0.040372826 0.15308689 0.05859748 0.008937542
0.113857485 -0.18549547 0.061184373 0.045912985 -0.009899159 -0.04110231 0.02249728 -0.0009804209
0.16750047 -0.048954 0.031056605 -0.27544406 -1.784018 -0.7450799 0.13555507 0.38646802
0.4102666 -0.1266221 -0.1856141 -0.0894765 0.031284284 -0.07169714 -0.07669147 0.25567487
-0.094208375 0.023644978 0.06011556 0.05229442 0.04867348 -0.032164168 0.13590492 -0.018226238
-0.043338798 -0.06935736 0.034244284 0.3630801 -0.11598792 0.2118435 -0.09856359 -0.006559622
0.2326021 0.21993694 0.04813294 -0.19719353 -0.00050702196 0.22507806 0.03803958 -0.24204287
-0.00050645234 -0.19134903 -0.10659672 -0.15730436 -0.23538956 -0.9896648 -0.29140446 0.031774715
-0.1230674 -0.6599715 -0.10328901 -0.011590619 0.1760829 -0.009829401 0.0089633465 -0.14461426
0.100262456 0.040914703 -0.07257047 0.22427525 -0.29879814 0.29915452 -0.057137284 -0.3314415
0.22120333 -0.075802475 0.123508215 -0.101611085 -0.03706128 -0.1275286 0.04234453 -0.13359049
0.04700953 -0.34048495 0.1371785 0.2179949 -0.009691311 -0.3858224 -0.042639762 0.03997984
0.100105256 0.10310007 0.32862625 0.22300942 0.046078224 -0.07382218 1.3668654 -0.6325367
-0.018736783 -0.5129409 0.27382502 -0.11955691 0.15205051 -0.03468228 -0.10176688 -0.29051223
0.14877796 -0.000794576 -0.044928707 -0.2537955 -0.21460813 0.36173105 -0.10413535 1.1345699
0.14627227 -0.23683707 -0.14096738 0.10232502 0.20897505 0.5405594 -0.055776563 0.02285511
-0.045629896 0.07403493 0.24419357 -0.06210594 0.15375948 0.25656015 0.06771134 -0.055537675
0.03666586 -0.06516513 0.08274088 0.065885745 -0.008067031 0.019937659 -0.2869905 -1.7730566
0.42840925 0.13395111 -0.18556237 -0.14999631 0.0014174891 -0.028732436 0.22628102 0.1885174
-0.19847637 -0.10390043 0.1384846 -0.045897353 0.031643808 -0.06604791 -0.15861739 0.20949028
0.501992 -0.009588466 0.17287782 0.059485104 -0.26466158 -0.17476037 -0.056139026 0.3781184
0.2822209 -0.15870039 0.44048873 0.06637034 0.13685916 0.37730587 0.020409469 -0.0003907902
0.10806464 0.23498335 0.10302513 0.1096024 -0.22091073 -0.14553536 -0.19427903 0.08081568
1.0886456 0.100075066 0.08348201 0.05794476 -0.37774926 -0.11800767 0.020780269 -0.104877636
0.24607888 0.09016549 -0.24317345 -0.100354955 0.24442878 -0.27362218 0.39639133 -0.3076362
-0.008194567 -0.029944288 0.16205251 -0.08838935 -0.09371953 -0.158862 -0.17863049 -0.59973824

bias f4 [64]
00000000: e394 39be 6d2b e13c 2181 92be b866 c93d
00000010: ed34 11be 5aaf c1be a022 6a3c bc45 e6bd
00000020: 8486 d93c 6eef 4b3e 5e3c 01be b3c1 163c
00000030: 26c1 fd3d baf1 3bbe 8d35 11be de1a cdbd
00000040: 3bbe 37be 39c6 5138 86b5 d63d e9b8 8b3c
00000050: 00fd 66be 657c 1e3d c542 52be a69c a3bd
00000060: 2102 503d 27d0 18bc 87aa 43bd 274e a53d
00000070: 9e7c 8bbd 13ec 8dbe 6005 09be b54f 29be
00000080: b508 423d 9a70 79be 7fac 4dbd 7969 483c
00000090: 7eaa e8bd 4b63 aabe 5769 6fbe 4c98 d4bc
000000a0: ffae 50be 6301 1cbe 4150 d1bd 4286 0a3d
000000b0: 5aa8 14be 305b 9abe abe9 3bbe bf85 cc3d
000000c0: 19cc b5bd 4d83 27be 2fe1 bcbe 4f1a d7bd
000000d0: b366 98bd 6d66 9fbd a6b6 03be 215f f1bd
000000e0: 02a7 a93d d24d 29be efbf b23c 6336 b4bc
000000f0: 2612 54be 25b5 1b3e d6db 63be 4a00 10be
-0.18123202 0.027486527 -0.28614143 0.09834045 -0.14180346 -0.37829095 0.014290482 -0.112437695
0.0265534 0.19915554 -0.12620685 0.009201455 0.12390356 -0.1835393 -0.14180584 -0.1001489
-0.17943661 5.0014092e-05 0.104838416 0.017055945 -0.2255745 0.03869285 -0.20533283 -0.07988863
0.05078328 -0.009326971 -0.04777005 0.08071547 -0.06810878 -0.27719173 -0.13380957 -0.16534312
0.047371585 -0.2435936 -0.050213333 0.012232178 -0.11360644 -0.3327888 -0.23380028 -0.025951527
-0.20379256 -0.15234904 -0.10220385 0.033819444 -0.14517346 -0.30147696 -0.18350856 0.099864475
-0.08876819 -0.16358681 -0.3689055 -0.10503065 -0.07441463 -0.07783208 -0.12862644 -0.117857225
0.08283807 -0.16533592 0.021820037 -0.02199859 -0.20710048 0.1520582 -0.2225183 -0.1406261

weight f4 [64, 64]
00000000: 008b c6bd 3190 9c3c 6103 063e 2952 d43d
00000010: 4477 5d3e 575d 1a3e a419 673d d033 fcbc
00000020: 5721 9fbd 8c36 75be ed82 03be 6dcc 09be
00000030: 5727 123e cc4a ee3c 449c 6bbc 2323 ca3d
00000040: 849a b6bd 3764 2e3d 8cdd a43d c4d6 f0bc
00000050: 7a3a bebd 9943 cabd 1221 f93d d5f6 68be
00000060: 7e45 50be 347d 66bc 4d61 373e 3686 17be
00000070: 93a3 893d 755d 7c3d 638f 2bbd bd2a 823c
00000080: c744 8d3d 1389 f5bc f11c c13d 9f23 8f3c
00000090: b4c1 a53c 33c3 613d 0242 013e a3b9 c4be
000000a0: f09c 943e 62b3 e83c 9c7d 943d a41b 513d
000000b0: 9284 1fbe 317c 533d f1fb 2a3e 742d 6fbc
000000c0: 6ac2 3f3e 2b16 1c3e e59f 943c 8b4b 2f3e
000000d0: 6ee1 f6bd b46c 39bd 3e60 01be 2742 fcbd
000000e0: 83cd c7bc 8b5a a1bc 5819 63be 05c5 b73e
000000f0: 68e8 df3d 8d9b 353d bd52 b93e 7bf3 473e
00000100: 565e 3e3e 9168 1f3e a0a8 213e 3644 50bc
00000110: 1d10 b93d 452c 92bc 7381 873c 761e 12bc
00000120: edb9 e73d ead3 4f3d 2861 82bd 06bf 9ebc
00000130: 7e8d 273e c76c cabd 7a7b 27be 4265 613e
00000140: f7c1 24bd f83e 83bd f78c 97be 635d 623e
00000150: f381 30be 76ba 833d e1c5 92be de07 cabd
00000160: 08e3 cdbd f952 5ebd 95a4 81be 0e7f 2cbe
00000170: 7deb bc3d 943c 70be ae50 153d 0394 f9bd
00000180: 2642 aebd 44c1 fd3d bbc8 8bbe 5336 d13d
00000190: cdc0 d63d 41c7 ea38 597a c3bc 91c6 133c
000001a0: 2209 a33d fd07 f6bd fda7 223e 32cb 89bd
000001b0: 41bf 9c3d b70b 23bc 001c 353e 3137 363c
000001c0: 4d0d 27bd c6ed 473e 7a23 2b3e 5dab 92bd
000001d0: 2cb8 cdbc 44b4 81be c926 82bd 52dc db3c
000001e0: 7022 753e c42a 8abc fcf1 1abd 312b c8bd
000001f0: 3a23 6dbe 2cd3 60be 5e29 33be 9e23 e3bd
00000200: 8247 283e 8b17 d1bd 0a5e 833d 5b70 003d
00000210: e68e 52be 0612 21be 8df1 afbd 8070 503d
00000220: 4a79 1abe 6766 833d 6500 603d ca9b 14bd
00000230: 0f48 1e3c 8801 c93d 07d2 273e cd05 c33c
00000240: 44e5 babe b199 8f3d 6987 60be 5ddc b4bd
00000250: b826 393e d39b 483c b765 49be 9095 9ebe
00000260: 756e 8c3e edb7 4e3d d4c9 be3b 6def 56bd
00000270: 6a45 f3bc a25a b2be 500a 1e3e f0dd 1cbd
00000280: 7a7f 253d cc97 663e d6c3 56bd d3cf aa3b
00000290: 73e3 20be 9af0 5bbc 3d58 33be 0a8b 003e
000002a0: 13fa 10bd b00c 81be f163 b0be dcbf e1bd
000002b0: b577 1cbe 4760 f6be a6de 8d3e e28d 623d
000002c0: 6181 e5be 9e88 653e 9f1a a43d 48c4 94bc
000002d0: b376 473d 032e b83d 8b4b ba3d cd37 dd3d
000002e0: e695 a03c d0e8 063e f1f4 713d e230 0d3a
000002f0: e65a adbd 6942 0bbe 73cd 2bbc 829a 833d
00000300: 2af4 19be 8ced a1bd 2b31 4cbe 4455 44be
00000310: c7e9 70be 0f31 4a3c 5fef fd3d c452 9cbe
00000320: ec23 543d 6197 19be 958d 6fbc c4f2 5b3d
00000330: 7f42 aabd 6554 eebc 0eee b6bd 3748 bcbd
00000340: d89c 51be e177 cb3d d074 1f3d 933f 673d
00000350: 20bb 54be f157 3abd 4867 b1be 9f8f ab3d
00000360: c4d8 7dbe 96de 51bd 03f4 8dbd bf29 403c
00000370: dc63 663e c577 ac3e b10f 873d bcea 78bc
00000380: 2db5 23be c727 10be 4be8 8dbe eca0 d43d
00000390: eec4 14be f0b7 20bd 3722 ce3d b94c cfbd
000003a0: b8f9 7f3c bd12 8cbc 13e3 c73d 61b5 33bd
000003b0: 4b75 59be 9493 26bd d722 dd3a 5d28 fe3d
000003c0: a05a 313e 0df1 273d b31c 10be 4c6b 0d3e
000003d0: d9a0 083d 193e c53d aea4 46be cd8b 35bb
000003e0: 2bb2 993e 81ff 42be e459 6fbe d7da 23bd
000003f0: 4fe1 d9bd 3e8b 2a3d caf3 b6be ff41 9a3e
-0.09694481 0.019111725 0.13087226 0.10367233 0.21627527 0.15074669 0.056420937 -0.030786425
-0.07770031 -0.23946589 -0.12842913 -0.13456888 0.1427282 0.0290884 -0.014380518 0.09869983
-0.0891619 0.04257604 0.08050069 -0.029399283 -0.09288497 -0.098761745 0.12164511 -0.22750409
-0.20339009 -0.014067937 0.17908211 -0.14797291 0.067206524 0.061612565 -0.04188479 0.01588952
0.06897884 -0.029972589 0.09429348 0.01747304 0.020233966 0.055117797 0.12622836 -0.3842288
0.29025984 0.028405849 0.072505206 0.05105175 -0.15577915 0.05163211 0.1669767 -0.014598239
0.18726507 0.15242831 0.01814265 0.17118661 -0.12054716 -0.045269683 -0.1263437 -0.12317305
-0.024389988 -0.019696495 -0.22177637 0.358925 0.10933 0.044337798 0.36195937 0.19526474
0.18590674 0.15567233 0.15786982 -0.012711575 0.090362765 -0.017843375 0.016541218 -0.008918395
0.113147594 0.050739206 -0.06366187 -0.019378196 0.16362569 -0.09884029 -0.16355696 0.22011283
-0.04022404 -0.06408495 -0.29599735 0.22105937 -0.17237072 0.06432049 -0.28666595 -0.09864782
-0.100530684 -0.054278348 -0.2532088 -0.16845343 0.09224603 -0.23460609 0.036453895 -0.12186434
-0.085087106 0.12390378 -0.27301583 0.1021544 0.104859926 0.000111951034 -0.02386205 0.00901951
0.07960726 -0.120132424 0.15884395 -0.067282096 0.07653666 -0.0099515235 0.17686462 0.011121557
-0.04078417 0.19524297 0.16712752 -0.07161591 -0.025112234 -0.25332844 -0.06355054 0.026838455
0.23938918 -0.016866095 -0.03782843 -0.09773863 -0.23157969 -0.21955556 -0.17496249 -0.11090778
0.16433528 -0.102095686 0.06414421 0.03135715 -0.20562324 -0.15729532 -0.08590994 0.05088854
-0.1508533 0.06416016 0.054687876 -0.036281385 0.009660735 0.09814745 0.16388713 0.023806477
-0.3650304 0.07011736 -0.21926655 -0.088310935 0.18081176 0.012244183 -0.19667707 -0.30973482
0.27428022 0.050468374 0.0058223996 -0.052474428 -0.029696185 -0.34834772 0.15433621 -0.038297594
0.040404774 0.22518843 -0.052432857 0.005212763 -0.15711765 -0.013424063 -0.17514129 0.12553039
-0.03539474 -0.25204992 -0.3445125 -0.110229224 -0.1528004 -0.4812033 0.2770893 0.05531109
-0.4482527 0.22415397 0.0801289 -0.01816 0.048697185 0.08993151 0.0909644 0.10801659
0.019602727 0.13174748 0.059071485 0.0005386007 -0.08464603 -0.13599552 -0.010485995 0.064259544
-0.15034547 -0.079066366 -0.19940631 -0.19173151 -0.23526679 0.012340798 0.12399172 -0.30531895
0.05179207 -0.14999153 -0.014621158 0.053698316 -0.083134644 -0.029092977 -0.08932124 -0.091934614
-0.20469987 0.099349745 0.03892976 0.056457113 -0.20774508 -0.045494024 -0.3464911 0.08377003
-0.24789721 -0.051237665 -0.06931307 0.011728703 0.22499031 0.33685127 0.0659479 -0.015192684
-0.15987082 -0.14077674 -0.27716288 0.10382256 -0.14528248 -0.039237916 0.1006512 -0.101220556
0.015623502 -0.017098779 0.09760108 -0.04387415 -0.2123615 -0.040668085 0.0016871345 0.124100424
0.17319727 0.04100137 -0.14073448 0.13810462 0.03335652 0.09630985 -0.19398758 -0.0027701736
0.30018744 -0.1904278 -0.23374134 -0.040003624 -0.10638677 0.041636698 -0.3573287 0.30128476

bias f4 [64]
00000000: 8703 97be 9536 9fbd 459c a6be 4dd5 da3d
00000010: 26b1 0fbe 071f 913d c36f fabe 9a61 e83d
00000020: 6ffe 99be 7dce bebe b0ad 4bbe 1ab9 2fbd
00000030: 5294 013e 44b8 40be e55a 593d 3f15 163e
00000040: 1550 80be 7907 55bc 2320 73be 8f33 86bd
00000050: 4755 6bbc 85bb 18bd debb ecbc a99d eebc
00000060: 81a1 373d 4c45 80be 2eec 07be d77e 293d
00000070: 6f4c 78bd 9652 2a3d 0706 90be 79c0 0cbe
00000080: d50c 85bd 681f 9dbd 5fd9 c4be 9f12 6d3d
00000090: 381a 98bd 4639 e0bd 489f 62be 0364 d2bd
000000a0: 2c1b 5f3e fe86 80be b18a 4dbd 42ad 92be
000000b0: f9cb 2cbe 3211 ecbd e5ab 3fbc d604 eabb
000000c0: 795e 90be dc90 d6bd ee4a 36be 9af7 cabc
000000d0: 9a96 84bd 3241 88be a7a3 6d3d 566c 50be
000000e0: 2c3b 333e 6c4f 2a3d 4090 dbbd 97cc 80bd
000000f0: d152 bbbe b002 d9bd 7873 133c cb7c bebc
-0.2949488 -0.077740826 -0.325411 0.10685215 -0.1403242 0.07085996 -0.48913392 0.11346741
-0.3007693 -0.37266913 -0.19890475 -0.042901136 0.12654236 -0.18820292 0.0530652 0.14656542
-0.25061098 -0.01300227 -0.23742728 -0.06552803 -0.014363593 -0.037288208 -0.028898176 -0.029127913
0.044831757 -0.2505287 -0.13273689 0.04138073 -0.060619768 0.041582666 -0.28129598 -0.13745297
-0.06496588 -0.07672006 -0.3844709 0.057879087 -0.07426876 -0.10948424 -0.22131073 -0.10272982
0.21787709 -0.2510299 -0.050181095 -0.2864781 -0.16874684 -0.11526717 -0.011698698 -0.00714169
-0.28197077 -0.104768485 -0.17802021 -0.024776269 -0.064740375 -0.2661224 0.0580174 -0.20353827
0.17503041 0.04157965 -0.10720873 -0.062890224 -0.3658662 -0.10596216 0.008999698 -0.023252865

weight f4 [8, 64]
00000000: 3d88 56bd 3235 123e 817a 69bd 0419 f4bc
00000010: 0c96 1d3d 4078 33bd dfa6 013e cb73 193a
00000020: 590a d8bd cde6 9f3d c674 e83c 189c 053e
00000030: 18a8 61bc 786b d13c 4c3f cfbd c4ee 90bd
00000040: a796 d93c f4f9 f1bc a21e 923d 75dc 36be
00000050: 1995 45bd b620 ff3c 2bb8 febd e057 29bc
00000060: 2a37 823d 29dd 983d c339 863d 6994 223d
00000070: 5543 363d 9c3c 15be 1278 133d ba92 2cbd
00000080: 376e 9abd c5e1 75bd 2fa4 0cbe b547 4abd
00000090: 7f06 59bd aba2 4cbd af92 1bbb 2e47 febc
000000a0: bc39 d6bd 20fe 463d 3e1e 9cbd a5c8 223c
000000b0: 05a8 f43d 409f 25bb 5962 6abd c08b 5f3d
000000c0: 75d8 f13d f9b4 fcbb 76c3 cd3c a168 623e
000000d0: 2bee 983c b369 0dbe ff92 6a3c 3130 373d
000000e0: e1eb 1c3e dcce 933d 3fb9 453d 3cf3 24bd
000000f0: d025 143d 4793 4b3c 25fd 8a3d cfb9 2e3d
00000100: f84e 5fbd ed3e bb3d 2fb0 443e 57e8 973d
00000110: 0b36 503b dcf1 1fbd d2f3 d8bd 31ee b13e
00000120: af6d 483d 7cfa aabe c0db 273e 0d64 16bd
00000130: 4c0b 873c 9ddc 0dbd 0973 19bc 0370 0e3e
00000140: 4aaf e03d a98f 5bbc c254 2bbd a410 3f3d
00000150: bc1b db3b 68c7 cdbd d891 e53d d2e3 533d
00000160: ab16 d13c 7745 ac3c a900 2dbd ca51 e0bb
00000170: 234d 0b3e 06b8 ad3d 8bd4 1cbc c829 a03b
00000180: f936 93bd f45f c63d 928e 37be d1b5 15be
00000190: 915e 72bc e3eb 29bd 5f4f 343d f39a 0a3d
000001a0: c38d 2e3d e0c0 87bd a757 4abc 48a8 2fbd
000001b0: c0d8 a7bc 7f89 0abe 42d2 903d ff05 c33d
000001c0: 2f14 38be 3439 ad3d b654 1f3d 8fa4 0ebc
000001d0: 9463 b83d 1776 bfbd 7cb3 613d 8b11 71bd
000001e0: 5b97 aa3c 3bfe 1e3d 6343 8a3c 0454 aebc
000001f0: 150a 243d ff16 aa3d b8ea 2c3c b8d7 8a3d
00000200: 6392 4ebe 4c07 febc f1e5 8abd 4193 f2bd
00000210: bf66 80bd cd80 bbbc 940e 6fbd b08b d0bc
00000220: a9c6 043d 73fd 1bbd 025c 48bd 5a8f 8bbc
00000230: b536 c1bc 2ddb 34bd 700d 86bd 5bc0 59bb
00000240: 31c5 283e 797a f4bd ec59 70bd d3c5 e43d
00000250: 2663 2abe c7a9 a9bd ad4b 8b3d 9edc 613e
00000260: 861e 453d 830f 48bd 6bee b83c 10b7 963d
00000270: 867d d7bd 6f59 8e3b e9b7 173e 6d8a 36bd
00000280: 79e4 803d 3881 253e eb53 7dbd d6b6 42bd
00000290: 8479 61bd 4d4d c9bd 03c4 643c 4a14 ed3c
000002a0: 768f fe3b 446d c0bd 8f7a 293e 2b72 203e
000002b0: 8e88 dd3c ffc0 393e 43c3 92bd 7433 9c3d
000002c0: e8c9 33bd 8841 9c3d b484 92bd 6fba 293d
000002d0: a71d 8dbd 157a 88bd e054 e2bc c569 30bd
000002e0: 0550 c93d 537e 5c3d a152 9f3d d66b 6abe
000002f0: 6c6d 81bd 7a7b e3bd 2884 a83d 1e0b 81bd
00000300: 0912 933d fb8f 553c 3199 17be 17c6 713e
00000310: dd41 1dbe f4ea e7bd 50c4 943d ed61 8abd
00000320: db30 a23e 2ddb 183d c50b 313e c934 1fbd
00000330: 60af c73d 11db cabd cd5c c13b 90ae dc3c
00000340: aa8c 9b3d 3ae0 83be a309 e93d b088 1ebd
00000350: b032 ae3d ccb5 393e 119b 49bd 91a3 f3bd
00000360: ccd8 ddbd 16a9 9b3c 94d0 593d 633b f03d
00000370: 7562 85bd c690 7b3d 22a9 c9bd d8f7 813c
00000380: 7b9a 27be 7e48 693b 96c3 c83d 29b2 5a3d
00000390: 856b 6fbd 622a 123e b82f 1ebe 5766 563d
000003a0: bc66 203e dcf5 3b3e 201c 3cbe c133 11be
000003b0: 78c2 83bd c9c5 ce3d eb33 4a3e 7b4a b1bb
000003c0: 630b cd3d 4c39 ec3c b7b2 70be f588 27bd
000003d0: 0e4b 35be 53a0 e2bc eb40 24be 1029 a2b9
000003e0: 5ebe 31be 342f ed3d c612 9b3d 50ed 0dbe
000003f0: 1fff 2b3d 06db 1b3e 7a38 e5bd 99c3 9abd
-0.05237602 0.14278105 -0.057001594 -0.029797085 0.038473174 -0.04381585 0.12661313 0.00058537413
-0.10548849 0.07807694 0.028375994 0.13047826 -0.013772987 0.02556394 -0.10119495 -0.07076791
0.026561094 -0.029538132 0.07134749 -0.17857535 -0.048237894 0.031143527 -0.12437471 -0.010335892
0.06358178 0.07464058 0.06553986 0.039692316 0.044497807 -0.14573902 0.03600318 -0.042132117
-0.07540553 -0.060029764 -0.13734506 -0.04938479 -0.05298471 -0.04995982 -0.0023738553 -0.0310398
-0.10460231 0.048582196 -0.07622956 0.009935533 0.1194611 -0.0025271922 -0.057222698 0.054576635
0.11808864 -0.0077120033 0.025117617 0.22110225 0.018668255 -0.13809852 0.014317273 0.044723693
0.15324356 0.0721719 0.048272368 -0.04027103 0.036168873 0.01242525 0.06786565 0.04265767
-0.05451867 0.091428615 0.19207834 0.07417362 0.0031770493 -0.039049014 -0.1059338 0.34752038
0.048932727 -0.3339423 0.16392422 -0.03671651 0.016484879 -0.03463422 -0.009365805 0.13909917
0.10970934 -0.0134009505 -0.04182888 0.04664673 0.006686656 -0.10047799 0.11209458 0.05173094
0.025523504 0.021029217 -0.042236958 -0.0068456875 0.13603644 0.08482365 -0.009572159 0.004887793
-0.071882196 0.0968627 -0.1792548 -0.14620139 -0.014793054 -0.041484725 0.044021007 0.033839177
0.042615663 -0.06628585 -0.0123499995 -0.042885095 -0.020489097 -0.13529013 0.070713535 0.09522628
-0.1797645 0.08458176 0.038899146 -0.008706226 0.09003368 -0.09348696 0.05510281 -0.05885462
0.020824125 0.03881667 0.016877836 -0.021280296 0.040048677 0.083051674 0.010554008 0.06779426
-0.2017303 -0.031009339 -0.06782139 -0.11844493 -0.06269597 -0.022888565 -0.058363512 -0.025457233
0.03241602 -0.038083505 -0.04891587 -0.017036129 -0.023585657 -0.044154335 -0.06545532 -0.0033226225
0.16481473 -0.11937422 -0.058679506 0.111705445 -0.16639385 -0.082843356 0.068015434 0.22056815
0.048124813 -0.048842918 0.022574624 0.07359135 -0.105219886 0.0043441574 0.1481625 -0.044565607
0.06293578 0.16162574 -0.06184761 -0.047537647 -0.055047527 -0.09829197 0.013962748 0.028940339
0.0077685667 -0.09395841 0.16550659 0.15668552 0.027042653 0.18140028 -0.071661495 0.076270014
-0.043893725 0.076296866 -0.07154217 0.041437563 -0.06890421 -0.0666391 -0.027628362 -0.04306962
0.09829716 0.05383141 0.07779432 -0.22892699 -0.06319699 -0.11107536 0.08228332 -0.063009486
0.07181174 0.013034816 -0.14804532 0.23610722 -0.15357156 -0.113241106 0.07264006 -0.06756959
0.316779 0.037318397 0.17289646 -0.0388687 0.09750247 -0.09905065 0.0059009553 0.026938707
0.07595189 -0.2575701 0.11378791 -0.038704574 0.085057616 0.18135756 -0.04922015 -0.11896432
-0.10832366 0.019001525 0.05317743 0.11730077 -0.0651292 0.061417364 -0.09846713 0.015865251
-0.16367523 0.0035596187 0.0980293 0.053392563 -0.058452148 0.1427398 -0.15447891 0.052343693
0.1566419 0.18355507 -0.18370104 -0.14179899 -0.06433576 0.10096318 0.19746368 -0.00541049
0.100119375 0.028835915 -0.23505674 -0.040902097 -0.17704412 -0.02766434 -0.16040389 -0.00030929642
-0.17357776 0.11581269 0.0757194 -0.13860059 0.04199135 0.1522027 -0.11192413 -0.075568385

bias f4 [8]
00000000: 09c9 00be aaea 7c3d ea0b e9bd 38fb a73b
00000010: ea93 a83d 8b3a e03e f876 e1bc 965a d9bd
-0.12576689 0.06174723 -0.113792256 0.005126383 0.08231337 0.43794665 -0.027522549 -0.10612981
