sim2real/policies/reach/policy.pt (torch, 37426 bytes, 6 tensors)

weight f4 [64, 31]
0	0x3fa64973	1.2991165
1	0x3f2fb072	0.6862861
2	0x3ee25db8	0.44212127
3	0x3e79dc5d	0.24400468
4	0x3eb3ffd4	0.3515612
5	0x3eef134f	0.4669442
6	0xbe687ede	-0.22704646
7	0x3e73db5a	0.23814145
8	0x3d92261a	0.071361735
9	0xbddcf6d2	-0.10789265
10	0x3e8adb54	0.2712046
11	0x3d41dd09	0.047329936
12	0x3c5df904	0.0135481395
13	0x3ceb13fb	0.02869605
14	0xbd5688fd	-0.052376736
15	0x3e1b92a8	0.15192664
16	0x3f24ab11	0.64323527
17	0x3e33e54f	0.17567943
18	0xbede5390	-0.43423128
19	0xbddbef41	-0.107389934
20	0xbece4eed	-0.4029459
21	0xbe3266b4	-0.1742199
22	0x3e7d2c3e	0.24723908
23	0xbb3a53db	-0.002843133
24	0xbdea9245	-0.1145368
25	0xbe9146eb	-0.2837442
26	0xbe030a84	-0.1279698
27	0xbbfadc36	-0.0076556457
28	0xbd9c16fc	-0.076215714
29	0xbe7b22cc	-0.24524993
30	0x3f1d1e4e	0.61374366
31	0xbebb0aeb	-0.36531767
32	0x3d7cf161	0.061753634
33	0xbf12850c	-0.57234263
34	0xbeae1a9f	-0.34004685
35	0x3f52bd2f	0.8231992
36	0xbe8aa8d5	-0.27081934
37	0x3e48c7c8	0.1960746
38	0x3dedf7e6	0.116195485
39	0xbec8b7d1	-0.3920274
40	0xbdc0fa69	-0.09422762
41	0xbd946d1a	-0.07247372
42	0x3c97fa6f	0.018552033
43	0x3caafd5c	0.020872764
44	0x3eb5141d	0.35366908
45	0xbe6fe09f	-0.2342553
46	0x3d984559	0.07435102
47	0x3e51160b	0.20418565
48	0xbfc94472	-1.5724013
49	0xbf547eb8	-0.8300586
50	0xbecd9739	-0.40154436
51	0xbea3c65d	-0.31987277
52	0xbeb9168a	-0.36150008
53	0x3ecbb2b1	0.39784768
54	0x3e87c82e	0.26519912
55	0x3c50f76c	0.0127543025
56	0x3e0393c5	0.12849338
57	0x3ea30210	0.3183751
58	0x3e36e1aa	0.17859522
59	0xbcbce928	-0.023060396
60	0x3c4dc694	0.012559552
61	0xbde35283	-0.11099722
62	0xbe148948	-0.14505494
63	0x3e7a1d7f	0.24425314
64	0xbddb4e8f	-0.10708343
65	0x3f290522	0.6602346
66	0x3ec21aab	0.3791097
67	0xbe8e7aaf	-0.27827975
68	0xbc282de3	-0.0102648465
69	0xbe144dd2	-0.14482811
70	0x3e37544e	0.17903253
71	0x3d872f0e	0.06600772
72	0x3eb6e4cb	0.3572143
73	0xbe785422	-0.24250844
74	0x3c00be67	0.007857895
75	0xbd935c8e	-0.07195388
76	0xbdca5c44	-0.098808795
77	0x3dce89be	0.10084866
78	0x3ee7e4eb	0.45291838
79	0x400d0294	2.2032824
80	0xbf1051e7	-0.56374973
81	0x3e73958e	0.2378752
82	0x3e92d24c	0.2867607
83	0x3e934e8f	0.28770873
84	0xbda8d8d8	-0.08244485
85	0x3dd57a0b	0.104236685
86	0xbce2affb	-0.027671805
87	0xbe7c649f	-0.24647759
88	0xbe976218	-0.29567027
89	0x3e1eb6ac	0.15499371
90	0xbe0aaadb	-0.13541739
91	0xbd4b6673	-0.04965825
92	0x3e96738e	0.29385036
93	0xbede7ec2	-0.43456084
94	0x3f6b46e5	0.9190505
95	0xbd5910fc	-0.052994713
96	0x3f14312a	0.5788752
97	0x3e8ad8b0	0.27118444
98	0xbe7545e0	-0.23952436
99	0x3db96ff2	0.09054555
100	0xbedbc90a	-0.42926818
101	0xbe1885be	-0.14894769
102	0x3e01c929	0.12674393
103	0xbe773815	-0.24142487
104	0xbebdb456	-0.37051648
105	0xbe8e4214	-0.2778479
106	0xbe3a1f0b	-0.18175904
107	0xbe62f7b8	-0.2216481
108	0xbe7bc403	-0.24586491
109	0xbf123244	-0.5710795
110	0x3da1df91	0.0790397
111	0x3e408801	0.18801881
112	0xbd8e6cd8	-0.06954354
113	0x3d2766a9	0.04086939
114	0xbe78b1cf	-0.24286579
115	0xbe894ca9	-0.268163
116	0xbd458203	-0.048219692
117	0xbe9d7fd7	-0.30761597
118	0xbdd055f4	-0.10172644
119	0xbdff32df	-0.12460875
120	0xbd96568d	-0.07340727
121	0xbe03389d	-0.12814565
122	0xbdd5e88f	-0.10444748
123	0xbea63271	-0.3246036
124	0xbef9fce7	-0.48825762
125	0xbed47e5d	-0.41502658
126	0xbe7d6a52	-0.24747589
127	0xbf1af7fa	-0.6053463
128	0xbd311299	-0.043230627
129	0xbe6b1184	-0.229559
130	0x3daeb489	0.08530528
131	0x3cbd7d3a	0.023131002
132	0xbe9e1c42	-0.30880934
133	0xbda064c9	-0.07831723
134	0xbd898037	-0.06713908
135	0xbe838266	-0.25685424
136	0x3e571629	0.21004547
137	0xbe8b0382	-0.27151114
138	0xbd5cc51e	-0.053898923
139	0x3e1192e2	0.14216188
140	0xbebf9564	-0.37418664
141	0x3f816d18	1.0111418
142	0x3f461d2f	0.7738828
143	0xbed3ff60	-0.41405773
144	0x3e9e41e2	0.3090964
145	0xbe7a93c6	-0.24470434
146	0xbe7d4f7e	-0.24737355
147	0x3d777932	0.060418315
148	0xbe065923	-0.1311994
149	0x3dd1c5e6	0.10242824
150	0x3c4d5ef7	0.012534848
151	0x3c3cce9a	0.011523867
152	0xbe1dbc50	-0.15403867
153	0xbe8116f1	-0.25212815
154	0x3e1cd0ed	0.15314074
155	0x3ec4477b	0.38335785
156	0x3f5e2fd4	0.8679173
157	0x3e59dfae	0.21276733
158	0xbdc31c2e	-0.09526859
159	0x3e84e8b1	0.2595878
160	0xbea33f09	-0.3188403
161	0x3dcc3d0a	0.0997258
162	0xbdbdc2b8	-0.09265655
163	0xbe36bc0f	-0.17845176
164	0xbe11abc3	-0.14225678
165	0x3d879188	0.06619555
166	0x3d078e58	0.033094734
167	0x3ea20c96	0.31650227
168	0x3ccc43c8	0.024934664
169	0xbd87d2b5	-0.06631986
170	0x3dd8acca	0.10579832
171	0xbdb9737f	-0.09055232
172	0x3f1a2d46	0.6022533
173	0xbedc8aa1	-0.43074515
174	0xbf39bb8a	-0.72551787
175	0xbe8c696f	-0.2742419
176	0xbf41d864	-0.7572081
177	0x3e8db79c	0.27679145
178	0x3e304490	0.17213655
179	0xbea7f9a9	-0.32807663
180	0xbe3dab4c	-0.18522376
181	0x3d0d5158	0.034501404
182	0xbe02adb0	-0.12761569
183	0xbe2c92cc	-0.16852874
184	0x3e91c26f	0.28468654
185	0x3f40b235	0.7527192
186	0x3fc2cbe2	1.521847
187	0x3e2d4286	0.16919908
188	0x3f136a7e	0.5758437
189	0xbf06dc03	-0.5267946
190	0x3dcf824b	0.10132273
191	0xbe095857	-0.13412605
192	0x3ef459fe	0.4772491
193	0x3e7b76a1	0.24556972
194	0xbd115f95	-0.035491545
195	0xbe0ff05e	-0.14056537
196	0x3e13d0bf	0.14435099
197	0xbd06c830	-0.032905757
198	0x3d177f26	0.036986493
199	0xbd9904a3	-0.074715875
200	0xbe1e313c	-0.15448469
201	0x3da5aa5f	0.08089136
202	0x3edb7fe9	0.42871025
203	0x3fdc25be	1.7199018
204	0xbf586ee8	-0.8454423
205	0xbe642eb6	-0.22283444
206	0xbefaa6f4	-0.489555
207	0xbe8d05ca	-0.2754348
208	0x3ea46a14	0.3211218
209	0x3e4253c7	0.18977271
210	0x3cf8a355	0.03035132
211	0x3dcc318c	0.09970388
212	0xbdacdad3	-0.08440175
213	0xbe0c098e	-0.1367552
214	0xbe127b64	-0.14304882
215	0x3e757069	0.23968662
216	0xbde8995b	-0.11357375
217	0xbf27aca4	-0.65497804
218	0xbe373713	-0.17892103
219	0xbeab200d	-0.3342289
220	0xbf39b85b	-0.7254693
221	0xbdc78400	-0.09741974
222	0x3eb99111	0.3624349
223	0x3ead611d	0.33863154
224	0xbeab4c29	-0.33456543
225	0x3ec825f1	0.39091447
226	0x3e37f9ab	0.17966335
227	0x3e107544	0.14107233
228	0xbe1d08b6	-0.15335354
229	0x3d2e8afc	0.042613015
230	0xbd0230ed	-0.03178494
231	0x3e2011f4	0.15631849
232	0xbd32ae74	-0.043623403
233	0x3eeccfcc	0.46252286
234	0xbfd9ee27	-1.7025803
235	0xbf1e5172	-0.61843026
236	0x3dc8872a	0.097914055
237	0x3e16a662	0.14711908
238	0xbd5e01ef	-0.054201063
239	0xbee745d7	-0.4517047
240	0x3dfa4f6c	0.1222218
241	0x3dab2a7d	0.08357713
242	0x3ddd6042	0.10809375
243	0xbd830f34	-0.06399384
244	0x3dcb9e74	0.09942332
245	0xbc7d8443	-0.015473428
246	0xbc68d987	-0.014212019
247	0x3eae1887	0.34003088
248	0x3f7c9cfd	0.98677045
249	0x3daa4516	0.08313958
250	0x3e218d7c	0.15776628
251	0xbf2e577f	-0.6810226
252	0xbca269b1	-0.019825788
253	0xbecfe481	-0.40604022
254	0x3e5083c4	0.20362765
255	0xbee2d79c	-0.44305122

bias f4 [64]
0	0xba5480ed	-0.00081063696
1	0x3e12ce93	0.14336614
2	0xbea1f546	-0.3163244
3	0xbedfe0db	-0.4372624
4	0xbd2970f2	-0.04136748
5	0xbe62f6da	-0.22164479
6	0x3d8fb67f	0.0701723
7	0x3e984b19	0.29744795
8	0xbe6be79d	-0.23037572
9	0xbd8c2bb5	-0.06844274
10	0xbd9542a4	-0.07288101
11	0xbdd9a6d6	-0.106275246
12	0x3e242c57	0.1603254
13	0xbc8ba50c	-0.017046474
14	0xbe222885	-0.1583577
15	0xbe99d088	-0.3004191
16	0x3e1ad292	0.15119389
17	0xbe8e86f3	-0.27837333
18	0x3d332187	0.043733146
19	0xbe678238	-0.22608268
20	0x3e9b6bdc	0.30355728
21	0xbe335b64	-0.17515332
22	0xbead189b	-0.33807835
23	0xbe19379b	-0.14962618
24	0x3d2a1423	0.04152311
25	0xbd54952b	-0.05190007
26	0x3e630933	0.22171478
27	0xbea42fc3	-0.3206769
28	0xbe295a68	-0.16538393
29	0xbdccafb6	-0.09994452
30	0xbdd10a78	-0.10207075
31	0xbdd1d81a	-0.10246296
32	0xbe475be4	-0.19468647
33	0xbe4659e4	-0.19370228
34	0xbe9cb65f	-0.30607888
35	0xbe8dd22f	-0.2769942
36	0xbcd1f066	-0.025627326
37	0x3e2e089a	0.16995469
38	0x3d064244	0.03277804
39	0xbe52e5c4	-0.20595461
40	0x3d2731c0	0.04081893
41	0x3cbdb906	0.023159515
42	0xbed9d062	-0.42541796
43	0xbe9099d7	-0.2824237
44	0xbe83ab17	-0.2571647
45	0x3db5f98b	0.08885487
46	0x3eaa3de0	0.33250332
47	0xbe74eae6	-0.23917732
48	0xbe45ad8b	-0.19304483
49	0xbe678c2f	-0.2261207
50	0xbe842bc3	-0.25814638
51	0xbcd9991f	-0.026562272
52	0xbd28f346	-0.04124763
53	0xbeac6185	-0.33668151
54	0xbe13bbd0	-0.14427114
55	0x3ded708e	0.11593734
56	0xbeadf47a	-0.33975583
57	0xbf098b21	-0.5372792
58	0xbe411d75	-0.18858893
59	0xbc80d684	-0.015727289
60	0xbe4c8996	-0.1997436
61	0xbd0bdcb2	-0.03414602
62	0xbecd9e57	-0.40159866
63	0x3eb4c723	0.3530818

weight f4 [64, 64]
0	0x3d1e82c3	0.038698923
1	0x3e12ade6	0.1432415
2	0x3e72f7a8	0.23727286
3	0x3da79abd	0.08183811
4	0xbe572c7a	-0.2101306
5	0xbe401121	-0.18756534
6	0xbdaf76c4	-0.085675746
7	0xbea723ed	-0.32644597
8	0x3dae169f	0.085004084
9	0x3e0dd267	0.13849793
10	0xbeb122ea	-0.3459695
11	0xbe6c47b2	-0.23074225
12	0xbdd737dc	-0.10508701
13	0x3e3e605e	0.18591449
14	0x3dee02c1	0.11621619
15	0x3efd9c8f	0.49533507
16	0xbe06f00d	-0.1317751
17	0xbeb79925	-0.35859028
18	0xbc9960a0	-0.018722832
19	0xbe321299	-0.17389907
20	0xbdd4aca9	-0.10384495
21	0x3e1bca8f	0.15213989
22	0x3d528298	0.051394075
23	0x3e52acdc	0.20573753
24	0xbdae4f24	-0.085111886
25	0x3d97c08e	0.07409774
26	0x3c5a0fd3	0.013309437
27	0xbe1a8d59	-0.15092982
28	0x3e235d44	0.15953547
29	0x3e398d61	0.18120338
30	0xbc84a30a	-0.016191024
31	0xbe11eaa7	-0.14249669
32	0xbe0a927c	-0.13532442
33	0x3df28f75	0.118437685
34	0x3e65e328	0.22449934
35	0x3c8b135f	0.01697701
36	0x3d8ec26a	0.06970675
37	0x3caa43dc	0.020784311
38	0xbcf3ef6d	-0.029777253
39	0x3e043bf3	0.12913494
40	0x3e8bcbb0	0.2730384
41	0xbe067081	-0.13128854
42	0x3dca659c	0.09882662
43	0x3da8dd8a	0.0824538
44	0x3eb2eca0	0.34946156
45	0x3e8628d8	0.26203036
46	0xbd294e8d	-0.041334677
47	0x3dc30863	0.09523084
48	0x3e27eec9	0.16399683
49	0x3dab9b4d	0.08379231
50	0xbdf17694	-0.11790195
51	0xbd551769	-0.05202428
52	0x3ec7a967	0.3899643
53	0xbda4d12e	-0.0804771
54	0x3d8b9c0c	0.06816873
55	0xbe18c650	-0.149194
56	0x3efb86d1	0.49126294
57	0x3ec50a63	0.38484487
58	0x3e55a5b6	0.20863995
59	0xbd4c1caf	-0.049832042
60	0x3e16c4b5	0.14723475
61	0x3c849eda	0.016189028
62	0x3de1dacd	0.11028061
63	0x3ce1c255	0.027558485
64	0x3d60716c	0.054795668
65	0x3e7b2185	0.24524505
66	0x3e3cee53	0.18450288
67	0x3dd39079	0.1033029
68	0xbe5e2273	-0.21692829
69	0x3ebc8735	0.36821905
70	0x3e0b8262	0.13623956
71	0xbdae6e2c	-0.08517107
72	0x3d24eb02	0.040263183
73	0x3cb61997	0.022228999
74	0x3dde6e57	0.108608894
75	0x3e459b91	0.19297625
76	0x3e95dc1b	0.2926949
77	0x3e46901a	0.19390908
78	0xbde1b19e	-0.11020206
79	0xbefcefd6	-0.4940173
80	0xbc86d129	-0.016457157
81	0x3eaaa81b	0.3333138
82	0xbd34a98f	-0.044107016
83	0xbeda3ca1	-0.4262438
84	0xbec9f370	-0.3944354
85	0xbabce083	-0.0014410171
86	0xbe2e168d	-0.1700079
87	0x3d73ec22	0.059551366
88	0x3dff1f73	0.1245717
89	0xbd57cb80	-0.052684307
90	0xbe826fbe	-0.25475878
91	0xbdc535da	-0.09629412
92	0x3de69d0b	0.11260422
93	0x3e5507a2	0.20803693
94	0xbca21ed6	-0.019790094
95	0x3df3f5c3	0.1191211
96	0xbbd64af8	-0.0065396987
97	0xbe648d54	-0.22319537
98	0x3d4e15b0	0.05031365
99	0xbe9b09fe	-0.3028106
100	0xbd1724a9	-0.036900196
101	0x3de9236a	0.11383708
102	0x3e8f8fe0	0.28039455
103	0xbc3a5fad	-0.01137535
104	0x3e734417	0.23756443
105	0xbe344db3	-0.17607765
106	0x3e417d32	0.18895414
107	0xbc855de7	-0.016280128
108	0x3e27e76c	0.16396874
109	0x3e468a29	0.19388641
110	0x3ca1422b	0.019684872
111	0x3d3ac054	0.045593575
112	0xbcbf99c5	-0.023388753
113	0x3cf82066	0.030288886
114	0x3eadeca5	0.33969608
115	0x3d2dd2ef	0.04243749
116	0x3deafd8f	0.11474144
117	0xbe8434f9	-0.25821665
118	0x3d9a8f98	0.075469196
119	0xbe647244	-0.22309214
120	0x3eb6ece8	0.3572762
121	0x3eb56f3d	0.3543643
122	0xbddc93f7	-0.107704096
123	0xbde46960	-0.11152911
124	0x3d864cc5	0.065576114
125	0x3e8444a2	0.25833613
126	0x3da7908d	0.08181868
127	0xbe22a211	-0.15882136
128	0x3e203f7c	0.15649217
129	0x3c907eb7	0.017638547
130	0xbdb85598	-0.09000701
131	0x3e0b2e39	0.13591851
132	0xbca7af49	-0.020469325
133	0x3e0d3263	0.13788752
134	0x3da49a21	0.0803721
135	0xbe525ee3	-0.20544009
136	0xbe1ff946	-0.15622434
137	0x3e273dd8	0.16332185
138	0xbefc3d75	-0.49265638
139	0x3e86cd4f	0.26328513
140	0xbe916a3c	-0.28401363
141	0xbf03ece8	-0.51533365
142	0xbe2c1188	-0.16803563
143	0x3e9733e6	0.29531783
144	0x3d8ddaf6	0.06926529
145	0xbe383f54	-0.17992908
146	0xbc238410	-0.009980217
147	0xbf380788	-0.7188649
148	0x3e72ad64	0.23698956
149	0xbc53133d	-0.012883005
150	0x3db1b2d0	0.08676684
151	0x3ce2a64c	0.027667187
152	0x3e8c276c	0.27373827
153	0xbe22065a	-0.15822735
154	0x3dfbad46	0.12288909
155	0x3bfb320b	0.0076658777
156	0xbe7589d3	-0.23978357
157	0x3e47936f	0.19489835
158	0xbc162227	-0.009163416
159	0xbd4d601a	-0.050140478
160	0x3e92155c	0.2853192
161	0xbe60f2be	-0.21967599
162	0x3a5a0c37	0.000831786
163	0xbe4e2be1	-0.20133926
164	0x3d3335b2	0.04375238
165	0x3e07d2f1	0.13264062
166	0xbe9d369e	-0.30705732
167	0x3c9a4c27	0.01883514
168	0x3da88ef2	0.0823039
169	0xbeb4df15	-0.35326448
170	0x3e2bfbc0	0.16795254
171	0xbe05b97b	-0.13059036
172	0x3ec9395c	0.39301574
173	0xbda58986	-0.08082871
174	0x3e40c66e	0.18825695
175	0x3e91230a	0.28347045
176	0x3e30dcdf	0.17271756
177	0x3e8c1257	0.27357742
178	0x3e53264f	0.20620082
179	0x3e4e6c01	0.20158388
180	0x3e8c112b	0.27356848
181	0xbe00d004	-0.12579352
182	0xbccdd7fc	-0.025127403
183	0xbe91a1fb	-0.28443894
184	0xbc4a6a34	-0.012354422
185	0xbe33599f	-0.17514656
186	0xbe328a90	-0.1743567
187	0x3e394d1b	0.1809582
188	0x3eeb659a	0.45975953
189	0x3e6169f1	0.2201307
190	0x3dea1c33	0.1143116
191	0x3d54fa3f	0.051996466
192	0xbc71f707	-0.014768369
193	0xbe5b634b	-0.21424596
194	0x3ebab4bb	0.3646601
195	0x3e032ab7	0.12809263
196	0x3d3f31d4	0.04667838
197	0x3d5d90ee	0.054093294
198	0x3dee844a	0.11646326
199	0x3df549ed	0.11976991
200	0x3e48bd24	0.19603401
201	0xbe3f73c3	-0.18696503
202	0xbdd5b748	-0.10435349
203	0xbdc86ffb	-0.097869836
204	0x3e4de706	0.2010766
205	0xbe9322ef	-0.2873759
206	0xbd4f0dde	-0.050550334
207	0xbe42192f	-0.1895492
208	0x3c498fcc	0.01230235
209	0x3e96b833	0.29437408
210	0x3d097e15	0.033567507
211	0x3e16e3d9	0.14735354
212	0xbdfb1504	-0.12259868
213	0x3dda2d24	0.10653141
214	0x3d944d49	0.072413035
215	0x3d80bb56	0.062857315
216	0x3d40cd64	0.047070876
217	0x3dea498d	0.1143981
218	0xbd1af480	-0.03783083
219	0xbe4ea07e	-0.2017841
220	0x3de9a502	0.11408426
221	0x3d938c09	0.07204444
222	0xbc6fd48c	-0.0146380775
223	0x3cdf7ba5	0.027280638
224	0x3d0a89fd	0.033823002
225	0x3e8a24b4	0.26981127
226	0x3da51ab9	0.080617376
227	0xbd367f6c	-0.044555113
228	0xbf19ce28	-0.60080194
229	0xbd1c93cf	-0.0382269
230	0x3e662df7	0.22478472
231	0xbef1ef18	-0.47252727
232	0xbe1124a4	-0.14174134
233	0xbd8798ac	-0.06620917
234	0xbe96f2a0	-0.29481983
235	0xbbbc43ba	-0.0057453783
236	0xbdb1a50c	-0.08674058
237	0xbe75b609	-0.23995222
238	0x3ccbbf35	0.024871448
239	0xbdcfcd4f	-0.101465814
240	0xbd55a520	-0.05215943
241	0x3a813b90	0.000985967
242	0x3e419699	0.18905105
243	0xbe88c2db	-0.26711163
244	0xbe109fac	-0.1412341
245	0xbccf4a09	-0.025303857
246	0x3d7a3477	0.06108519
247	0x3e493542	0.19649222
248	0xbc6e9efd	-0.014564273
249	0xbdb1fee5	-0.086911954
250	0xbd6ac6f9	-0.05731866
251	0xbe40b438	-0.18818748
252	0xbe9e0074	-0.3085972
253	0xbde8d51e	-0.11368774
254	0xbdb8ccdb	-0.09023448
255	0xbd3390e9	-0.04383937

bias f4 [64]
0	0xbe8d449b	-0.27591404
1	0xbe4fd9e2	-0.2029796
2	0xbe434cdc	-0.19072288
3	0xbcbdb81f	-0.023159085
4	0xbed9372f	-0.42424914
5	0xbe4fca6d	-0.20292063
6	0xbda6add6	-0.08138625
7	0xbe48ae97	-0.1959785
8	0xbe604689	-0.21901907
9	0xbd6a2aa4	-0.05716957
10	0xbe08279c	-0.1329636
11	0x3da6ed93	0.081507824
12	0x3dfe8561	0.12427784
13	0xbe001806	-0.12509164
14	0xbeb36115	-0.35035005
15	0xbd51308f	-0.0510717
16	0xbe040581	-0.12892725
17	0xbeb22cd7	-0.34799835
18	0xbe998f34	-0.29992068
19	0xbe9ab8ac	-0.30219018
20	0xbe249e9e	-0.16076133
21	0xbe557b08	-0.20847714
22	0xbe3d4bca	-0.18485942
23	0xbdd72f87	-0.10507112
24	0xbd902c2e	-0.070396766
25	0xbdfa9791	-0.1223594
26	0xbe40bedf	-0.18822812
27	0xbdbd7414	-0.09250656
28	0xbeb57185	-0.3543817
29	0xbde4f9dd	-0.1118047
30	0xbd1680ec	-0.036744043
31	0xbd8fdc3a	-0.07024427
32	0xbeec24a9	-0.4612172
33	0xbea5fa8c	-0.32417715
34	0xbd215dfb	-0.039396267
35	0xbe815b6c	-0.25265062
36	0xbe6e30db	-0.23260824
37	0xbe75afc7	-0.23992835
38	0xbea27e9d	-0.31737223
39	0xbe73c144	-0.23804194
40	0xbe86bfd3	-0.26318225
41	0xbe546aa2	-0.20743802
42	0xbdef8d83	-0.11696913
43	0xbe953fb3	-0.2915016
44	0x3c9fcd5d	0.019507105
45	0xbdf5bfac	-0.11999449
46	0xbea60c18	-0.32431102
47	0x3dc6da20	0.09709573
48	0xbe929896	-0.2863204
49	0xbe545d1b	-0.20738642
50	0xbcf1ef40	-0.029533029
51	0xbe862b3e	-0.26204866
52	0xbe8fcc32	-0.28085476
53	0xbea365cc	-0.31913602
54	0xbe0f356f	-0.13985227
55	0xbd18e770	-0.03733009
56	0xbee7f117	-0.45301124
57	0xbd62ecdc	-0.055401668
58	0xbbb5bbee	-0.0055460846
59	0xbe1f1c53	-0.15538149
60	0xbea7b16c	-0.3275255
61	0xbdd76b4b	-0.105185114
62	0xbea1313d	-0.31482878
63	0xbd59dc11	-0.053188387

weight f4 [8, 64]
0	0x3d5a3423	0.053272378
1	0x3daa23f7	0.08307641
2	0xbe366e87	-0.178156
3	0xbd1eee5e	-0.038801543
4	0xbdc7c6f4	-0.09754744
5	0xbd59c912	-0.05317027
6	0xbda85fba	-0.082213834
7	0xbdaa9e87	-0.08331018
8	0x3d1038de	0.035210483
9	0xbdbfdb02	-0.09367944
10	0xbd80e67d	-0.06293962
11	0xbd1e371d	-0.03862678
12	0x3d332bdf	0.04374301
13	0x3d9e0a96	0.07716863
14	0x3e13042a	0.14357057
15	0x3dabbbbb	0.08385416
16	0xba95e826	-0.0011436983
17	0xbc4ed446	-0.012623852
18	0x3e678fd5	0.22613461
19	0xbcc320b6	-0.023819309
20	0xbe221d16	-0.15831408
21	0x3dbe1220	0.09280801
22	0x3d120e6e	0.035658292
23	0xbd32724b	-0.04356603
24	0xbe1c0d8e	-0.15239546
25	0x3d365d75	0.04452272
26	0x3beb0ac6	0.007172915
27	0xbcea24b4	-0.028581955
28	0xbc8b5209	-0.01700689
29	0xbd431fe0	-0.04763782
30	0xbd97400c	-0.07385263
31	0xbe788b18	-0.2427181
32	0xbd925fb6	-0.07147162
33	0x3d81a279	0.06329817
34	0xbcff1a35	-0.031140426
35	0xbd73eb13	-0.059550356
36	0x3d13d7dd	0.036094535
37	0x3dbcf340	0.09226084
38	0x3b9c3630	0.004767202
39	0xbd1f04de	-0.038823
40	0x3e784222	0.24243978
41	0xbde968fb	-0.113969766
42	0xbde58f14	-0.112089306
43	0x3c11a5f7	0.008889667
44	0xbd6e5b0e	-0.058192305
45	0x3c01b5c4	0.007916871
46	0x3c525e18	0.0128398165
47	0x3ca028f0	0.01955077
48	0x3c998f9b	0.018745234
49	0x3bd48573	0.006485635
50	0x3d73438c	0.05939059
51	0x3db215ea	0.08695586
52	0x3c1db2ce	0.00962515
53	0x3ddd836f	0.108160846
54	0xbd84d9b8	-0.06486839
55	0xbda09727	-0.0784133
56	0x3d6f8ead	0.058485676
57	0xbda899ec	-0.08232483
58	0xbd0dbf8c	-0.0346065
59	0x3b9c93f4	0.0047783796
60	0x3d0b3749	0.03398827
61	0x3d791da3	0.06081928
62	0x3d9bc011	0.07604993
63	0xbdf43934	-0.11924973
64	0xbd6069ae	-0.054788284
65	0xbda413d2	-0.08011593
66	0x3c0f01a6	0.00872842
67	0x3dbd0896	0.09230153
68	0xbda1d9e2	-0.07902886
69	0xbe0f813c	-0.14014143
70	0x3b8ce236	0.0042994274
71	0xbdf303bb	-0.11865946
72	0xbdbbb30e	-0.09165011
73	0xbdb7a087	-0.08966165
74	0x3e03d2eb	0.12873428
75	0x3b82dd67	0.0039936784
76	0xbbb07a91	-0.005385705
77	0xbc708bd4	-0.014681775
78	0x3c52900c	0.012851726
79	0x3d3e75fc	0.046499237
80	0xbd8e207e	-0.06939791
81	0xbd334bc1	-0.043773416
82	0x3d5e8583	0.054326545
83	0x3bae10d7	0.005312066
84	0xbda246ac	-0.07923636
85	0xbce562d6	-0.02800123
86	0x3db03450	0.08603728
87	0x3d5c6783	0.053809654
88	0x3d667729	0.056265984
89	0x3ca0e635	0.019641021
90	0xbcf0ef2f	-0.029410927
91	0xbbd571a0	-0.0065137893
92	0xbde8c5ea	-0.11365874
93	0x3d3abd3a	0.045590617
94	0x3d191978	0.037377805
95	0x3ca23d6b	0.019804677
96	0x3d398de3	0.04530133
97	0xbdc52c38	-0.09627575
98	0x3cfb549d	0.030679995
99	0x3d0db41e	0.0345956
100	0xbe10f046	-0.14154157
101	0xbe1aa1db	-0.15100805
102	0xbe2b602f	-0.1673591
103	0xbce44e6b	-0.027869424
104	0x3c521627	0.012822664
105	0x3c5f7b71	0.013640271
106	0xbdae8d82	-0.08523084
107	0xbd47a044	-0.048736826
108	0xbc10e22e	-0.008842988
109	0xbddbfc84	-0.10741523
110	0x3d926fe8	0.07150251
111	0x3c646166	0.013939237
112	0xbe06ef8f	-0.13177322
113	0xbd37b6e3	-0.04485215
114	0x3d00fd6c	0.031491682
115	0x3c65d9ee	0.014029009
116	0xbdd7c476	-0.10535519
117	0xbe062a73	-0.1310213
118	0x3b3747fc	0.002796649
119	0xbd4cd264	-0.05000533
120	0xbdcf1358	-0.101111114
121	0x3c421909	0.011846789
122	0x3e19fb3a	0.15037242
123	0xbd068488	-0.032841235
124	0xbd13d7e4	-0.03609456
125	0x3da142be	0.07874058
126	0x3df65989	0.12028796
127	0x3df5b1a7	0.11996775
128	0xbe03616e	-0.12830135
129	0xbdc942fe	-0.09827231
130	0x3d680d01	0.056653026
131	0xbd60fe74	-0.054930165
132	0xbcd19d11	-0.02558759
133	0xbd62e612	-0.055395193
134	0x3dada91e	0.08479522
135	0xbd69a843	-0.057045233
136	0xbdc3bba8	-0.09557277
137	0xbbc94316	-0.0061420305
138	0xbe51a063	-0.20471339
139	0x3d7a87a3	0.06116451
140	0x3d16e387	0.03683808
141	0xbbe3bdea	-0.0069501298
142	0x3d0ba5e8	0.034093767
143	0xbd941e2a	-0.07232316
144	0xbc452ac5	-0.012034123
145	0x3d8b6df6	0.06808083
146	0xbd65b72e	-0.056082897
147	0xbcb3f460	-0.021967113
148	0x3d16bc90	0.03680092
149	0xbe21c3fb	-0.15797417
150	0xbd087475	-0.033314187
151	0xbd1aafdc	-0.03776537
152	0x3cc3deea	0.023910005
153	0x3d052df4	0.032514527
154	0xbc9ed3c5	-0.019388089
155	0x3df2fe32	0.1186489
156	0xbd86a305	-0.06574062
157	0xbcb2cf26	-0.021827292
158	0x3e32fca3	0.17479186
159	0xbdc7b53b	-0.09751364
160	0xbc4b7317	-0.012417576
161	0xbc248b3c	-0.010042962
162	0xbd5331e0	-0.051561236
163	0x3cecfa6e	0.028928008
164	0x3e1e6a7e	0.15470311
165	0xbd4a7619	-0.049429033
166	0x3da9a3b8	0.0828318
167	0xbca7ce3a	-0.020484079
168	0xbdcb31f2	-0.09921636
169	0xbe2334cf	-0.15938114
170	0xbe01a89b	-0.12661974
171	0x3e69c972	0.22830752
172	0x3dddb529	0.10825569
173	0xbd1c2f94	-0.03813131
174	0x3e2a7507	0.16646205
175	0x3dd7d8b5	0.105393805
176	0x3e63b32e	0.2223632
177	0xbe3d63ae	-0.18495056
178	0x3c494a67	0.012285805
179	0xbd36851a	-0.04456053
180	0x3c5926dd	0.013253895
181	0xbd3090ba	-0.043106772
182	0xbd718eeb	-0.058974188
183	0xbc9d32d1	-0.01918927
184	0xbd178735	-0.036994178
185	0x3d629ccc	0.055325314
186	0x3cf47b60	0.029843986
187	0xbe037289	-0.1283666
188	0xbe126105	-0.14294823
189	0xbca859a2	-0.020550553
190	0x3dcf654b	0.10126742
191	0x3a2384ee	0.00062377646
192	0x3d98105a	0.07424994
193	0xbdf1c193	-0.118044995
194	0xbd59530d	-0.05305772
195	0x3d3886d7	0.04505047
196	0x3e90c8c4	0.28278172
197	0xbd13dcc1	-0.0360992
198	0x3e0365a1	0.12831737
199	0xbdd5b60e	-0.10435115
200	0xbdc98535	-0.0983986
201	0x3d7776b3	0.060415935
202	0x3c02bdcf	0.007979824
203	0x3e22dcb9	0.15904512
204	0x3e008361	0.12550117
205	0xbdcc7669	-0.099835224
206	0xbd1e6a2b	-0.03867547
207	0xbd40d07f	-0.047073837
208	0xbdf93028	-0.12167388
209	0xbbe9600f	-0.007122047
210	0x3e4a2760	0.19741583
211	0xbcb65ba2	-0.02226049
212	0x3d9e16e5	0.077192105
213	0xbcd8c8e9	-0.026462989
214	0x3c40c99c	0.011766817
215	0xbcca9e3d	-0.024733657
216	0x3d2a104c	0.04151945
217	0xbe09a59c	-0.13442081
218	0x3d8f6017	0.070007496
219	0x3d51b375	0.051196534
220	0x3d56b59e	0.052419297
221	0xbe05b7eb	-0.1305844
222	0x3e7a6ce5	0.24455602
223	0x3d64e075	0.05587812
224	0xbe1a0bb5	-0.15043528
225	0xbe692685	-0.227686
226	0x3dd3d541	0.10343409
227	0x3ded9ffe	0.11602782
228	0x3c73cb01	0.014879943
229	0xbd0d0a39	-0.034433577
230	0x3d397938	0.04528162
231	0xbb1c84a6	-0.0023882776
232	0xba825a56	-0.0009945135
233	0xbb9cfb4e	-0.0047907
234	0xbdaa3a4a	-0.08311899
235	0xbc83c84b	-0.016086718
236	0x3d4979e7	0.04918852
237	0x3e8d196f	0.27558467
238	0xbd23ce2b	-0.03999154
239	0x3c3e4147	0.011612243
240	0xbd979c73	-0.07402887
241	0xbd2f914d	-0.04286318
242	0x3e2f4f20	0.17120028
243	0x3d5ada9c	0.05343114
244	0xbd6e4ae5	-0.058176894
245	0xbcc3fede	-0.023925241
246	0xbcc97a2f	-0.024594394
247	0x3d529921	0.051415566
248	0x3bc17618	0.0059039705
249	0xbc0cf641	-0.008603633
250	0x3c7b0204	0.015320305
251	0x3c8ab2b5	0.016930917
252	0x3d7fb158	0.062424988
253	0xbd2a9661	-0.04164732
254	0xbda4370d	-0.080183126
255	0xbe2855b8	-0.16438949

bias f4 [8]
0	0x3c242386	0.010018235
1	0xbcce8067	-0.025207711
2	0xbd1eb546	-0.038747095
3	0x3c1e079e	0.009645371
4	0x3d564edb	0.052321296
5	0xbe0b8dc4	-0.13628298
6	0x3bb726a3	0.0055893227
7	0xbe7cf380	-0.24702263
