sim2real/pretrained_models/reach4/policy.pt (torch, 39986 bytes, 6 tensors)

weight f4 [64, 41]
0	0x3e27092c	0.16312093
1	0xbe4a0345	-0.1972781
2	0x3ef3391b	0.47504506
3	0x3ed77b89	0.42086437
4	0xbd814649	-0.06312234
5	0x3e19870f	0.14992927
6	0xbe88cef9	-0.26720408
7	0x3d7a4533	0.06110115
8	0x3de550ab	0.11197027
9	0xbdc2d4d0	-0.09513247
10	0x3efa8fd9	0.48937872
11	0x3d49bb71	0.049251024
12	0xbd15e1dd	-0.036592353
13	0x3e12e592	0.14345387
14	0x3d212c84	0.039349094
15	0x3dc9d8c9	0.098558016
16	0xbd97f77f	-0.07420253
17	0x3d8b3fd7	0.06799286
18	0xbe5b8553	-0.21437578
19	0xbd2f23b8	-0.042758673
20	0xbd4ac90d	-0.049508143
21	0xbd3c85eb	-0.04602615
22	0xbc8723e7	-0.016496612
23	0xbd0014ef	-0.031269964
24	0xbdf95769	-0.12174875
25	0xbe08270b	-0.13296144
26	0x3cfd27bc	0.030902736
27	0xbe724768	-0.23660052
28	0xbe2d5e64	-0.16930538
29	0xbe1d28a1	-0.1534753
30	0xbe0b9207	-0.13629924
31	0xbeab3bd6	-0.3344409
32	0x3df5279f	0.11970448
33	0x3d1b07be	0.03784918
34	0xbe57bf98	-0.21069181
35	0x3e34f9d8	0.17673433
36	0xbdf1496a	-0.11781581
37	0x3e72119c	0.2363953
38	0xbd59ccac	-0.053173706
39	0xbdf8648f	-0.12128555
40	0x3b191528	0.0023358557
41	0xbe2b8efa	-0.1675376
42	0xbe0deaea	-0.13859144
43	0xbecf6592	-0.4050718
44	0x3eae9deb	0.34104857
45	0xbe54961a	-0.20760384
46	0x3d8d8306	0.06909756
47	0x3e89a252	0.26881653
48	0xbd284b7b	-0.04108761
49	0xbe6acf05	-0.22930534
50	0x3d6805aa	0.056646027
51	0xbe8babcd	-0.2727951
52	0xbd71285a	-0.058876373
53	0x3e285d18	0.16441762
54	0xbd835197	-0.064120464
55	0x3cd9ff90	0.02661112
56	0x3db50a9d	0.08839915
57	0xbd789ae5	-0.060694594
58	0x3c832403	0.016008383
59	0xbd8bc4ca	-0.06824644
60	0xbdc55d0c	-0.09636888
61	0xbd4f1f8a	-0.050567187
62	0xbc7bc516	-0.015366813
63	0xbcbde83a	-0.023182023
64	0x3cc91ee2	0.024550859
65	0xbce58366	-0.028016757
66	0x3d812656	0.0630614
67	0xbd5b9b90	-0.053615153
68	0xbfd978f3	-1.6990036
69	0xbf0365ac	-0.51327014
70	0x3e0f89e6	0.14017448
71	0x3eb3a817	0.3508918
72	0x3e6f08cc	0.233432
73	0xbe028bee	-0.12748691
74	0xbe18f95d	-0.14938875
75	0xbd98e0bf	-0.07464742
76	0xbde4d5f5	-0.111736216
77	0xbd425233	-0.047441673
78	0xbdd84a6a	-0.10561068
79	0x3e6b6097	0.22986065
80	0xbe04a1ec	-0.12952393
81	0x3d06e5f1	0.032934133
82	0x3d2b9fbd	0.041900385
83	0xbdddcf6e	-0.1083058
84	0x3e1f730c	0.1557123
85	0x3cf3b993	0.029751575
86	0x3e055076	0.13018975
87	0xbda01ec2	-0.078183666
88	0xbd8f25fd	-0.069896676
89	0xbda9d915	-0.08293358
90	0x3cfcb9a7	0.030850245
91	0x3e2508ba	0.1611661
92	0x3eb0cb38	0.34530044
93	0x3e746ba5	0.23869188
94	0xbe494154	-0.19653827
95	0x3d4ebeea	0.05047504
96	0x3e3c8318	0.18409383
97	0x3ce0f3d0	0.027460009
98	0x3d6e5bc5	0.058192987
99	0xbdac064f	-0.08399641
100	0x3b13d947	0.0022559927
101	0x3e06d674	0.13167745
102	0x3d57abe6	0.05265417
103	0xbe161b43	-0.14658837
104	0x3da70092	0.08154406
105	0xbe3f6cbb	-0.18693821
106	0xbdbc45e9	-0.09193022
107	0xbda1d392	-0.07901682
108	0xbdd43db9	-0.10363335
109	0xbf650100	-0.8945465
110	0xbe640e25	-0.2227102
111	0x3cfbd7a3	0.030742472
112	0xbd953e85	-0.07287315
113	0xbf003f51	-0.50096613
114	0xbdd28905	-0.10280041
115	0x3c18474c	0.009294342
116	0x3d8052f7	0.06265824
117	0xbd5e312a	-0.054246105
118	0xbd67dbe3	-0.056606185
119	0xbe02e9b3	-0.12784462
120	0x3d247596	0.0401512
121	0x3c2850a4	0.0102731325
122	0x3c9dc748	0.019260064
123	0x3e73eedf	0.23821591
124	0xbeaf6c58	-0.34262347
125	0x3e9784e3	0.29593572
126	0xbdf9a10d	-0.12188921
127	0xbe940703	-0.289116
128	0x3e81482a	0.2525037
129	0xbde97964	-0.114001065
130	0x3d8b3149	0.0679651
131	0xbdbe51cd	-0.09292946
132	0xbda8cf12	-0.082426205
133	0x3d231e87	0.039824035
134	0x3da321bc	0.07965419
135	0xbe2b58d8	-0.1673311
136	0xbda6a54e	-0.08136998
137	0xbe0eb945	-0.13937862
138	0x3e4ae7aa	0.19814935
139	0x3df2a9eb	0.118488155
140	0x3d32f1c4	0.043687597
141	0xbe934926	-0.28766745
142	0xbb94d99e	-0.0045425436
143	0xbd3adfb1	-0.045623485
144	0x3daa1e42	0.083065525
145	0x3ab3ed06	0.0013727255
146	0x3e13a77c	0.14419359
147	0x3dd48dc6	0.10378604
148	0x3e0c1cb6	0.13682827
149	0xbd2cc175	-0.042176683
150	0x3f84e9bb	1.0383829
151	0xbef6c0b7	-0.48193905
152	0xbc8d4201	-0.017243387
153	0xbedcc600	-0.43119812
154	0x3e783b1e	0.24241301
155	0xbdee35dc	-0.116313666
156	0x3e1a7f3f	0.15087603
157	0xbc80d5fc	-0.015727036
158	0xbcad5827	-0.021160198
159	0xbea7137e	-0.3263206
160	0x3e22e4b9	0.15907563
161	0x3cc03a80	0.023465395
162	0xbdb6a479	-0.089180894
163	0xbe95d8e1	-0.29267028
164	0xbe4cc653	-0.1999753
165	0x3e981d8a	0.29710037
166	0xbecdeebf	-0.4022121
167	0x3f3d3d76	0.73921907
168	0x3e1089b5	0.14115031
169	0xbea7aaff	-0.32747647
170	0xbdd26623	-0.10273387
171	0x3db4e2af	0.08832299
172	0x3e2aeee0	0.16692686
173	0x3de5f129	0.11227638
174	0x3eb18c41	0.34677318
175	0x3c95fe66	0.018309783
176	0xbdb713bc	-0.08939311
177	0x3bc00e41	0.005861074
178	0x3e659a2b	0.22422092
179	0xbd92c401	-0.07166291
180	0x3e905be9	0.28195122
181	0x3e01de5a	0.12682477
182	0x3d3e9411	0.046527926
183	0xbd2110ad	-0.039322544
184	0x3cd3d979	0.025860535
185	0x3db6581e	0.08903526
186	0x3daf24ef	0.085519664
187	0x3c7decf8	0.015498392
188	0xbc540fc2	-0.01294321
189	0x3c879417	0.016550107
190	0xbe46f67f	-0.19429968
191	0xbfce79a8	-1.6130877
192	0x3eb8864e	0.36039966
193	0x3e0a867c	0.13527864
194	0xbe3861cb	-0.18006055
195	0xbe692e1e	-0.22771499
196	0x3ab7cbe2	0.0014022554
197	0xbcb86adc	-0.022511892
198	0x3e349905	0.17636497
199	0x3d7144b4	0.05890341
200	0xbe4b16c8	-0.19832909
201	0xbde4138a	-0.11136539
202	0x3dc4a4a1	0.09601713
203	0xbce2ebb1	-0.027700277
204	0x3db61751	0.08891166
205	0xbe4cac5b	-0.19987623
206	0x3ce52e33	0.027976131
207	0x3e846925	0.2586147
208	0x3df09653	0.11747422
209	0x3da0f2ff	0.07858848
210	0x3e2aeb52	0.1669133
211	0x3d8145fd	0.06312177
212	0xbe25044c	-0.1611492
213	0xbd975916	-0.07390039
214	0xbd86407c	-0.06555268
215	0x3e990c16	0.29892033
216	0x3dc9eac3	0.0985923
217	0xbd6c0153	-0.05761845
218	0x3e7aff9b	0.24511568
219	0x3cd1d5f6	0.02561472
220	0x3d7c5662	0.06160582
221	0x3ea96e74	0.33092082
222	0xbdb488dd	-0.08815167
223	0xbd9ff9c8	-0.07811314
224	0xbd906294	-0.07050052
225	0x3e401041	0.187562
226	0x3cd07f38	0.025451288
227	0x3dbdb56e	0.092631206
228	0xbdfc268c	-0.1231204
229	0xbe3127a2	-0.17300275
230	0xbdcb1256	-0.09915607
231	0x3e11480e	0.14187643
232	0x3f311546	0.69173086
233	0xbe0cd7f2	-0.13754252
234	0x3da9085c	0.082535475
235	0xbcc56f02	-0.024100784
236	0xbea2ecec	-0.31821382
237	0xbdf392a7	-0.11893206
238	0xbde5b34e	-0.1121584
239	0x3d3b7978	0.04577014
240	0x3e53401e	0.20629928
241	0x3d2efd2d	0.042721916
242	0xbe2795a8	-0.16365683
243	0xbdda5ffe	-0.1066284
244	0x3e502275	0.20325644
245	0xbe2de0f4	-0.16980344
246	0x3e991127	0.298959
247	0xbe7dc258	-0.24781168
248	0x3e115887	0.14193927
249	0x3c930c89	0.017950313
250	0x3e293014	0.16522247
251	0xbd6780c2	-0.056519277
252	0xbcfe3fac	-0.03103622
253	0xbdfe208d	-0.12408552
254	0xbe18490d	-0.14871617
255	0xbef5165e	-0.47868627

bias f4 [64]
0	0xbe17884b	-0.14798085
1	0x3d1f648d	0.038914252
2	0xbe7d6cf4	-0.24748594
3	0x3bb92d7f	0.0056511755
4	0xbd5beeaf	-0.053694423
5	0xbe5a51ff	-0.21320342
6	0x3d5488b2	0.051888175
7	0xbda2ca05	-0.079486884
8	0xbc204341	-0.00978166
9	0x3ddf33e4	0.10898569
10	0xbe12befe	-0.1433067
11	0xbc3e6f3a	-0.011623198
12	0x3d94baa5	0.07262162
13	0xbda816f6	-0.082075045
14	0xbe094f8d	-0.13409252
15	0xbd55d816	-0.05220803
16	0xbe0c9aa9	-0.13730873
17	0xbd4a493b	-0.049386244
18	0x3dadf680	0.08494282
19	0x3b9a10dd	0.0047017173
20	0xbe2ab79a	-0.16671601
21	0x3ba25181	0.0049535637
22	0xbdc5713b	-0.096407376
23	0xbd84976c	-0.06474194
24	0x3d59b5bd	0.053151835
25	0xbcc7a3b5	-0.024370054
26	0xbd459b91	-0.048244063
27	0xba9c1468	-0.0011907937
28	0x3bdea0be	0.0067940643
29	0xbe337543	-0.175252
30	0xbdea5f23	-0.11443927
31	0xbe064722	-0.13113073
32	0xbd857593	-0.06516566
33	0xbe4f8dab	-0.20268886
34	0x3cfd1121	0.030891957
35	0xbd20ee8f	-0.039290007
36	0xbded0096	-0.115723774
37	0xbe4e924e	-0.20172998
38	0xbe361103	-0.17779927
39	0xbd9a76f9	-0.075422235
40	0xbe22db6e	-0.15904018
41	0xbe36a4b7	-0.17836271
42	0xbddfca96	-0.10927312
43	0x3daccb85	0.08437256
44	0xbd127982	-0.03576041
45	0xbe62ef40	-0.22161579
46	0xbe3b9170	-0.18317199
47	0x3dc5ec62	0.09664227
48	0xbdef5740	-0.116865635
49	0xbd8da89a	-0.06916924
50	0xbe9da902	-0.30793005
51	0xbd11644b	-0.035496037
52	0xbd940f06	-0.07229428
53	0xbdaa577e	-0.08317469
54	0xbd3133e9	-0.043262396
55	0xbe3a127a	-0.18171111
56	0xbc63ea13	-0.013910788
57	0xbdf35c9e	-0.118829
58	0xbb5e852e	-0.0033953893
59	0xbd2f65fe	-0.042821877
60	0xbe1af464	-0.1513229
61	0x3e20d6d9	0.15706958
62	0xbe059990	-0.1304686
63	0xbe2a2742	-0.16616538

weight f4 [64, 64]
0	0xbdc7bc8b	-0.097527586
1	0x3c11fb44	0.008910004
2	0x3e000b7e	0.12504384
3	0x3dd1163d	0.1020932
4	0x3e6e5c49	0.23277391
5	0xbd0fcfee	-0.035110407
6	0x3e09994d	0.13437386
7	0xbcf77fa1	-0.030212225
8	0xbd1dbb1e	-0.038508527
9	0xbe1efb73	-0.15525608
10	0xbe1b5a47	-0.15171157
11	0xbdb63f16	-0.088987514
12	0x3d9b1625	0.07572583
13	0x3db039e2	0.0860479
14	0xbd9c6e72	-0.07638253
15	0xbb7a4a73	-0.0038191348
16	0x3d05a74b	0.032630246
17	0xbce2e29d	-0.027695948
18	0x3e02d080	0.12774849
19	0xbe10a5dc	-0.1412577
20	0xbdb2f5e8	-0.08738309
21	0xbe45d3dd	-0.193191
22	0x3e5bf681	0.21480753
23	0xbebd4395	-0.36965623
24	0xbda87412	-0.08225264
25	0x3c04b591	0.008099929
26	0x3e485ec5	0.19567402
27	0xbd246415	-0.04013451
28	0x3d721f9e	0.059112184
29	0x3e347580	0.17622948
30	0x3c8738d2	0.016506586
31	0xbc26766b	-0.010160069
32	0x3b7bbfe5	0.0038413939
33	0x3d1db327	0.03850093
34	0x3e126ab0	0.1429851
35	0xbda8e3c7	-0.0824657
36	0xbd08dc52	-0.03341324
37	0xbcf79824	-0.030223913
38	0x3e0ea124	0.13928658
39	0xbe85e892	-0.26154
40	0x3df838ac	0.12120184
41	0xbd18bb73	-0.03728814
42	0x3c935df3	0.017989134
43	0xbc3255d4	-0.010884721
44	0xbdc47bd4	-0.09593931
45	0x3d76cfe7	0.060256865
46	0x3d3292c1	0.043596987
47	0xbe2618a6	-0.1622034
48	0x3dff2616	0.12458436
49	0x3e15ad7d	0.14616962
50	0x3d9d981b	0.076950274
51	0x3d849c40	0.06475115
52	0xbadce2ca	-0.0016852256
53	0xbc77dd4e	-0.015128447
54	0xbdcab38c	-0.09897527
55	0x3c91690c	0.017750286
56	0xbd5de104	-0.05416967
57	0x3d7b0180	0.061280727
58	0xbe402a3c	-0.18766111
59	0x3e1ddfa7	0.15417348
60	0x3d42dd24	0.047574177
61	0x3e012bd8	0.12614381
62	0x3e926a0b	0.2859653
63	0x3de76b6f	0.11299788
64	0x3e3f5b22	0.18687108
65	0x3e24211d	0.16028257
66	0x3df28fc4	0.11843827
67	0xbdd960b2	-0.10614146
68	0x3d650fef	0.0559234
69	0x3c28db67	0.010306216
70	0x3d058db5	0.032605845
71	0xbd6fb07e	-0.058517925
72	0x3d996e84	0.07491782
73	0x3d691562	0.056905158
74	0x3ac1fb74	0.001479967
75	0x3d789655	0.060690243
76	0xbd1fabe7	-0.0389823
77	0xbe3cfae5	-0.18455084
78	0xbda7153e	-0.081583485
79	0x3e44bddb	0.19213049
80	0xbcb05504	-0.021524914
81	0xbd3b7fd0	-0.04577619
82	0xbd9d0782	-0.076674476
83	0x3d9692cd	0.07352219
84	0xbe21127b	-0.15729706
85	0xbc3150b8	-0.0108224675
86	0xbd4660b1	-0.048432056
87	0xbd4216df	-0.047385093
88	0xbdb285e6	-0.08716945
89	0x3d1cecca	0.038311757
90	0xbe50e66e	-0.20400402
91	0xbe2d29a1	-0.16910411
92	0x3d5791d2	0.0526293
93	0xbe47898e	-0.19486067
94	0x3defc19e	0.117068514
95	0xbe118270	-0.14209914
96	0xbd1862cc	-0.037203595
97	0x3db78339	0.089605756
98	0xbdad1f9f	-0.08453297
99	0x3e0dec37	0.1385964
100	0xbc90bfe8	-0.017669633
101	0x3d1c6f56	0.038192116
102	0xbcdbde5d	-0.02683943
103	0xba5c7e59	-0.0008411161
104	0x3d40c68c	0.04706435
105	0xbdf5acf7	-0.11995881
106	0x3c88761b	0.01665788
107	0xbd87c480	-0.06629276
108	0x3d8acb26	0.06777029
109	0xbd5edd17	-0.054410066
110	0x3e50ef6b	0.2040383
111	0x3c0bb417	0.0085268235
112	0x3d277cab	0.040890377
113	0x3e28f39b	0.16499178
114	0x3dcf8fa2	0.10134818
115	0xbd927461	-0.07151104
116	0xbd61a944	-0.055093065
117	0xbe14017e	-0.14453694
118	0xbce760d9	-0.028244423
119	0xbc699546	-0.014256781
120	0x3e3fc9fa	0.18729392
121	0x3bc6bc82	0.0060649524
122	0xbb726b02	-0.003699005
123	0xbe00eda2	-0.1259065
124	0xbdedc5e6	-0.11610012
125	0xbe0ea067	-0.13928376
126	0xbd4a243a	-0.049350955
127	0xbe195de0	-0.14977217
128	0x3da6157a	0.08109565
129	0xbd85f64d	-0.06541119
130	0xbc8701ec	-0.016480409
131	0x3d80f8dd	0.06297467
132	0xbbe28dfb	-0.006913898
133	0xbd789e61	-0.060697917
134	0xbbe70d2b	-0.0070511303
135	0x3ccfc7ba	0.025363792
136	0xbdbadcee	-0.0912417
137	0x3d3e3b83	0.046443474
138	0x3d0cbaf5	0.034357984
139	0x3d9e60ca	0.07733305
140	0x3de0fd30	0.10985792
141	0x3ccf4555	0.025301615
142	0x3d8f5009	0.06997687
143	0xbd5ef713	-0.054434847
144	0xbe4e4591	-0.20143725
145	0x3de4af89	0.11166293
146	0xbd52c808	-0.051460296
147	0xbd5f270f	-0.05448061
148	0x3d584244	0.05279757
149	0xbdcfcb40	-0.10146189
150	0xbdf89385	-0.12137512
151	0xbd9e2ec9	-0.07723767
152	0x3e5bf3a7	0.21479665
153	0x3d766000	0.060150146
154	0x3cf68b89	0.030095832
155	0x3dcde6e6	0.10053806
156	0xbd04c26b	-0.032411974
157	0xbe108a5e	-0.14115283
158	0x3db44821	0.0880282
159	0xbd8e85f0	-0.0695914
160	0x3d8582a4	0.06519058
161	0x3e1da5c8	0.15395272
162	0x3a4e9a05	0.0007881227
163	0xbcd14145	-0.025543818
164	0xbdf8f725	-0.12156514
165	0xbb91c9f7	-0.004449125
166	0x3d93441e	0.07190727
167	0x3dc72e3c	0.097256154
168	0xbd5f451c	-0.054509267
169	0xbdcc1be0	-0.09966254
170	0xbe549d56	-0.20763144
171	0xbc8d8b0c	-0.017278217
172	0xbbb5a114	-0.0055428836
173	0xbe71d8ab	-0.23617809
174	0x3e4d705d	0.20062394
175	0x3d4605a1	0.048345212
176	0xbe954bac	-0.29159296
177	0x3e1a5fef	0.15075658
178	0x3d19bc41	0.03753305
179	0x3d64760a	0.055776633
180	0x3e35deee	0.17760822
181	0x3dec75ab	0.11545881
182	0x3da0d069	0.07852251
183	0x3e0a93cd	0.13532944
184	0x3dd95a5f	0.1061294
185	0x3dfcdf96	0.12347333
186	0xbccb3f77	-0.024810536
187	0x3d9a5279	0.07535262
188	0x3c21fdf6	0.009887209
189	0xbc9ec73b	-0.01938211
190	0xbd0c47a1	-0.034248
191	0x3da5ad0d	0.080896474
192	0xbdf1f449	-0.11814172
193	0xbda56b33	-0.08077087
194	0xbe479eea	-0.19494215
195	0xbddeaf56	-0.108732864
196	0xbe5551fa	-0.20832053
197	0x3c891282	0.016732458
198	0x3d5e666d	0.0542969
199	0xbe570c6b	-0.21000831
200	0xbda4dfff	-0.08050536
201	0xbd907d39	-0.07055134
202	0x3d3e7c89	0.046505485
203	0xbb812fb1	-0.003942453
204	0xbd1936e4	-0.037405863
205	0xbd9f16ed	-0.077680446
206	0xbd56402d	-0.052307297
207	0xbd0a2ce6	-0.033734225
208	0x3cd3bd38	0.025847062
209	0x3dc82260	0.097721815
210	0x3e076834	0.13223344
211	0xbc460b46	-0.012087649
212	0xbe11a78f	-0.14224075
213	0xbc80ce80	-0.015723467
214	0xbe55ef82	-0.20892146
215	0x3ce9a016	0.028518718
216	0xbe12aa8e	-0.14322874
217	0xbe2206e6	-0.15822944
218	0xbd354e71	-0.04426426
219	0x3d2c0c83	0.04200412
220	0xbc333014	-0.010936756
221	0x3df0df29	0.117613144
222	0xbbcbfbb9	-0.006225076
223	0x3d57fdf0	0.052732408
224	0xbcfa7e3c	-0.030577771
225	0xbcc0a921	-0.023518147
226	0xbe04b084	-0.1295796
227	0x3db7b2ac	0.08969626
228	0xbe0ba7bb	-0.13638203
229	0x3cc6d4ca	0.024271388
230	0x3e0654cb	0.13118283
231	0xbc33b7c7	-0.010969109
232	0x3d4ab088	0.04948476
233	0xbd3f0b06	-0.046641372
234	0x3d628718	0.055304617
235	0xbbd2724e	-0.0064223176
236	0xbe45abcf	-0.19303821
237	0xbe1aec51	-0.1512921
238	0xbbee1407	-0.007265571
239	0x3d8fb816	0.070175335
240	0x3e17e3a3	0.1483293
241	0x3d0d1c82	0.034451015
242	0xbe27376b	-0.16329734
243	0xbc65920d	-0.014011872
244	0xbe134cd4	-0.14384776
245	0x3e0e95f1	0.13924386
246	0xbe2fbb14	-0.17161208
247	0xbd5175a8	-0.051137596
248	0x3e14996d	0.14511652
249	0xbe35b0fc	-0.17743295
250	0xbe194f37	-0.14971624
251	0x3bd17929	0.0063926172
252	0xbdc38506	-0.095468566
253	0x3d919c58	0.07109898
254	0xbe61815e	-0.22022006
255	0x3e300ea4	0.17193085

bias f4 [64]
0	0xbe888f9f	-0.26672074
1	0xbd216cc1	-0.039410356
2	0xbe4940ae	-0.1965358
3	0x3da23fcd	0.07922325
4	0xbd9d7af4	-0.07689467
5	0x3d87c683	0.0662966
6	0xbeb4a448	-0.35281587
7	0x3e109305	0.14118584
8	0xbe161983	-0.1465817
9	0xbe80562c	-0.25065744
10	0xbe0aa7d5	-0.13540585
11	0x3d19076b	0.03736059
12	0x3dd8481b	0.10560628
13	0xbe0f0a31	-0.13968731
14	0x3d09ff57	0.033690777
15	0x3e34da64	0.17661434
16	0xbe30c022	-0.17260793
17	0x3c0165e2	0.007897826
18	0xbe06d425	-0.13166864
19	0xbcd72c7f	-0.026266335
20	0xbcb81bfb	-0.02247428
21	0xbd568627	-0.05237403
22	0xbd2a37b3	-0.041557025
23	0xbca93de8	-0.020659402
24	0x3da17572	0.07883729
25	0xbe234ee7	-0.15948068
26	0xbd73f490	-0.059559405
27	0x3d904975	0.07045261
28	0xbcc11380	-0.023568869
29	0x3da192f2	0.07889356
30	0xbe622075	-0.22082694
31	0xbe211b54	-0.15733081
32	0xbcb7c7c8	-0.02243413
33	0xbc26580e	-0.01015283
34	0xbe6d0141	-0.2314501
35	0x3dbfe6e0	0.09370208
36	0xbdb582eb	-0.08862861
37	0xbd99b5c2	-0.07505371
38	0xbe220983	-0.15823941
39	0xbde5778a	-0.11204441
40	0x3e69b815	0.22824128
41	0xbe49ff8f	-0.19726394
42	0x3c3c1c93	0.011481422
43	0xbe2b1ccf	-0.16710208
44	0xbdfce0ce	-0.123475656
45	0x3befebcb	0.00732181
46	0xbb1e6cf5	-0.002417383
47	0xbc937bc0	-0.018003345
48	0xbe431dff	-0.19054411
49	0x3ca2fb64	0.019895263
50	0xbe0c9b50	-0.13731122
51	0x3cb48a8b	0.022038719
52	0xbdc4c5c2	-0.09608032
53	0xbe8cec73	-0.27524146
54	0x3d97679e	0.0739281
55	0xbe231002	-0.15924075
56	0x3de1f590	0.110331655
57	0x3d952666	0.072827145
58	0xbd4a9552	-0.04945881
59	0xbdbdfb29	-0.092764206
60	0xbe8a57be	-0.27020067
61	0xbd7c35c3	-0.06157471
62	0x3d9c5082	0.07632543
63	0x3da7d7fe	0.08195494

weight f4 [8, 64]
0	0xbdd5659a	-0.104197696
1	0x3e2d0296	0.16895518
2	0xbc4bca80	-0.0124384165
3	0xbcce2faf	-0.025169222
4	0xbd8e7c72	-0.0695733
5	0xbdefe6ec	-0.11713967
6	0x3d89daf3	0.067312144
7	0xbc59d3da	-0.013295138
8	0xbd7711a0	-0.060319543
9	0x3d4878b4	0.048943236
10	0xbc400158	-0.01171907
11	0x3dd7a505	0.10529522
12	0x3d53fca5	0.051754612
13	0x3c4b5ea5	0.012412702
14	0xbc4b9a3f	-0.012426912
15	0xbd1003d4	-0.0351599
16	0xbc55c831	-0.013048218
17	0x3c8b542c	0.01700791
18	0xbd62391f	-0.055230256
19	0xbe12ee40	-0.14348698
20	0xbda1ca95	-0.078999676
21	0xbcdf46b7	-0.0272554
22	0x3c0891b9	0.008335524
23	0xbd2cb24a	-0.042162217
24	0xbd681ade	-0.056666248
25	0x3bdb04b5	0.0066839107
26	0x3db43c23	0.08800533
27	0xbc54d232	-0.012989568
28	0xbc6283e0	-0.013825387
29	0xbe1453b7	-0.1448506
30	0x3d8d4bba	0.06899209
31	0xbd67b6bd	-0.056570757
32	0xbd05d68d	-0.032675315
33	0xbd3a4972	-0.0454802
34	0xbdcc69f9	-0.0998115
35	0xbe0b97db	-0.13632147
36	0xbdc51c1a	-0.096245006
37	0xbd91009f	-0.070801966
38	0x3d97b707	0.074079566
39	0xbd3b57fe	-0.045738213
40	0xbdc8fd02	-0.098138824
41	0x3db7f2d0	0.0898186
42	0xbd9c0d23	-0.07619693
43	0xbc5fbe1f	-0.013656168
44	0x3deec5ee	0.11658846
45	0xbdd41008	-0.1035462
46	0xbd9e5cb1	-0.07732523
47	0x3d2ff4a8	0.04295793
48	0x3dd02e49	0.10165078
49	0xbdf9037a	-0.12158866
50	0xbd3a5166	-0.045487784
51	0x3e657795	0.22408898
52	0xbcf0a09e	-0.029373463
53	0xbdf19392	-0.11795725
54	0x3d2e1b7b	0.042506676
55	0x3d7d2de0	0.061811328
56	0x3d6be379	0.05758998
57	0xbd4b650f	-0.049656924
58	0x3c8ca7a5	0.017169783
59	0xbd830adc	-0.06398556
60	0xbd86fd11	-0.06591237
61	0x3d2d7861	0.04235113
62	0x3e350573	0.1767786
63	0x3bf0f44e	0.007353342
64	0xbe07fe82	-0.13280681
65	0x3dc1d0bb	0.0946364
66	0x3dc9cdbe	0.09853695
67	0x3decebba	0.11568399
68	0x3c20e541	0.009820283
69	0x3c439f8c	0.011939894
70	0xbe0d35ab	-0.13790004
71	0x3e3507c2	0.1767874
72	0x3cbe6b87	0.023244632
73	0xbe5b92f4	-0.21442777
74	0x3dc72c78	0.097252786
75	0xbbb50fb2	-0.0055255527
76	0x3d2633dc	0.0405768
77	0xbcadcfef	-0.021217315
78	0xbda08914	-0.078386456
79	0x3e4a779c	0.1977219
80	0x3d812117	0.063051395
81	0xbb8fa948	-0.0043841936
82	0xbd2e8882	-0.042610653
83	0x3d9199bf	0.07109403
84	0xbbdb291f	-0.0066882516
85	0xbc40e904	-0.011774305
86	0x3e240316	0.16016802
87	0x3d51a7b5	0.05118533
88	0xbb9f76dd	-0.0048664645
89	0x3d276a34	0.040872768
90	0x3cd67ff8	0.026184067
91	0x3c2d7c99	0.010588788
92	0x3e29f888	0.16598713
93	0x3c9a2939	0.018818485
94	0xbce45206	-0.027871143
95	0xbcd0890b	-0.025455972
96	0xbdfc4c40	-0.12319231
97	0x3dd2e642	0.102978244
98	0xbe2499d6	-0.16074309
99	0xbdd7ab8a	-0.10530765
100	0x3c2a1341	0.010380567
101	0xbb8be312	-0.0042690123
102	0xbc54d1bf	-0.0129894605
103	0x3d3eb375	0.046557862
104	0x3dcf9044	0.10134938
105	0xbe178d3f	-0.14799975
106	0xbce86be2	-0.028371755
107	0xbdad8069	-0.08471758
108	0xbddf8ce8	-0.109155476
109	0xbdca5735	-0.09879915
110	0x3dc7c934	0.09755173
111	0x3dbf9319	0.093542285
112	0xbd535b93	-0.051601004
113	0x3d8ffcc3	0.07030632
114	0x3d8409ae	0.06447159
115	0xbb060055	-0.0020446975
116	0x3db58ae3	0.08864381
117	0xbcc4dae6	-0.02403016
118	0x3db6b8cc	0.08921966
119	0xbdbc94fe	-0.092081055
120	0x3b2067bd	0.0024475895
121	0x3cfa5758	0.030559227
122	0x3d84fd89	0.064936705
123	0xbd3f94fa	-0.046772934
124	0x3d365def	0.044523176
125	0xbdbcd917	-0.09221094
126	0x3b1ba2e5	0.0023748216
127	0x3d479242	0.048723467
128	0xbdaa8d92	-0.08327784
129	0xbce5fd77	-0.028074963
130	0xbd354911	-0.044259135
131	0xbdb10cce	-0.086450204
132	0xbca3c092	-0.019989286
133	0x3ceea5b5	0.02913175
134	0xbcc61d12	-0.024183784
135	0x3d61cffa	0.055129983
136	0x3bd46e46	0.006482872
137	0xbd432ea5	-0.047651906
138	0xbd81a8c2	-0.06331016
139	0x3d90d617	0.070720844
140	0xbbf8dddb	-0.0075948066
141	0x3d17e584	0.037084118
142	0xbd8bfa1d	-0.06834815
143	0x3b894593	0.004189202
144	0x3d989669	0.074505635
145	0x3d28a54e	0.04117327
146	0x3d94e6da	0.07270594
147	0x3e1ecc50	0.15507627
148	0xbd807ecc	-0.062741846
149	0xbdd7a3b8	-0.10529274
150	0x3e337db4	0.1752842
151	0x3de58151	0.11206306
152	0xbdb67359	-0.089087196
153	0xbc03bd42	-0.008040728
154	0x3dc50d24	0.09621647
155	0x3ca637e2	0.020290319
156	0xbd9c382d	-0.07627902
157	0x3d22fa8a	0.039789714
158	0x3dc1b5bf	0.094584934
159	0xbd7e4672	-0.0620789
160	0x3dac66c5	0.08418039
161	0x3e08cde3	0.1335979
162	0xbcd7ef79	-0.026359307
163	0xbd6c6264	-0.05771102
164	0xbc5814e7	-0.013188577
165	0xbc4ec0be	-0.0126191955
166	0xbe0c5f18	-0.1370815
167	0x3bb6cb99	0.00557847
168	0x3cc9cc4b	0.024633547
169	0x3c92651f	0.017870484
170	0x3e03ddd5	0.12877591
171	0x3e0ce0c1	0.13757612
172	0x3d5c685c	0.053810462
173	0x3e3008cd	0.17190857
174	0x3d06b3ed	0.032886434
175	0x3d789083	0.060684692
176	0x3d23a710	0.039954245
177	0x3c941044	0.018074162
178	0xbd763d04	-0.060116783
179	0x3c571b2a	0.013129035
180	0xbd40c808	-0.047065765
181	0xbd89e307	-0.06732755
182	0xbda92f8a	-0.082610205
183	0xbbe68ef5	-0.007036085
184	0x3cb28089	0.021789806
185	0xbb320622	-0.00271643
186	0x3d7a0904	0.061043754
187	0xbe0c3e0f	-0.13695548
188	0xbdb840ee	-0.08996759
189	0x3c8e3c2a	0.017362673
190	0x3df9fac6	0.12206034
191	0xbd24405f	-0.04010045
192	0x3d89e5c3	0.06733277
193	0x3c0d6459	0.008629882
194	0xbdc77889	-0.09739787
195	0xbd5fb2b0	-0.05461377
196	0xbd06ad08	-0.03287986
197	0xbd934b52	-0.071921006
198	0x3da83be0	0.08214545
199	0xbbabe6c8	-0.005246017
200	0x3e15baa6	0.14621982
201	0x3b35c9b5	0.0027738635
202	0x3d598db3	0.05311365
203	0xbb9c0bd8	-0.004762154
204	0xbbfb74cc	-0.0076738354
205	0xbdf1219e	-0.1177399
206	0xbd72666c	-0.05917971
207	0xbd7a9ced	-0.061184812
208	0x3e0fb780	0.14034843
209	0xbd5d31b0	-0.054002464
210	0xbc726d38	-0.014796548
211	0xbda5bafb	-0.08092304
212	0xbc8fcde5	-0.017554233
213	0x3d9409d5	0.07228438
214	0xbc91f2eb	-0.017816028
215	0xbdfc6d39	-0.1232552
216	0xbc6e3ca2	-0.014540823
217	0xbcadeb0c	-0.021230243
218	0x3d38acd3	0.045086693
219	0x3d89138b	0.06693181
220	0xbd5c3002	-0.05375672
221	0xbc6196ac	-0.013768833
222	0xbde6cdb4	-0.112697035
223	0x3b5aa06b	0.0033359777
224	0x3d859f11	0.0652448
225	0x3d741a27	0.059595253
226	0x3d4c3ea8	0.04986444
227	0xbdb5ff03	-0.0888653
228	0x3cde104f	0.027107386
229	0x3bb9791e	0.0056601902
230	0xbe327f6a	-0.17431417
231	0x3d2cd1c6	0.042192243
232	0x3dcbbd72	0.09948243
233	0x3cded52a	0.027201254
234	0xbdb272d4	-0.08713308
235	0x3d2f95c7	0.04286745
236	0x3aa24787	0.0012380936
237	0x3dc03ff3	0.09387197
238	0x3dde2354	0.10846582
239	0x3ca5b281	0.020226719
240	0x3cca54e1	0.024698677
241	0x3c94ee2e	0.01817998
242	0x3d0d0e3c	0.034437403
243	0x3d7fa7cb	0.06241588
244	0xbcb0c3c5	-0.021577725
245	0xbe0cb122	-0.13739446
246	0xbdae9b03	-0.0852566
247	0xbd71621d	-0.05893146
248	0xbc9dddfe	-0.019270893
249	0x3d9d68b1	0.07685984
250	0xbc76feff	-0.015075444
251	0xbde2b726	-0.11070089
252	0x3d8b52dc	0.068029135
253	0x3da3af02	0.079923645
254	0xbd49717a	-0.049180485
255	0xbb20554d	-0.0024464906

bias f4 [8]
0	0xbdbd2dc1	-0.092372425
1	0x3ddb7e48	0.107174456
2	0xbd02e7d4	-0.03195937
3	0x3d897b4c	0.0671297
4	0x3de5c182	0.11218549
5	0x3ec39eaa	0.3820699
6	0xbd32d8b8	-0.04366371
7	0xbda892e1	-0.0823114
